outputs/2021-06-22/15-35-41/enzymes-hydra/1m8loaoe/checkpoints/epoch=168-step=8956.ckpt (torch, 236486 bytes, 30 tensors)

model.gcn1.weight f4 [21, 64]
00000000: 6171 2a3e dae7 833e 8e83 3ebe b3e6 463e
00000010: d4f1 dc3d 456c f23d 64d6 abbd 4abb d53d
00000020: dae4 703e 0fa6 06be 3e11 2c3e 8263 763d
00000030: 894b 3f3e 7164 613d 0436 5d3d c404 98bd
00000040: 49b3 803e e628 2cbd 5ad5 0abe d850 cb3c
00000050: 4c8c 20be 228b 243b cb2e 2abe eca4 933e
00000060: ebf1 97bd ba9b 0dbe 7a4a 4fbe decf 34be
00000070: b584 34bd 059c 9cbe c33d 863e daf3 80be
00000080: 9f19 773d f653 4fbc 5396 72bd 89ce 3c3e
00000090: 3b54 93bb 9dd7 883e 90a1 1d3c 675e 4dbe
000000a0: 4cac 353d ae08 853c 7d76 3d3e eddd 5a3e
000000b0: fcda b33d 91e7 0fbe d78a 083e a8ca 903d
000000c0: 247f 3e3e 591c 43be 5624 b0be 4409 dfbd
000000d0: bb64 3cbe db56 7d3e 9d11 a03d 2dea 213e
000000e0: bdbc d43c ed77 c8bd 0666 b23d 6997 f2bd
000000f0: a139 adbc b407 d6bd 50ab 993d b83a f1bd
00000100: 0107 033c f6eb 7bbd 9b53 b83d d49f 40be
00000110: 185f 05bd 4f7e d6bd 8a7a 6c3e 67ae 633d
00000120: a70b 223e 6a14 c3bd 2882 abbe 1ca2 50be
00000130: c604 0cbe a347 0b3e 37bf dfb9 8e37 723e
00000140: 66f5 36be 512e 6bbe 7093 ab3d 4af9 b4bd
00000150: f5aa e83d ea89 d0ba c15e 2e3e 15a3 efbd
00000160: 7b2d 55bd 8d0a 1b3e 07ec 53bd 1c53 313d
00000170: 8290 2a3e 9e6e 093e 59ba 67be 7e3a 16be
00000180: 75fa e73d b6a5 12be db6b 853b 7035 30be
00000190: fb22 53be 19c8 263d 467c 8abc cbb9 afbe
000001a0: 9cc1 d33b ad72 c1bd f0ec 24be 4db3 39be
000001b0: 2b53 91be ec25 8cbe fec8 683e d191 bc3d
000001c0: 3c25 f63d d4b7 97be ba25 8cbe a24c a6bd
000001d0: e83f b53d 4e71 81be 51b1 79bd 790d c7bd
000001e0: 9231 6dbd 6ec5 3ebe 1efd 9abd fa65 b8bd
000001f0: b699 4dbe ee09 a1bd 1031 99bd 58ad 6cbe
00000200: 3540 963e 1b21 adbc 5ef2 e33d 3b34 9e3c
00000210: 09a5 f9bd 8cdb 863e 0baa 2cbd 6487 2f3c
00000220: 370d 04be 5494 2bbe 9b5a 13bc d34e a2bd
00000230: 5b57 203e c294 bdbd d5ef ee3d becd fabd
00000240: 4ad2 ebbb b717 c3ba 8b85 1a3e 6296 5a3e
00000250: 493d 843e a6b7 40be 7f05 fc3d 240e c5bb
00000260: abc8 9b3d e1e8 f1bd f40c db3d 47cc bfbd
00000270: dccd 663e f2f7 553d 9cb3 693d e671 3ebe
00000280: 8849 0a3e 1961 393c a472 1d3e 2f51 63be
00000290: 3118 923d ecdf 98bc 09a0 c0bc 6e73 d93d
000002a0: 0561 d53d c16d 60bd f1cc 5bbc fc7b c23c
000002b0: 6f99 bc3d f3d6 7abd 3b5e 48be 83b9 853b
000002c0: d0c1 81bd db86 e23d c17a ea3d e908 97be
000002d0: 783e 123e b00d 1e3e 4caa 053e e910 6cbc
000002e0: 5c31 073e 09f4 533d 1f9f 633c 27ee 903d
000002f0: ec56 e6bd 45a2 ef3d d60a c9bd 3659 19be
00000300: d5e1 b43e cb37 103f 934f 31be 99ef 13be
00000310: 5d71 77bc 5258 683d 6711 103e f756 9a3e
00000320: 471a 2fbe 600e 803c ce4f c63e 657d 03be
00000330: 7c97 2c3d 4525 f7bd 061c 93be 7cf9 77be
00000340: 7041 82be 0e55 55be 8776 003e 7bd3 d43e
00000350: d4a5 02bf cb16 84be bac2 49be ed2a 0c3f
00000360: 3723 253e a5fc c3bd 1ab5 433e abc4 b0bc
00000370: 6df1 ab3d 19b0 793e 88bf 5abe 21c8 713d
00000380: 5c80 c8be 28cd d13d 5c60 513e 8b7e de3e
00000390: 672b 97be d615 c0be f47c 4bbe 0882 403e
000003a0: ec9c ba3e 3a38 073f ff1e b93c 675a 783d
000003b0: 141e ccbd 3362 a33c 9c5a 9abe b537 993c
000003c0: 46df 1e3e da7f ebbd f6c9 f03c f6ff 12bf
000003d0: ae89 9b3d c51f 41be 1d6e d1bc edce f9bd
000003e0: c71b 5bbe e087 af3d c491 a03c 1198 f6bd
000003f0: 03e7 cfbc 1a5a 93be 07d7 2bbe 88de 87be
0.16644813 0.25762826 -0.18604872 0.19423942 0.107883126 0.11837057 -0.08390501 0.10436113
0.235248 -0.13149284 0.16803452 0.06015349 0.18681158 0.05502743 0.05400659 -0.07422784
0.25136784 -0.04203119 -0.1355795 0.024818823 -0.15678519 0.0025107344 -0.16619413 0.28836763
-0.07419189 -0.13828936 -0.20243254 -0.1765742 -0.04407187 -0.30587783 0.26218995 -0.25186044
0.06032717 -0.012654295 -0.05922539 0.18438162 -0.004496125 0.26727 0.009621039 -0.20055543
0.04435377 0.01623949 0.18502231 0.2137372 0.08782002 -0.1405318 0.13334213 0.070699036
0.18603188 -0.19053783 -0.34402722 -0.10890439 -0.183978 0.24740164 0.078158595 0.15811987
0.025968904 -0.09788499 0.08710866 -0.118452854 -0.021145644 -0.10450688 0.075033784 -0.11778778
0.007997275 -0.061504327 0.090003215 -0.1881097 -0.03256139 -0.1047331 0.2309362 0.055586245
0.15824758 -0.09525378 -0.3349774 -0.2037434 -0.13673696 0.13601546 -0.0004267634 0.23654005
-0.1786705 -0.22966887 0.08377731 -0.088366106 0.113607325 -0.0015910242 0.17028333 -0.11701027
-0.052045327 0.15140744 -0.051738765 0.04329215 0.16656688 0.13421103 -0.2262968 -0.1467075
0.11327068 -0.14321026 0.0040716953 -0.17207885 -0.20618813 0.04071817 -0.016904961 -0.34321436
0.006462289 -0.09445701 -0.1610601 -0.18134804 -0.28383765 -0.27372682 0.22732922 0.092075
0.12018821 -0.29632437 -0.27372533 -0.08120085 0.0885008 -0.25281757 -0.060960118 -0.097193666
-0.057908602 -0.18630001 -0.075678095 -0.090038255 -0.20078167 -0.07863222 -0.07480061 -0.23113
0.2934586 -0.02113395 0.11130212 0.019312015 -0.12189681 0.26339376 -0.042154353 0.010713432
-0.12895666 -0.16755801 -0.00899377 -0.07925191 0.15658323 -0.09256889 0.11666838 -0.122462735
-0.0071966993 -0.0014884387 0.15090005 0.21346429 0.25828007 -0.18820056 0.12305736 -0.0060136486
0.07606634 -0.11811996 0.1069583 -0.09365135 0.22539467 0.052238412 0.057056054 -0.18598136
0.13504612 0.011314654 0.15375763 -0.22198938 0.071335204 -0.018661462 -0.02351381 0.106177196
0.10418896 -0.05479217 -0.013415561 0.023740761 0.09208953 -0.061240148 -0.19567196 0.0040809526
-0.06335795 0.11060878 0.11449195 -0.29498985 0.14281642 0.15434909 0.13053244 -0.014408329
0.13202423 0.051746402 0.013892918 0.07076674 -0.11247048 0.11700872 -0.0981652 -0.14975438
0.35328546 0.56335133 -0.17315511 -0.14446868 -0.0151027115 0.056724854 0.14069138 0.30144474
-0.17099868 0.015631855 0.3873276 -0.12840803 0.042136654 -0.120676555 -0.28732318 -0.24216264
-0.2544055 -0.20833227 0.12545215 0.41567597 -0.51034284 -0.2579864 -0.19703189 0.54753
0.16126715 -0.095696725 0.19112054 -0.021578154 0.08395658 0.24383582 -0.21362126 0.05902875
-0.3916043 0.102442086 0.20446914 0.4345592 -0.295253 -0.3751666 -0.19871885 0.18799603
0.36447847 0.5282017 0.022597788 0.06063309 -0.099666744 0.019944286 -0.30147254 0.018703321
0.1551486 -0.11498995 0.029393177 -0.57421815 0.0759462 -0.18859775 -0.025565201 -0.12197671
-0.21397315 0.08570838 0.019600756 -0.12040723 -0.02537871 -0.2877968 -0.16781245 -0.26536965

model.gcn1.bias f4 [64]
00000000: 6b7f 8b3d e2a5 21bd d80e b4bd bcc5 29bd
00000010: 5c50 7f3c fd44 71bb c04c 51be 07d5 1abe
00000020: 73f9 78bd bd68 8f3e 5a2e 60bd 438e 13bc
00000030: 6189 7f3d 3529 813e aaba b8bd f83c 5a3e
00000040: c0d6 b93c c87f 46bd 6299 aa3d ca19 2a3d
00000050: e87c 523d c31b b6bd 5f83 633d fb0e 343e
00000060: 4baf 523e 159d 853e 91e4 cfbd 82f2 ba3d
00000070: 6246 11bd 2f1b 4e3c d278 edbd e0d1 73bb
00000080: ac64 6ebe efb8 cebc 3ef6 153e 1779 b53d
00000090: cd64 c8bd 9abc 8abe 3331 e63d 2bc3 4dbe
000000a0: 50b2 21bd f725 d2bb a4c3 9f3d 061f a03c
000000b0: 53f3 50be e2e9 81bc 5c7b bdbd 8b89 313e
000000c0: fdd6 16bd 81ac f93c 1f75 24be edec 2c3e
000000d0: 320c ee3b 6d85 d9bd 78c0 383e 35cb 3b3d
000000e0: c815 a33d 3ae5 0cbd dce3 af3d f7a5 ce3d
000000f0: 04ce 2d3c c003 2c3b f029 dfbd ab26 fbbd
0.068114124 -0.03946484 -0.08791894 -0.04144834 0.015583124 -0.0036814802 -0.20439434 -0.15120326
-0.06078477 0.28009596 -0.054731704 -0.009006086 0.062386874 0.2522675 -0.09019978 0.2131232
0.022685409 -0.048461705 0.08330037 0.0415285 0.05138865 -0.08892014 0.055545207 0.1758384
0.20574681 0.26096407 -0.101510175 0.09128286 -0.035467513 0.012579723 -0.1159531 -0.0037203953
-0.23280591 -0.025234668 0.14644715 0.08860987 -0.09784851 -0.27097017 0.11239853 -0.20093982
-0.039476693 -0.006413217 0.07800987 0.019546043 -0.20405321 -0.015858594 -0.092520446 0.17337625
-0.036826123 0.030477764 -0.16060303 0.16887255 0.0072646374 -0.10621152 0.18042171 0.04584809
0.07963139 -0.034398295 0.085883826 0.10090249 0.0106082 0.0026247352 -0.10896671 -0.12263235

model.gcn2.weight f4 [64, 64]
00000000: a269 113d 6f01 7cbd 5c37 2cbe 936c d83c
00000010: 61cd 71be f2c9 44bc 60db 4cbc 0849 06be
00000020: 7e9f 423c 88f9 f63c 4e04 473e df4f 2f3e
00000030: 3d4b aabd e6cd 313e 3554 16bd 99ff e4bd
00000040: 47a9 5cbe 9fee 423d 38e4 b8be 77b7 a43d
00000050: 8fa4 a53d 26bf 24be adb3 b1bc 19fa 4abe
00000060: 7dd3 7d3e 359d 253e ff8a f53c ce62 4c3e
00000070: 8b8c 13bd b193 5ebe d225 373d 23fe cb3c
00000080: 76cd 693e 37c4 4ebd 3554 0c3e 4c58 3e3d
00000090: 3bbd 6b3e 6831 34be 9176 5c3e affd 49be
000000a0: d33d 293e e991 c33c a752 9abe 818a 713e
000000b0: b4c5 64bd 393f 87bd 1362 15bd 79de 143e
000000c0: 408d e83d 0160 a7bd 68bf 413e a290 3e3d
000000d0: ac3d d8bc f820 043d 8f24 81be 4393 20be
000000e0: 431e b1bd 00d2 54be 30e3 e3bc 0654 183a
000000f0: 0fca 0ebe ec2f 0bbe 62db 8dbd 7db5 05bd
00000100: 4fe0 37be eacb 65be 3ad1 78bd 2594 a93d
00000110: eaeb f93d 9e1c eabd 6e32 07be 5c2b eebb
00000120: 0a47 0bbe 89dc 91bd 7a63 d93d d0c9 8a3e
00000130: 50da f83d cb4e 9c3e 9560 25bd 201a 79be
00000140: 6775 8a3e b926 32be 3024 91bd 5879 49be
00000150: 8c9a 09bd b06e a9bc 4061 ac3e f5e1 f63d
00000160: fe9d 2f3d 6071 773e 4d75 3abe 2cc4 073d
00000170: df62 4b3e 970b c43d 25ce c3bd c7f4 c63c
00000180: 4516 8dbd 0e26 a1bc c6c9 f8bd 980b aabe
00000190: d0ea 93be 922f 9c3d de81 5e3d 3184 d83d
000001a0: eb5a 4ebe d3b7 bfbd 709d 5ebe f609 3bbe
000001b0: 30bb 2f3e d529 8c3e 6cd6 0c3e 6128 57be
000001c0: 4c2c 663d 89f8 2d3d f0e4 6f3d 673f 03be
000001d0: 59dd 54be 37fa a03d a347 79ba c3d3 893c
000001e0: 11f7 0dbe 9d73 1b3d 8fa6 103e b44e 2dbc
000001f0: 4344 103e e004 5b3e ecad 2a3c 9638 bbbd
00000200: c76d 96bc 2beb 143e 701a 56be c6ad a13d
00000210: b1d7 ecbc baf3 8a3d d228 403c 9191 b2bd
00000220: e1c5 23bd 1f02 e93d 912f 1abe 1ee8 fdbd
00000230: e7ae 92bd 0c61 dbbd e584 b83d 0925 153e
00000240: 4e16 97bc 7713 463e db91 eabd 8246 e1bd
00000250: ecf0 bcbd 1d64 15be a439 2dbe a6b2 1dbe
00000260: a231 59be 71a9 143d d87d f93d dfbc 3b3e
00000270: a18c 113e ef6c babc 7cad 573d 5368 f7bd
00000280: 663b 883d 3ea3 3fbe 0dd3 9b3d d357 923d
00000290: 46a4 0b3d 1c5a a83d 65fa 05be c2e0 353e
000002a0: dcbf b53d 348d 0a3e 9f79 4c3d fe27 e13d
000002b0: 0246 e73d 6a2b be3d 1fd3 103e a83b 5dbd
000002c0: b309 0a3e f584 5c3d 460e 053e 0fc4 563e
000002d0: 8cf3 233d 8f95 fbbd 45b8 42bd bab7 483d
000002e0: b066 193d 3faa e9bc d4be 2a3e d36f 1f3e
000002f0: 5499 0fbe 766b 06bb c06e aa3c 446e fbbd
00000300: 2cc3 283d 1b8f f5bd 96f4 f2bd c3d1 72bd
00000310: 122d 9abd 6b0f 443e 6bf0 e73d 82f2 683e
00000320: 9fb1 3f3c 5652 6c3d a265 943d a4d3 363d
00000330: 735a 36be 8e62 2bbe 551d a2bd 4e0c b8bb
00000340: d470 953d d3f7 d93d 57bb 1e3e cc3e 883d
00000350: afe0 a9bd 8863 24be 886b 4dbe e2c5 e6bd
00000360: ad15 1a3d 632c b13d a439 363e 6f1c 68bd
00000370: 40c6 f1bc dc2a b9bd b448 a43b f27b c73c
00000380: 8505 2ebd 054a 08bc e91d febb 6e68 e03d
00000390: f278 90bd 3375 0fbe 2e2c ad3d 1c3c 57bc
000003a0: 2f80 fcbd 636e e23d 9568 adbc 972b 06bd
000003b0: 4cdb 2ebe 54be 3ebd 1a83 67be 1078 ce3c
000003c0: 40d5 1e3c 5a13 0b3e ef27 143d 4553 583d
000003d0: f4a7 bc3c 0ae2 cb3d 804f ecbd df64 9a3d
000003e0: 6fa3 5f3d d161 1bbe 8ecb 03bc 58b4 ecbd
000003f0: a8bd 9abd 4110 0abe 1eaa 03be 1b5f 343e
0.03550113 -0.061524805 -0.16817993 0.02641896 -0.23613502 -0.012011038 -0.012503475 -0.13113797
0.011878846 0.030148283 0.19435236 0.17120312 -0.08315132 0.173637 -0.0367014 -0.11181564
-0.21548949 0.047590848 -0.36111617 0.08042806 0.08088028 -0.16088542 -0.021692121 -0.19821967
0.24787708 0.16173251 0.029973505 0.19959566 -0.036022704 -0.21736027 0.044713803 0.024901455
0.22832283 -0.050480094 0.13703997 0.046470925 0.23021404 -0.17596972 0.21529604 -0.19725679
0.1652749 0.023873286 -0.30141184 0.23587991 -0.055852607 -0.06603856 -0.036470484 0.14537992
0.11355066 -0.08172608 0.18920672 0.04652465 -0.026396595 0.032258004 -0.25223204 -0.15681176
-0.0864835 -0.20783234 -0.027818292 0.00058108603 -0.13944267 -0.135925 -0.069266096 -0.032643784
-0.1795666 -0.22441068 -0.06074641 0.082802095 0.122032 -0.114312395 -0.13202831 -0.0072683524
-0.13601318 -0.07122142 0.10614677 0.27107096 0.12151015 0.30528864 -0.04037531 -0.24326372
0.27042696 -0.17397584 -0.0708698 -0.19675195 -0.033594653 -0.020682663 0.33667946 0.12054817
0.042875282 0.24164343 -0.18208809 0.03314607 0.19861935 0.09572523 -0.09560803 0.02428664
-0.06889013 -0.019671466 -0.1214786 -0.3321197 -0.28890085 0.07626261 0.05432307 0.105720885
-0.2015187 -0.093612336 -0.21739745 -0.18265519 0.1716125 0.27375665 0.1375367 -0.21011497
0.05619459 0.04247335 0.05856794 -0.12817155 -0.20787562 0.07860225 -0.0009509271 0.016824609
-0.1386378 0.037952054 0.14126037 -0.010577846 0.1408854 0.21388578 0.010417443 -0.09141652
-0.018362893 0.14542834 -0.20908523 0.07894473 -0.028911443 0.067847684 0.011728482 -0.08719171
-0.039983634 0.11377358 -0.15057208 -0.123977885 -0.07162266 -0.107118696 0.090097226 0.14564909
-0.018443253 0.19343363 -0.11453601 -0.109997764 -0.0922564 -0.14588971 -0.1691652 -0.1540018
-0.2121034 0.036294404 0.12182206 0.18333767 0.14213802 -0.022757022 0.052655682 -0.12080445
0.06651954 -0.18714616 0.07608614 0.071456574 0.03409221 0.08220312 -0.13083799 0.1776152
0.08874485 0.13530427 0.049920674 0.10993956 0.1129265 0.09285624 0.14143036 -0.05401197
0.13480262 0.053837735 0.12993726 0.20973228 0.040027186 -0.122843854 -0.047539014 0.04900334
0.037451446 -0.028523562 0.16674358 0.15570001 -0.14023334 -0.002051083 0.020804763 -0.12276891
0.041201755 -0.11990186 -0.11863057 -0.059282076 -0.07528128 0.19146506 0.11325153 0.2274876
0.011700063 0.05769571 0.072459474 0.04463543 -0.17807941 -0.16736814 -0.07915751 -0.005616701
0.07296911 0.10642972 0.15501152 0.066526026 -0.08294808 -0.16053593 -0.20060551 -0.11268212
0.037618328 0.08651044 0.17795426 -0.05666774 -0.029513478 -0.09041378 0.0050135497 0.024351094
-0.042485733 -0.008318429 -0.0077550304 0.109574184 -0.070543185 -0.14009552 0.08455692 -0.01313689
-0.123291366 0.11056211 -0.021168033 -0.032756414 -0.17075843 -0.04656823 -0.22608605 0.025203735
0.009694397 0.13581601 0.036170896 0.052813787 0.023029305 0.09955223 -0.11538601 0.07538771
0.05459922 -0.15174033 -0.008044137 -0.11557835 -0.07555705 -0.13482763 -0.12857863 0.17614405

model.gcn2.bias f4 [64]
00000000: be78 4f3d d97c 8bbd af94 e9bd d58e 31bc
00000010: 0a70 2e3d de76 a83c 13df d03d 5623 c6bd
00000020: 1ccb b7bd 45f2 673e d596 4bbc 8168 8d3d
00000030: 3004 943d f232 a6bd f367 e4bc e7d5 98bd
00000040: 8e69 47bd 565b a9bd bdbd e43d 563a cfbd
00000050: 4524 873d c61c 18bd c4e4 f23c c73c ce3c
00000060: 776d 013e f8d5 96bc ebf3 12be 0f86 bb3d
00000070: 3c1f 603d edc8 1bbe 9001 0f3d 75f4 ca3d
00000080: c857 3ebb 601a 593c 3ac9 d0bd d463 afbc
00000090: e161 e63d 02c4 12bc 8d73 48be 1a31 163e
000000a0: d16d 0a3c aa6b fb3c 8e2e ab3c 7714 493d
000000b0: dd17 81bd 6acb 723b 7418 53bd 5f5c ee3d
000000c0: 820b d9bd 6e01 50bd c808 9c3d 1dc6 dd3d
000000d0: b210 07be c4d2 0fbd 0a7a efbd 6f7b be3d
000000e0: bd1c de3d c7cf a83d 5629 9abd 0faf 0dbe
000000f0: d716 0d3d d61e 8e3b 0732 263e 7240 9a3d
0.050652258 -0.06810922 -0.11405312 -0.0108372765 0.042587318 0.020564493 0.10198798 -0.096747085
-0.08974287 0.22651012 -0.012426098 0.06904698 0.07227361 -0.08115186 -0.027881598 -0.07462674
-0.04868465 -0.08269374 0.11169002 -0.101185486 0.06598715 -0.037136815 0.0296501 0.025175465
0.12639414 -0.018412575 -0.1435086 0.09156429 0.054717287 -0.15213366 0.0349136 0.09909908
-0.002904402 0.013250917 -0.10194631 -0.021409906 0.11249138 -0.008957865 -0.19575329 0.14667168
0.008449034 0.030690987 0.020896222 0.049091782 -0.0630338 0.0037047514 -0.051536992 0.11638712
-0.10597898 -0.050782613 0.076188624 0.10828803 -0.13189963 -0.03511311 -0.11693199 0.09300887
0.10845325 0.082427554 -0.075274155 -0.13836311 0.03444561 0.004337172 0.16230021 0.07531823

model.gcn3.weight f4 [64, 64]
00000000: 1857 53be 5c67 723c 1183 f53b 621f f9bd
00000010: cd1e cc3c 2a03 e8bb 5248 44bd e899 36be
00000020: 6f90 4f3e 50a2 503e 5984 ddbc ce6d b1bd
00000030: 23c3 883d 7e39 e33d 4cef f9bc 7334 233e
00000040: e98c f0bd f68b a03c 934e 003e 6af7 1abe
00000050: 2166 d6bc e34e e1bd 73a9 04be 7a64 0f3e
00000060: d779 d73d 155e e4bd 0dfe 0ebe 6ac2 4a3c
00000070: f0d3 b2bd 34ca eebd b9bf 46be 23cf 033e
00000080: 4a5a 953d e6a4 803d ba67 b6bd db95 29be
00000090: 1f8d 3dbd 8fc1 e03d 20ff a2bd a6e2 213e
000000a0: 00c6 263d 9930 413d 84aa 943d f823 d23d
000000b0: 2426 15be fee4 083d bcd6 39be a3dd 27bc
000000c0: 62b9 9ebd 49bd f63d 2c1d 15be 5dab 953d
000000d0: d0c2 6bbe ef5b 363d e0e5 e53c 4cd9 cfbc
000000e0: 5532 313e 0dd5 013e 19b6 ad3d ad19 f4bd
000000f0: 1c68 4dbd 42b9 553e 2cca ce3d 71fe 923d
00000100: a8a1 9cbc e5b6 72bd a3b8 03bd 260f 083d
00000110: 1dcc 113e e4f9 27bd 28e4 d6bc e423 4abd
00000120: c751 983a f97c 073e bcf6 063e 39e1 583b
00000130: c7d7 0cbe 8a3d c83d de0f 383e c9a1 51bc
00000140: c61a c23d ff1d 0ebe 9ea6 8fbe 03d8 04bc
00000150: 1a0f 163b 701c 8f3e 7200 383d e54c 26bd
00000160: bc4a bcbb 7c95 5cbd e68a a4bd 09b4 debd
00000170: eefa 5e3d ee45 203e 22ca 643e 8bc1 943d
00000180: 3356 2abe 1303 383e 819d 6e3e 8064 93bd
00000190: c0a3 ddbc cfc7 2d3e dc90 bebd 30d6 b13d
000001a0: 098b c7bb 4bae ec3c 02a9 953d e709 8b3e
000001b0: 546c 5d3e 66a1 07be 7ce1 be3b 8b0c 2abd
000001c0: c7dd 9fbc 51fb 57b8 5294 04bd eb53 e8bd
000001d0: d74e 63be ab43 28be 8328 2a3d e784 0b3e
000001e0: b157 1e3e d54e a83c 3a8b 823e 0368 89be
000001f0: 6c42 0ebe 14b7 5a3d 0ba4 3cbe e2c1 3c3e
00000200: 5edf 233d ad30 fd3c 1ccd 163e e171 103d
00000210: f03e 373e d0cd 053e 9118 3abd 682a 6a3e
00000220: c1c3 a73c 6df2 993d 143b a23d 9391 42be
00000230: 6ad5 c0bd 6553 863e e150 f4bd f06d 843d
00000240: dd86 d23d b8fa eebd 5c23 b73c 437b a7bc
00000250: fa86 0e3e 4d9f 88bd d179 3a3e bdcb 1cbe
00000260: 8364 313d c30e ad3c 75c1 16bd 95ab d13c
00000270: d273 b6bd b901 b03d 9802 df3d ac79 84bd
00000280: 8165 de3d 2707 f5bd 9dfa 463c 36dd 1a3e
00000290: 768c 893d 1d12 173d 6cfe d03d a057 c6bd
000002a0: 2f71 613d 818b 383e b3f1 cabd af7c 633d
000002b0: 1a02 163e 471c 563d ca9a a1bd ac02 3d3d
000002c0: 8ca1 6ebe ca75 473e fcfe 213e 5f8f ffbd
000002d0: f27c f7bb ee16 d5bc b6c9 403e 4ec0 09bd
000002e0: 25f7 bb3d 4299 2ebe e8ad 053d e6fe 013e
000002f0: cca1 e43d b63f 77bd 0da8 64bb cca6 843d
00000300: bfd4 c53d 869e 11bd c09f a0bd b247 df3d
00000310: 3100 babc c20a 343e b607 62bc 5aa1 853b
00000320: fd4b edbd 8d01 6abc 1b7e db3d 2e96 6bbe
00000330: 960c 0fbd b33e cc3d 462d 393d fa4a 883d
00000340: 21ed 21bd bc70 8b3d 6242 f2bd c2e6 023e
00000350: e49c e53d 8808 d43d 2987 a2bc ee12 523e
00000360: fc53 0f3d 2f4e 533e ed2e c53c c92d 11bd
00000370: dac9 3cbe 785c 3cbe b083 88bc 504a 97bd
00000380: 988e e839 911d 463c cead 353e 1619 5abd
00000390: ea1e f53d be65 a1bd 21a3 a4bc 9d80 e3bc
000003a0: cd26 fbbc c439 df3c 031b 27bd b700 d7bd
000003b0: e1f9 f63d 2c0c d8bc 4e07 abbd 1aec 103e
000003c0: 57a7 81bd ceec 72bd 594f 30be bf3a ccbc
000003d0: b3e0 04be ae42 e63d 25a5 0bbd 7d55 ea3c
000003e0: 7dd0 af3d 2e4f cdbb 6c95 a1bd 0a65 27bd
000003f0: c243 343d b061 10be f4da 95bd 539c 2b3e
-0.20638692 0.014795151 0.007492431 -0.12164189 0.02491703 -0.0070804553 -0.047920533 -0.17832148
0.20269941 0.20374417 -0.027040647 -0.08663522 0.066778444 0.1109495 -0.030509613 0.15937977
-0.117456265 0.019597989 0.12529974 -0.15133443 -0.026171746 -0.110013746 -0.12955265 0.14003173
0.10521286 -0.11150757 -0.139641 0.0123754535 -0.0873183 -0.11659661 -0.19409074 0.12871985
0.07292612 0.06281452 -0.08906503 -0.16561072 -0.04627716 0.10974418 -0.079588175 0.15809116
0.04071617 0.047165487 0.07259086 0.10260767 -0.1456533 0.03342151 -0.18148321 -0.010245713
-0.07750203 0.12047822 -0.1456191 0.073080756 -0.23023534 0.04452127 0.028063715 -0.02537217
0.17304356 0.12678929 0.08481998 -0.1191896 -0.050148115 0.20871451 0.10097155 0.07177437
-0.019120052 -0.059256453 -0.032158505 0.03321757 0.1423802 -0.0410098 -0.02623184 -0.049350634
0.0011621051 0.13231267 0.13180059 0.0033093228 -0.13754188 0.09777363 0.17974803 -0.01279492
0.09477763 -0.1387863 -0.28056806 -0.008108142 0.0022897185 0.27951384 0.0449223 -0.040600676
-0.0057462137 -0.053853497 -0.08034305 -0.10874183 0.054438524 0.15651676 0.22342733 0.07263478
-0.16634445 0.17969923 0.2330227 -0.07196903 -0.027055621 0.16970752 -0.093049735 0.08683431
-0.0060895723 0.028891703 0.07307626 0.27155992 0.21623355 -0.13245162 0.0058252197 -0.04151587
-0.019514931 -5.149405e-05 -0.03236801 -0.11344131 -0.22198044 -0.16432063 0.04154254 0.13624917
0.15463139 0.020545403 0.25496846 -0.26837167 -0.13892525 0.053397253 -0.18421952 0.18433335
0.04000794 0.030907 0.1472668 0.035264853 0.17895103 0.13066792 -0.045433585 0.22867739
0.020479085 0.07516942 0.079214245 -0.19000845 -0.094157055 0.262355 -0.11929489 0.064662814
0.102796294 -0.116689146 0.022355728 -0.020444518 0.13918677 -0.06671009 0.18210532 -0.15312095
0.043308746 0.021125203 -0.03680559 0.025594512 -0.0890881 0.085940786 0.108891666 -0.064685196
0.10859204 -0.11964255 0.012144712 0.15123448 0.06716244 0.03688251 0.10204777 -0.09684682
0.05503958 0.18021967 -0.09909382 0.05553883 0.14649239 0.05227306 -0.07890852 0.046145126
-0.23303813 0.19478527 0.15819925 -0.12478518 -0.0075527364 -0.02601191 0.18826947 -0.03363066
0.091779985 -0.1705065 0.032636553 0.12694892 0.11163673 -0.060363494 -0.0034890205 0.064771265
0.09659719 -0.03555157 -0.0784297 0.10902347 -0.02270517 0.17582229 -0.013795784 0.0040780725
-0.11586759 -0.014282596 0.10717412 -0.23006508 -0.034924112 0.099728964 0.04520919 0.06654926
-0.039532784 0.06808612 -0.11829068 0.1278334 0.11211565 0.1035319 -0.01983984 0.20515034
0.034992203 0.20635293 0.024070228 -0.035444055 -0.18436375 -0.18394649 -0.016664356 -0.07387221
0.0004435673 0.01209201 0.17742082 -0.05324658 0.11968787 -0.07880734 -0.020097317 -0.027771289
-0.03065815 0.027249224 -0.040797245 -0.10498183 0.12059379 -0.026372992 -0.08351003 0.14152566
-0.06330746 -0.059307866 -0.17217769 -0.024930356 -0.12976341 0.11243187 -0.03409304 0.028605217
0.08584688 -0.0062655425 -0.07889828 -0.040867843 0.04400993 -0.14099765 -0.073171526 0.16758852

model.gcn3.bias f4 [64]
00000000: 2edd 7cbc 0fd1 1ebd cf02 09bd 920c 493d
00000010: 69b3 41bd ee67 9ebd 4e9a 8fbc 613f 1bbe
00000020: 3d8a 06be 6129 51bd 4085 1abe 9b0d 093d
00000030: d305 a9bd c3e7 273d e1e3 f5bc f385 123d
00000040: e7dc 853c 101b 12bc affe cc3d 6e0f 2a3d
00000050: de7c 58bc 6f6d e23c c805 e03d fc66 c3bd
00000060: fca2 70bd 536c 04bc 4132 a63d 8a17 863d
00000070: fe36 af3d c78c 67bd 29ca 333c b5a6 5cbe
00000080: 1157 a03c 6a35 56bc 1513 acbd af23 ccbd
00000090: 061b e0bc d2a7 a4bd ecaf 79bd b9b7 183e
000000a0: dd07 8e3d 6c3e cc3d 62ee 00bd 6735 933d
000000b0: 72ac 2ebd 2f7b 49bd 8991 adbd f0b0 2b3e
000000c0: afa3 95bc fb47 c43d bb0e 3ebd 134c 9bbd
000000d0: 07f5 07be 30c8 053e a22c 6cbc a6b8 983c
000000e0: ecac 043e c07b 2d3d c2f8 673d 6c8d 8abc
000000f0: a190 2d3d f992 34bd c979 cf3c e588 e2bc
-0.015433593 -0.038773593 -0.033449944 0.049084254 -0.04729024 -0.07734667 -0.017529633 -0.15160896
-0.13138671 -0.051064853 -0.15089893 0.03346024 -0.08253064 0.04099251 -0.030015888 0.035772275
0.016340686 -0.008917585 0.100095145 0.04151862 -0.013213364 0.027640073 0.10938603 -0.09541127
-0.058749184 -0.008082467 0.08115054 0.065474585 0.08555411 -0.05653074 0.010973492 -0.21547969
0.019572766 -0.013074258 -0.08402077 -0.099677436 -0.027356636 -0.08039822 -0.060958788 0.14913835
0.069350936 0.099728435 -0.03147734 0.0718792 -0.042644925 -0.049189743 -0.08475024 0.16766715
-0.018266527 0.09584042 -0.046400767 -0.075828694 -0.13277064 0.13064647 -0.014414938 0.018642735
0.1295659 0.042354345 0.05663372 -0.016913138 0.042374257 -0.044085477 0.025326626 -0.027653167

model.fc1.weight f4 [128, 64]
00000000: 800f 893d 8737 d63c 94b3 1cbd 1f87 313d
00000010: a341 663d 01c5 ddbc 345a d7bd f78f cdbc
00000020: 2d48 34bd 9e58 4cbd ac02 ab3a 5438 e6b9
00000030: 6704 89bd 4e53 efbc 1006 d83d 3d88 ac3c
00000040: 8db0 bfbd af69 b23d 4a45 573d 5957 4c3d
00000050: 47a2 c53d 6e40 14bd 1097 8e3d 9c0c 1eba
00000060: 19e6 07bd e9c9 c0bd 7672 8f3d 02a1 673d
00000070: 02bd 4cbd 4511 543d 89f2 6ebc 05eb 8dbd
00000080: 9534 883d 8c54 983d 14af 853c a8c5 49bd
00000090: 1e19 d8bb 9732 f2bd 690e 223d 00c2 b53d
000000a0: 9484 06bc 2e9d 233d a1ad 3c3d db30 9c3d
000000b0: feb7 5abd d536 95bd 6169 81bd c2fa 853d
000000c0: 73fa d6bc a269 d5ba 2145 a7bd 5f8a 12bd
000000d0: eed1 8c3c 294f a93c 4478 e6bd 47e9 743d
000000e0: e089 01be 965c eabd ab2f 59bc 2337 59bb
000000f0: 1879 d4bc 8c17 1d3d fb51 553c b000 66bc
00000100: 15cb 063d a9fd 76bd 1b68 0cbe c50d 16bd
00000110: ad96 643d 5f09 603d c8dd d93c 478c ba3d
00000120: 6564 2dbd 86ec d7bc ae77 a23c 3c13 00bc
00000130: d4d9 8e3d 9a33 0cbe b447 473d c150 223d
00000140: 0243 c4bd df29 cd3d 6a3f 07be 5d7c ea3c
00000150: 8155 6abd 8146 783d 1747 6bbb ff8f 953d
00000160: 46ca 6dbd e625 99bd 2d68 4abe a514 f13c
00000170: b4b2 063e c1d5 7dbd 7961 3dbd 2231 ce3c
00000180: 2082 3d3d b0f6 023c cdd1 1a3e e5d8 843d
00000190: 4d22 ccbc 61ed 90bd 489d cfbd caad 82bd
000001a0: 6a1e 8a39 b952 993d 1484 e73d 7d96 073e
000001b0: b215 db3b a2e7 983d c8cd 023e 889f 9dbd
000001c0: 4568 3a3c 2443 11be cc90 8e3d 369c c03c
000001d0: b873 193e 954c f73a 52d3 983d cab1 0b3d
000001e0: f10e 0fbd 59c9 58bc d711 6a3c 3da9 a0bd
000001f0: a136 2a3d bdd8 133c e1c7 79bd 3dbc 57bc
00000200: a260 50bd c5b4 3e3d 18be 253e b908 43bd
00000210: 9445 efbd 912d 5c3d 9431 7dbd e88f 14be
00000220: 45d4 033d 10a6 0fbd 8ceb 6f3d 2a82 d13c
00000230: b7a7 96bd f94e 31bd 4629 18bd 1c0f 393c
00000240: 01d0 0f3d 2bde c63d b354 fbbd 82c2 a2bd
00000250: 1186 60bd f4af f5bc 23d2 88bd 3a87 95bd
00000260: f9f0 b43d 09fc 0cbd 66f8 59bd ae4a 193d
00000270: d8aa 73bb 0abd c83d 93af c8bc 8768 cb3d
00000280: a004 48bd 68be 65bd 07a9 b93d 25b2 cfbd
00000290: 0a08 00be ed30 933d 1695 5ebc dbd9 81bc
000002a0: b7d1 98bc aaa8 97bc a98e 6d3d 973a ae3d
000002b0: ec08 203d 4e3c c63d 446b 8ebd 16cc 5abd
000002c0: 745b bebc caf4 74bd d7b3 09be bf54 eb3d
000002d0: 7777 cf3d 7587 903d c1c6 96bd c183 b83b
000002e0: 71b4 bbbd 00c5 1bbd 8745 a83d c5f4 16bc
000002f0: 6316 813d 8df5 1cbe 9b74 0a3d fd8e 5b3d
00000300: d259 e8bb 7770 803d 4ea4 603d 1beb f73b
00000310: 46f5 c0bc b782 3a3b 4946 abbd 9084 91bd
00000320: 36fb e53c 78f5 1abd 7626 02bd 5fb7 d3bd
00000330: 6d4f 3f3d aa37 d03c ba42 043e 1322 9ebd
00000340: dcfd b53c 3163 d13d f65a b23c 7611 1fbd
00000350: 6796 d53d c815 e83b 4ab7 91bc 57cd bbba
00000360: 8709 a93d e99d c4bd 093f 78bd 8199 daba
00000370: e133 003d 952f 093d 5976 043e 30a0 f23b
00000380: 5c48 c7bd 01cd d3bc beb3 d0bb 63d9 3dbd
00000390: a908 81bd 2c67 0d3e 470a a5bd 0b44 093e
000003a0: 6495 67bd b927 6bbd da39 003d 94e1 5a3e
000003b0: c38f 253d 2e76 b5bd d846 d7bd f56d 933c
000003c0: 7914 813c 5960 1e3d 7afa 583c a7e5 1dbd
000003d0: 477c f33d e5f5 23bd 01b2 aabd 4cd7 a53d
000003e0: 169b 53bd ab64 7cbd a1c9 1dbc 3c05 a2bd
000003f0: 2992 91bc cc9a 8a3d 9f84 1d3b e010 80bc
0.066924095 0.026149524 -0.038257197 0.043341752 0.05621494 -0.027071478 -0.10515252 -0.025093062
-0.044014145 -0.0498892 0.0013047061 -0.00043910986 -0.06690293 -0.029214527 0.10548031 0.021061057
-0.09359846 0.08711564 0.052556314 0.04988799 0.096500926 -0.036194257 0.06962407 -0.00060291006
-0.033178423 -0.09413511 0.070042536 0.056550033 -0.04998494 0.051774282 -0.014584192 -0.06929592
0.06650654 0.07438001 0.016318835 -0.049260765 -0.006594791 -0.118260555 0.039564524 0.08874893
-0.00821032 0.03994482 0.046064023 0.07626506 -0.053398125 -0.07285849 -0.063189276 0.06541969
-0.02624247 -0.0016282091 -0.08167482 -0.035776492 0.017189946 0.02066763 -0.112534076 0.059792783
-0.12650251 -0.114434406 -0.013255994 -0.0033144436 -0.025936648 0.038352534 0.013020034 -0.01403825
0.032908518 -0.060300503 -0.13711588 -0.036634225 0.055807758 0.054696437 0.026595011 0.09108787
-0.04233207 -0.0263579 0.019832458 -0.007817086 0.06975141 -0.1369156 0.048652366 0.039627794
-0.09583093 0.10017752 -0.13207784 0.028623754 -0.05721045 0.060614113 -0.0035900527 0.07302856
-0.05805423 -0.07477932 -0.19766302 0.02942879 0.13154107 -0.06197143 -0.046235535 0.025169913
0.046266675 0.007993385 0.15119095 0.06486682 -0.0249187 -0.070765264 -0.10137421 -0.06380804
0.0002634407 0.07486481 0.11304489 0.13241 0.006685936 0.074660555 0.12773812 -0.07696444
0.011377399 -0.14185768 0.069612116 0.023511987 0.1498555 0.0018867428 0.07462181 0.0341051
-0.03492636 -0.013231599 0.01428648 -0.0784478 0.041556004 0.009023842 -0.060981635 -0.013167438
-0.050873406 0.046559114 0.16185796 -0.04761574 -0.11683193 0.053754393 -0.06181486 -0.14508021
0.032184858 -0.03507048 0.058574244 0.025574762 -0.07356208 -0.043288205 -0.037148736 0.011295106
0.035110477 0.09710344 -0.122720145 -0.07947256 -0.054815356 -0.029991128 -0.066807054 -0.07301183
0.088350244 -0.034420047 -0.053215407 0.037424736 -0.0037180688 0.09801681 -0.024497783 0.099320464
-0.048832536 -0.05608979 0.090654425 -0.101414 -0.12503067 0.07187066 -0.01358535 -0.015850952
-0.018654687 -0.018513042 0.05799738 0.08507269 0.03907101 0.09679471 -0.06954053 -0.053417288
-0.023236968 -0.05980376 -0.1344751 0.114907734 0.10130208 0.070570864 -0.07362128 0.0056309407
-0.09165276 -0.03802967 0.08216386 -0.009213631 0.06303098 -0.15328045 0.03380261 0.05360316
-0.0070907855 0.06271451 0.054844193 0.0075658686 -0.023554455 0.002845926 -0.08363015 -0.071053624
0.028073888 -0.037831753 -0.03177496 -0.1033771 0.046706606 0.025417168 0.12916079 -0.07721343
0.022215776 0.102239974 0.02177189 -0.03883501 0.104290776 0.0070826747 -0.017787594 -0.0014328164
0.0825377 -0.096004315 -0.06060699 -0.0016677828 0.031299476 0.033492643 0.12935771 0.0074043497
-0.09730598 -0.02585459 -0.006369083 -0.046349894 -0.0630048 0.13808888 -0.08058601 0.13404863
-0.056538954 -0.05741093 0.03130517 0.21375114 0.040420305 -0.088604316 -0.10511559 0.017996768
0.015756832 0.038666103 0.013243312 -0.03854909 0.118889384 -0.040029425 -0.08334733 0.08097705
-0.051661573 -0.061619442 -0.009630592 -0.07911155 -0.01776989 0.067678064 0.0024035347 -0.015633047

model.fc1.bias f4 [128]
00000000: 2f71 dbbe df53 8fbe 010a 7dbd 698e b0be
00000010: b1b7 d33d 8ae4 663e b42f be3e 417a e73c
00000020: b6d5 44be 634a 2abd ab17 963e 31c2 5dbd
00000030: 0f30 e43e 3e4d 203d 20e1 d1bc 5c27 fd3e
00000040: 213f 37be bef1 8d3e 3d2b 95be 4e31 3cbe
00000050: 51ae d43a 1982 ebbe 54ce 3f3f 091e 11bf
00000060: 17e9 433e 4fe7 f3be 5556 d63d b513 05bf
00000070: 2c27 823e 5af3 7bbe ce17 39bf ff89 9f3c
00000080: a1d4 943d 17bc c23e b061 a3be 7179 093e
00000090: d289 2c3f 8c50 02be fadd 1f3f db0f 93bd
000000a0: 9422 3bbf a3eb 0ebd 6416 e1be 6988 8b3c
000000b0: 12ce 4a3e 9642 dc3e dc99 36bc fb28 a8be
000000c0: a0b7 b9bd 5714 2d3e 2d1b df3e e382 413e
000000d0: 8abd 54be 9026 9e3e d20f 15bd df1f e93e
000000e0: 61fb 59be f9d6 66be d237 71bb 0dcf 6bbe
000000f0: b5f4 e3be 554e e7be c762 2f3e 4e3c 073d
00000100: c54d 913d db30 ba3e 63fd abbe e101 3c3e
00000110: 5f2c ff3e c628 043f d1a3 eabe 8ee1 02bf
00000120: 14f1 25bd c315 c5be 7601 ca3d 6a28 1fbe
00000130: b8bb b6be fd48 ac3e 841e c9be 0863 a0be
00000140: 2dca 4d3b 3f53 75be 0ebd b83e ac5f c4be
00000150: dce7 b8be 4fbc 8bbe aaef ce3e d6d9 033f
00000160: 3348 49bd 97ba c73e 3c54 553e 741e 17be
00000170: bba5 c9bd 6be8 96be eb12 cc3e 26ca 07be
00000180: d3ed 803e c5db 26be b1fc 493e b8ed 9dbe
00000190: 698e 323e 662e 9c3e 6b2e 87bd cffe d23e
000001a0: 6107 d93e 63f8 033e 8852 dc3e f432 423e
000001b0: 4de8 af3e 140c fbbe 032b 44bd 1e6f ffbe
000001c0: 9c64 e83e 88fe 2e3f d097 a33d e788 173f
000001d0: c41b ed3e da2e 073d 7942 f23e efae ef3e
000001e0: eb70 b3be b56e c03e a9b1 f33d 7a89 043d
000001f0: 6505 ac3e cd88 3f3e b859 073f f239 4e3e
-0.4285979 -0.27993676 -0.06177712 -0.3448365 0.10337771 0.22548118 0.3714577 0.028256537
-0.19222149 -0.041574847 0.29314932 -0.054140273 0.44567916 0.039136164 -0.025620043 0.4944409
-0.17895176 0.27723497 -0.2913455 -0.18378183 0.0016226267 -0.45997694 0.74924207 -0.56686455
0.19131885 -0.47637412 0.10465685 -0.51983196 0.2542051 -0.2460455 -0.7230195 0.019474981
0.07267118 0.38034126 -0.31910467 0.13425232 0.673978 -0.12726039 0.62448084 -0.071807586
-0.7309964 -0.03489269 -0.43962395 0.017032819 0.19805172 0.4301955 -0.011145081 -0.32843766
-0.09068227 0.1690229 0.4357542 0.18897586 -0.20775428 0.30888796 -0.03639204 0.45532128
-0.212873 -0.22542943 -0.0036806953 -0.23028202 -0.44522634 -0.4517695 0.17127524 0.033016495
0.070949115 0.363654 -0.33591756 0.18360092 0.4983854 0.51624715 -0.45828107 -0.5112542
-0.040513113 -0.38493165 0.0986356 -0.1554276 -0.35690093 0.33649436 -0.39281094 -0.31325555
0.0031401024 -0.23957537 0.36081737 -0.38354242 -0.36114395 -0.27292106 0.40417224 0.51504266
-0.04914112 0.39009544 0.20832914 -0.1475771 -0.09846064 -0.29474196 0.39858183 -0.13260707
0.25181445 -0.16294773 0.197253 -0.30845428 0.17437138 0.3050415 -0.066006504 0.4121003
0.42388442 0.12887721 0.43031716 0.1896475 0.3435692 -0.49032652 -0.04789258 -0.49889463
0.4538926 0.68357134 0.0798794 0.5919327 0.46310246 0.033003666 0.4731634 0.4681315
-0.35047087 0.37584463 0.1189912 0.03235767 0.33597866 0.18704529 0.52871275 0.20139292

model.fc2.weight f4 [6, 128]
00000000: defd 023d 2c40 3abc b3f5 eb3c 2ee1 dc3c
00000010: 01fa 6a3c 89a6 ab3c 63aa c9bc 838d 1f3d
00000020: a529 a9bc 41b0 fe3b d6af b8bb e471 9e3c
00000030: e419 a7bd 6a55 66bc 8dc1 513d bc45 13bd
00000040: 3a3a 60bc 36e8 57bd c4f1 623d f166 363c
00000050: 9b04 283d 1c38 7e3d c972 dabc 30f7 73bc
00000060: 962e 443c 15f0 4d3d 0b1c 2a3c 8a2b a0bc
00000070: 94d1 bdba 61f8 2f3c 6835 b43c 15f1 2b3b
00000080: 2f03 363d 74b9 57bc d0cb 6cbd a74c 67bd
00000090: 86ba 1ebd 4ff8 40bd 3ff8 253c 7b7e 093d
000000a0: deff 933d ef7f 9d3c 91dd b83c 4f66 fcbc
000000b0: a14e 313c c674 8bbd 090c 383d 754a 11bc
000000c0: ee20 2b3d 3e5b afbc ae0d 9dbc f892 65bc
000000d0: 1d9d 5f3d 6ee8 4ebd f599 0c3c 8447 293d
000000e0: 9c42 263c 8aa3 9dbb 0be4 03bc d683 303d
000000f0: 03ed 243d f1a1 393c 3bcc c43b 54ae db3c
00000100: 5b0c b43c 20c4 c2bc aa22 673d 732b 1f3c
00000110: feb8 8bbc 3ae5 013c 4e28 253d 0bd9 babc
00000120: e81a 563a 68fb 0239 ceb2 93bc 8f6d 323d
00000130: 7c02 a5bb c673 21bd 488f 163d 0104 1b3d
00000140: 669b e0ba 9491 213d 5483 42bd b91f 4c3d
00000150: 8f15 7c3b 3ab9 f53c 8a9d 303a 2562 253d
00000160: ae5c cfbb 9748 a83c 81c5 fe3c 442f 843d
00000170: 321e 423d 2502 f4bc b20a 403a 7e2e 61bc
00000180: 7e4d 77bd 9868 d8bb 41c1 fdba 2f1d ff3c
00000190: 3e59 1d3d 1a0a e83c 957e 12bc 44e3 4a3c
000001a0: 550b 003d 327a edbc 65b0 b53b 64b0 6fbd
000001b0: dae7 bbbb 86ff 7839 f1ed cabc 336f 683c
000001c0: 3fd8 7c3d 9eab 0bbd 9f81 cebc 11bc 7f3d
000001d0: 2fa1 40bd eb02 d13c 9c0c c63a e1c2 c4bc
000001e0: 8ab7 2dbd 6c85 b4bc fa5e d13c b8d7 073c
000001f0: 31d7 21bb 9d34 e93c 80fc dcbc 68df 5cbd
00000200: c3e0 213c 8b71 42bc 0baa 47bc 74d3 cc3c
00000210: 5a79 f13c 2775 b53c 8712 8fbc b9b4 b33b
00000220: ca83 bdbc 4387 bcbc 14c1 033c 4be0 2b3d
00000230: 2445 d93c 9fc2 30bd 746f f2bb 87cc 7ebc
00000240: 41c4 763d 732a 74bc 6e7c 27bb 02d0 833c
00000250: c092 363c 7e11 1d3c b3eb d9bb b820 82bd
00000260: ac48 82bd 1272 28bd 9011 ac3c b2dc f2bc
00000270: ca88 aabc 2787 103d 89a7 5abd 26fe 713c
00000280: 3c10 69bc a6f1 84bc bbcc 24bc 208d f4ba
00000290: 00e3 293d 4508 f1bc 534d 593d 2f56 f1bc
000002a0: 6a61 bb3c 4b48 f13c 899e c03b 02d5 8fbd
000002b0: 73cd d03c 0ca5 4dbc 0318 acbc 3df2 84bb
000002c0: f670 1c3d b2d7 043d 075f 7bbc d334 40bd
000002d0: 919c 623d ea15 4abd 1034 d23a 70a5 38bd
000002e0: 49bb d73c 50ad 0b3d d932 16bd bfc7 033d
000002f0: 704a 4bbd 4e3d 533c b6fc bb3c b0ce c83c
00000300: 338a 0dbd 109d 23bd ae8a a33c 83fa 363c
00000310: e7f6 3f3d 2d26 0c3d 3220 20bb 6c88 45bd
00000320: 49e8 703b cbea 9d3b 8ad9 b53d 76a4 1d3d
00000330: c408 3abd de81 be3c 46d7 503d 8585 363d
00000340: 9ff4 93bd 2245 093d cd28 21bd 96c2 6b3d
00000350: 62d6 7bbc 49a6 42bd 0b68 6ebc c8d9 653c
00000360: 7e25 723a f758 213d f200 313c 3513 223d
00000370: 21bc b83c 99bd 4bbc 03ae 8fbc 6ca6 f5bc
00000380: 4b40 dbbd 2f21 203b d338 783d 8826 04bd
00000390: 04bd 263c 4425 413d a655 403d 064f cabb
000003a0: a869 bc3c f76f 6b3c 088d 00bb 33f0 95bb
000003b0: 152c cd3c eba0 0c3d f5ad b03b ef49 4a3c
000003c0: 79d6 603d e47a 853d c406 70bd b398 ba3c
000003d0: 6a64 c3bc 69cd 833d e83d 85bd 41c7 1d3d
000003e0: 498b ae3c 4fe0 453d 912c 633c e1d8 e0ba
000003f0: 510f a9bc 0020 093d b492 43bd f010 13bd
0.031980388 -0.011367839 0.028803682 0.026962843 0.014341832 0.020953434 -0.02461738 0.038953315
-0.02064974 0.007772476 -0.0056361957 0.019341417 -0.08159235 -0.01405845 0.051209975 -0.035955176
-0.013685757 -0.052711688 0.055406347 0.011132942 0.041020017 0.06206523 -0.026666062 -0.014890477
0.011973998 0.05027779 0.0103826625 -0.019552011 -0.0014482015 0.0107403705 0.021998122 0.0026236225
0.04443663 -0.013166774 -0.05781156 -0.056469586 -0.0387521 -0.047111806 0.010129987 0.033567887
0.07226537 0.019226043 0.022566589 -0.030810503 0.010821969 -0.06809382 0.044933353 -0.00886785
0.04177945 -0.021405812 -0.019171562 -0.014012091 0.054593194 -0.05051463 0.008581628 0.04132797
0.010147717 -0.004810755 -0.008049975 0.04309448 0.040265094 0.011330114 0.0060057915 0.026816525
0.021978548 -0.02377516 0.056429543 0.009714949 -0.017055985 0.007928187 0.04032164 -0.022808572
0.00081674615 0.00012491422 -0.018029597 0.043561514 -0.0050356966 -0.03941705 0.036757737 0.037845615
-0.0017136156 0.039445475 -0.047488526 0.04983494 0.0038464998 0.02999555 0.00067373423 0.0403768
-0.006328187 0.020542426 0.031100037 0.06454328 0.047392078 -0.029786179 0.00073258125 -0.013743995
-0.060376637 -0.0066042654 -0.0019359962 0.031141846 0.038415186 0.02832513 -0.008941312 0.012383286
0.031260807 -0.028988931 0.0055447095 -0.05851783 -0.005734426 0.00023746313 -0.024771662 0.014186668
0.061729666 -0.034099214 -0.025208293 0.062435213 -0.047028717 0.025514087 0.0015109959 -0.024018707
-0.042411365 -0.022036277 0.025557984 0.008291177 -0.0024694914 0.02846747 -0.02697587 -0.053923994
0.0098802475 -0.011867891 -0.0121865375 0.025003172 0.02947681 0.02215059 -0.01746489 0.0054841903
-0.023134131 -0.023013717 0.008041639 0.04196195 0.026522227 -0.043154355 -0.00739854 -0.015551693
0.060245756 -0.014902699 -0.0025556344 0.016090397 0.011143386 0.00958669 -0.006650412 -0.06353897
-0.06361517 -0.04112441 0.021004468 -0.029646251 -0.02081718 0.03528514 -0.05338243 0.014770066
-0.014225062 -0.016228508 -0.010058577 -0.0018657781 0.04147625 -0.029422889 0.053052258 -0.02946004
0.0228736 0.029453417 0.005878274 -0.0702305 0.02548859 -0.012551557 -0.021007543 -0.0040571974
0.038193665 0.032432266 -0.0153424805 -0.046925377 0.055325095 -0.049337305 0.0016037244 -0.04507965
0.026334422 0.03410083 -0.036669586 0.032172915 -0.049631536 0.012893034 0.02294765 0.024512619
-0.034555625 -0.03994471 0.019963589 0.011168125 0.046866324 0.034216095 -0.0024433252 -0.048225805
0.0036759546 0.0048192493 0.08879383 0.03848692 -0.045418516 0.023255285 0.05098655 0.044560928
-0.07224392 0.033513196 -0.03934555 0.05755862 -0.015370937 -0.047521863 -0.014551173 0.014028974
0.0009237154 0.039391484 0.010803448 0.0395691 0.022550644 -0.01243534 -0.01753903 -0.029986583
-0.10705622 0.0024433841 0.060601067 -0.03226331 0.010176901 0.04715468 0.04695668 -0.006173971
0.0229996 0.014369956 -0.0019615311 -0.004575753 0.025045434 0.03433315 0.005391831 0.012346729
0.054892037 0.0651758 -0.058600202 0.02277789 -0.023851592 0.06435663 -0.06505948 0.0385201
0.02130665 0.04830962 0.013865606 -0.0017154479 -0.020637186 0.033477783 -0.04774733 -0.035904825

model.fc2.bias f4 [6]
00000000: 48c1 babe 13bd 913d 4d26 153e adf6 f1be
00000010: 0886 143d 342a c13e
-0.36475587 0.07116141 0.14565392 -0.4725851 0.036260635 0.3772751

exp_avg f4 [21, 64]
00000000: 4412 7bbe b7b3 60be 9207 7b3d ead2 00ba
00000010: 5fee 73bd 6a45 61bd e422 02be 4674 103d
00000020: 62dc 713d 8cd2 87bd 06ad 2bbe 33a9 803e
00000030: 01b2 303d c27c ba3d 082c cf3d e451 393d
00000040: b018 a63b f5fd 47bd f3ed 253c e463 a1be
00000050: 9325 553e 27da ab3c 483e 263d 2dd5 f3bc
00000060: d189 fdbc 1c96 143d 0964 8d3d cedd 85bd
00000070: ca7a 7a3d 8e62 e23d 43d0 43be 0010 5abc
00000080: c9b6 18be 45d4 b9bd 881a 37bd 82ab 02be
00000090: dad5 8e3d d8c9 d6bc 30fa 483d 477c a3bd
000000a0: 0566 0ebe 577b 19bd 969d e23c 38ae 1d3e
000000b0: 2006 073d 06f6 bc3d dfe3 9cbc e990 46bb
000000c0: 2953 24bd 196b 013e ec19 94bd 38b6 89be
000000d0: 5896 e8bc c4d2 a5bd 17a4 e3bb 4347 063c
000000e0: b288 903e 21fb a33d 787d b8bd 381c c83c
000000f0: ec8c 60bd 0ce0 e73c db8b 793e 17e3 2a3e
00000100: fe62 bebe 6b83 b2be bf90 c23d d6f5 0bbd
00000110: 1bb9 bebd 351e 74bd f269 94be 9e7a 763d
00000120: 8769 363e 11a2 e5bd f98e 85be 1e80 923e
00000130: 6abb 6c3d a5fc 2f3e abe8 833e 83b1 893d
00000140: c178 163d 067a 15be 9dd2 823d a14a f5be
00000150: c76d c43e 658d 723b 1503 b43d 1f88 6cbd
00000160: 4359 a7bb 43ef a43d ca89 4d3e a5e1 05be
00000170: 6726 003e 1a89 263e 5307 08be 0a88 0dbe
00000180: 7229 38be 294a 4bbe 4d66 ebbd 4bb5 3cbe
00000190: 847c 243e 950b 9cbd cf83 c73d f422 04be
000001a0: 5d68 0cbe 5c1a 97bd 4cb1 6f3d ec14 1c3e
000001b0: 5eed 17ba 940e adbd 8620 303c 1746 953c
000001c0: 226e 8dbd e9ba 063e 3b21 58be 90e6 cdbe
000001d0: 9f32 033c 649d 13bc b5a3 7eb8 ca26 ec3c
000001e0: a5b8 ff3e 3bb4 c23d 08a2 3bbe c695 443d
000001f0: 2c7e e2bd 3293 963d 4dc9 9c3e d452 693e
00000200: 156f 65bf e49d 3cbf e422 0b3e 76b5 003d
00000210: 7471 0bbe 08de 27be 1dcd 8bbe 473f f03d
00000220: 3729 d23c 6d6b 5abe 13f8 15bf 5e25 613f
00000230: 95ca 2a3e bb1e 623e 7214 873e 4026 df3d
00000240: b2dd bc3d 539b 43be d45f f0bb 3efa 88bf
00000250: be39 1b3f 9b0a fd3d d77b 2d3e fc86 c6bd
00000260: efbb b9bd 342f 013e 1a0d 653e 7605 60be
00000270: d967 2e3e 992d e33e f7cc 23bf 2d4a a2bc
00000280: c7cd fbbe 3755 8bbe 0b98 f1bd 41bc d2be
00000290: d027 893e d7c5 9fbc c8dc c83d 9e28 66be
000002a0: 1959 d9be bb68 dcbd fde5 953d c147 043f
000002b0: 22e9 e83d 4912 9d3e 99aa 09be 4245 5fbd
000002c0: b5eb 6ebd 546e ab3e 7f93 8fbe 8410 60bf
000002d0: 1565 45be de86 9cbe e307 b0bd 77be 573d
000002e0: a6ab 673f 6898 8c3e 5d58 a9be bd7a ff3c
000002f0: 8e31 11be 537f 963d 0aca 623f 245d 153f
00000300: cde8 5bbd 3792 80bd 5fad bc3c 915d 96ba
00000310: 7fa6 d2bb 6624 b4bb 93b1 c6bb afa6 4d3b
00000320: 4985 e9ba 2319 31bc ee5c 2cbd fd4f 873c
00000330: 3914 9d3b 4f40 473b 85ea 123b 7376 14bb
00000340: 370b d43b 29f6 0ebb ba10 dabb 6658 39bd
00000350: d57e ba3c a3f5 093c 1974 873c 0855 80ba
00000360: caed d7bb f0d8 ff3a d3f4 78bc 657b aebb
00000370: 6965 0a3c 306a f73c 9b94 0bbd aba7 ae3c
00000380: 07d8 103b 7e82 6ebb 8ec9 3c3b dbbc b2bc
00000390: 9b87 9f3c ef3a 17bb 3430 2b3b faa7 22bc
000003a0: 0441 f1bc 87ae 72bb b63b b0b8 90ce 873c
000003b0: 48e9 bd3b 39b8 203c aa7d 87bb bbbf 4fbb
000003c0: da6d e53b 9c86 98ba 689d 4bbc 4d48 6fbc
000003d0: ff1e 24bc e6d2 1bbd e38b 94bb b190 5a3b
000003e0: c45e 433c b629 0a3c c335 06ba 28cc 95bb
000003f0: 9086 9ebc a0b2 69ba 2ff2 ba3c 68c4 ae3b
-0.24518687 -0.21943556 0.061286516 -0.0004914241 -0.0595535 -0.05499784 -0.12708622 0.035267137
0.059048064 -0.066319555 -0.16765222 0.2512909 0.043138508 0.09105827 0.1011582 0.045244113
0.005068861 -0.048826177 0.010127532 -0.31521523 0.20815115 0.020978047 0.04058674 -0.029764736
-0.030949505 0.036275968 0.06903846 -0.065364465 0.061152257 0.11053954 -0.19122414 -0.013309479
-0.14913477 -0.0907369 -0.044703037 -0.12760738 0.06974383 -0.026219293 0.049066722 -0.079826884
-0.13906105 -0.03747114 0.027663033 0.1539849 0.032964826 0.09226613 -0.019151626 -0.0030298776
-0.04011837 0.12638511 -0.07231507 -0.26896834 -0.028392002 -0.08096841 -0.0069470513 0.008195701
0.2822929 0.080068834 -0.09008306 0.024427518 -0.054821894 0.028305076 0.24369757 0.1668819
-0.371849 -0.3486589 0.095002644 -0.034169994 -0.0931265 -0.05959912 -0.2898708 0.06017553
0.17813693 -0.11212552 -0.26085642 0.2861337 0.05779592 0.1718622 0.2576345 0.06723311
0.036736254 -0.1459733 0.063878275 -0.479085 0.38365003 0.0037010547 0.0878965 -0.057747003
-0.0051070764 0.08053448 0.20072094 -0.13074358 0.1251465 0.16263238 -0.13284044 -0.13821426
-0.1798456 -0.19852509 -0.11494122 -0.18428533 0.16063124 -0.076193966 0.09741937 -0.12903959
-0.13711686 -0.073780745 0.058518693 0.15242356 -0.00057955633 -0.08450046 0.010749942 0.018221898
-0.06905772 0.13157238 -0.21106426 -0.40214968 0.0080076745 -0.009009693 -6.0710783e-05 0.02882709
0.4994556 0.095070325 -0.18323529 0.047994398 -0.110592216 0.07352294 0.3062233 0.22785503
-0.8962262 -0.7367842 0.13587528 0.031423055 -0.13617498 -0.16393292 -0.27304927 0.11730819
0.025654418 -0.21330042 -0.58581656 0.8794764 0.16678841 0.22082035 0.26382786 0.108959675
0.092219725 -0.1910222 -0.0073356424 -1.0701368 0.6063498 0.123555385 0.16941772 -0.09693715
-0.090690486 0.12615663 0.22368279 -0.21877083 0.17031802 0.44370726 -0.63984627 -0.01981076
-0.49180433 -0.2721345 -0.11796578 -0.4115925 0.26788187 -0.019503517 0.09807736 -0.22476432
-0.4245079 -0.10762163 0.073192574 0.5167199 0.113725916 0.30678013 -0.13443984 -0.05450941
-0.058330256 0.3348261 -0.28042218 -0.875252 -0.19276841 -0.30571645 -0.08595254 0.052671876
0.9049629 0.27460027 -0.33075228 0.031186456 -0.1417906 0.07348504 0.8858954 0.58345246
-0.053688813 -0.06277888 0.023031889 -0.0011471977 -0.0064285393 -0.005497503 -0.006063649 0.0031379869
-0.0017816211 -0.010809216 -0.042080812 0.016517634 0.0047936705 0.003040332 0.0022417617 -0.002265361
0.0064710635 -0.0021814203 -0.006654826 -0.04525032 0.022765556 0.008420381 0.016534852 -0.0009790966
-0.006589626 0.0019519608 -0.015195089 -0.0053247684 0.00844703 0.030202001 -0.034077268 0.021320185
0.0022101419 -0.0036393697 0.002880666 -0.021818569 0.019473841 -0.0023075899 0.002612126 -0.009927744
-0.029449947 -0.0037030296 -8.403456e-05 0.016577989 0.0057956316 0.009809547 -0.0041348534 -0.0031699974
0.0070016207 -0.0011636796 -0.012427665 -0.01460464 -0.010017156 -0.038042925 -0.0045332774 0.0033350403
0.011924449 0.008432796 -0.00051197055 -0.0045714565 -0.019351274 -0.0008914862 0.02282056 0.005333472
