wandb/run-20210616_140828-16umpy0v/files/enzymes-test/16umpy0v/checkpoints/epoch=41-step=293.ckpt (torch, 45200 bytes, 24 tensors)

model.gcn1.weight f4 [21, 32]
000000 4c ac 38 be ef 15 8f be 8b f9 8c 3e 1e d7 88 3e
       -0.18034476 -0.27946422 0.27534136 0.2672662
000010 32 91 27 be 89 d6 b4 3d bc 9a ee 3d f2 ae 92 3e
       -0.16363981 0.08829982 0.11650607 0.28649098
000020 ac 4d c6 3d 48 69 80 3e d7 10 85 3e 25 ae 6f 3d
       0.096827835 0.25080323 0.2598941 0.058515687
000030 14 d4 34 bc 72 77 be bd 93 2e cf bd 2f 4e 4c be
       -0.0110368915 -0.09300126 -0.10116305 -0.199517
000040 b3 c6 17 3e 5a 1e be bd 9b 47 71 be c1 4b 95 be
       0.14821891 -0.09283133 -0.23562472 -0.29159358
000050 81 aa 42 3e ba 0d 67 3e f1 5e db 3c 90 3a 93 3e
       0.19010355 0.2256383 0.02677867 0.28755617
000060 e5 26 7e 3e 1f 79 a7 ba 92 64 7f 3e d5 2e 11 bd
       0.24819525 -0.0012777186 0.24940708 -0.035445053
000070 f1 bc f3 bd c8 e7 76 3e a7 c2 66 be 83 ce 87 3e
       -0.11901272 0.24111855 -0.22535191 0.26524743
000080 01 c3 b1 3d d5 23 96 be 1d 08 10 be 2a 05 0d be
       0.08679772 -0.29324213 -0.14065595 -0.13771501
000090 8f a2 7c 3d fc 07 2b be 36 04 0d 3d fa 49 9e 3e
       0.061678465 -0.16702265 0.034427844 0.30915815
0000a0 bf 8f 4a be d5 0b f0 bd c2 8c 70 3e bd 7d 7d 3d
       -0.19781397 -0.11721007 0.23491195 0.06188749
0000b0 70 da 81 3e 4c 6b 20 3e d1 00 76 3d 48 16 de bd
       0.25361967 0.1566593 0.060059372 -0.108440936
0000c0 61 ef 71 be 2f 7e 83 be 91 0b f2 3d 41 fd a6 3e
       -0.23626472 -0.25682208 0.11818612 0.32615092
0000d0 8b f2 9c be 38 ff 83 3e 10 cd 37 3e dc 73 90 be
       -0.30653796 0.25780654 0.17949319 -0.28213394
0000e0 f4 e9 9a 3e db ec ae 3e 2e 48 71 bd e3 f4 e9 bb
       0.30256617 0.3416508 -0.058906727 -0.0071397885
0000f0 cc 7d 6c be 99 ed 86 be 25 38 3e 3e 56 ea bd 3d
       -0.23094863 -0.26353148 0.18576105 0.09273212
000100 d6 d7 91 be 22 fb 0c be 31 f3 88 be fc 78 77 3b
       -0.28484982 -0.13767675 -0.2674804 0.0037761321
000110 a8 f6 1c be bf 2e a7 be 48 41 99 3e bc 94 34 be
       -0.15328467 -0.32652852 0.29932618 -0.17634863
000120 bb df 34 3e 1f df 97 3e 71 a7 af 3d 12 a0 8d 3e
       0.17663471 0.29662415 0.08576859 0.27661186
000130 46 75 60 3e b4 c2 7e 3d 92 21 19 3e 5c 7f 1e be
       0.21919736 0.062197402 0.14954212 -0.15478271
000140 16 6c 76 be d1 16 90 be e3 a6 3c be 93 cd 27 3e
       -0.24064669 -0.28142408 -0.18423037 0.16387014
000150 c1 be a9 3e be 38 78 be 38 ce 22 3e 9c c7 33 3d
       0.33153346 -0.24240395 0.15898979 0.043891534
000160 fe 34 72 3e 70 8c b3 3e 3e d5 1e 3d 2b 60 fa 3d
       0.23653027 0.35068083 0.038777582 0.12225374
000170 5a 9d 95 3e 7e 1a 8a 3e fb eb 52 bd a4 bf a4 be
       0.29221612 0.26973337 -0.05149458 -0.3217746
000180 ab e2 66 bc e4 b8 c5 bd 8e 04 a4 3e f9 3e 3b be
       -0.014092128 -0.09654406 0.32034725 -0.18285741
000190 07 3c 9f be be 00 c0 3d 8a 33 4a 3e d8 06 89 3e
       -0.31100485 0.093751416 0.19746223 0.26763034
0001a0 92 8c 29 be 6f db 32 3e d0 37 ac bd c8 8e a5 be
       -0.1655753 0.1746652 -0.08409083 -0.32335496
0001b0 6a 59 69 be 70 11 ad ba d5 e0 aa 3e f5 fe 94 bd
       -0.22788015 -0.0013204049 0.33374658 -0.07275192
0001c0 fc 7a 06 bd 38 cc 8e be 09 c1 42 be e1 85 ed 3d
       -0.03283213 -0.27890182 -0.1901895 0.11597801
0001d0 4b 58 55 3e 91 be e6 3d c4 b4 41 be eb d3 8a be
       0.20834462 0.112668164 -0.18916613 -0.27114806
0001e0 a8 69 0f be 5f eb 4b 3e 91 76 86 3e b1 7e 5c 3e
       -0.14005148 0.19914006 0.26262334 0.21532704
0001f0 92 c6 9e 3e 9d 62 8d 3e 7c 27 a4 3e 5a d1 f1 bd
       0.31010872 0.27614298 0.32061374 -0.11807509
000200 a8 c3 a1 be ef c0 83 3e 1a 97 13 be 2d 07 95 3e
       -0.31594586 0.25733134 -0.1441311 0.29107037
000210 09 42 a9 be ed 77 44 3d f3 b5 86 3d fd d7 8a bd
       -0.33058193 0.047965933 0.06577673 -0.06779478
000220 e5 16 ae 3d a5 de 10 be ea b0 45 3e 3b 7c 26 bd
       0.085004605 -0.14147432 0.19305769 -0.04064582
000230 85 0e a5 3d 54 62 48 be cf d0 c5 bd 0a 8e ce 3d
       0.0805941 -0.19568759 -0.09658968 0.100856856
000240 72 7b 9b 3e 15 ba 59 3d 28 b8 75 3e 11 97 a4 3e
       0.3036762 0.053155977 0.23996031 0.32146505
000250 f0 4e 5b 3e 93 f7 8e bd 6f 9f a6 be ba ce 35 bb
       0.21416831 -0.06980815 -0.32543513 -0.0027741627
000260 fa 55 a0 be e9 d4 7a 3e fd 0a b5 3d 14 21 a7 3d
       -0.31315595 0.24495281 0.088399865 0.08160606
000270 e0 b6 a3 be c2 8f 68 3e 29 ec 7d 3e 8c 55 3f be
       -0.3197546 0.22711089 0.24797119 -0.18684977
000280 83 3b 20 3e 95 d1 47 be 64 31 3e 3e bc 89 85 be
       0.15647702 -0.19513543 0.18573529 -0.26081645
000290 89 f0 05 3e af ec 7e be 0a d4 52 3e 95 74 85 bd
       0.13080038 -0.24894975 0.20588699 -0.06516377
0002a0 65 44 99 bd d1 05 59 be af 14 e5 bc ea 98 89 bd
       -0.07483748 -0.21193625 -0.027963964 -0.06718619
0002b0 76 ae f4 3d 49 ab 9f 3d 7b 3d cb bd d1 c7 a0 3e
       0.11947338 0.07796342 -0.09923836 0.31402448
0002c0 d7 f7 d4 3c a2 a8 50 3e a6 61 00 be cf ea 97 3e
       0.025997085 0.20376828 -0.1253725 0.29671332
0002d0 6a ec 26 3c 25 8b 7d be 57 9e a7 be 3a c8 a2 3d
       0.010188201 -0.2476011 -0.3273799 0.079483464
0002e0 61 69 38 3e ac 23 5e be 90 f7 21 be 6f af 67 bd
       0.18008949 -0.21693295 -0.15817094 -0.05656379
0002f0 0e b9 91 be 3c e7 96 be 47 83 90 3e e0 60 08 be
       -0.28461498 -0.29473293 0.28225157 -0.13318205
000300 d8 8e bf bd c0 1d 53 bc b3 f2 4a 3e 84 b2 ac be
       -0.09353417 -0.012885511 0.19819145 -0.33729947
000310 c8 02 c7 bc de 97 60 3d 0e 1e 6e 3c c5 50 14 bd
       -0.024293318 0.05483233 0.014533533 -0.03620984
000320 70 87 20 be 57 21 69 bd 88 9c 12 be 51 4f 5b 3e
       -0.15676665 -0.05691656 -0.14317524 0.21416976
000330 a7 c9 28 3e 84 dd 73 3e 24 8b ff 3d 35 ec 25 be
       0.16483174 0.2381497 0.12477711 -0.16203387
000340 d5 8f 4f bd 2c e4 66 bd 7b e3 8a be f7 ae 44 bc
       -0.05067428 -0.056369945 -0.2712668 -0.0120046055
000350 5e 3b 33 3e 99 23 74 be 10 19 a1 3e a9 27 6b 3e
       0.17503116 -0.23841704 0.31464434 0.22964348
000360 d6 08 73 3e d0 36 8a be c3 cd 98 3e 96 27 a8 3c
       0.2373384 -0.26994944 0.29844484 0.020526689
000370 34 44 fe bc ba a4 7e 3e ba 08 99 3e ef a1 95 3d
       -0.031038381 0.24867526 0.2988947 0.07306277
000380 4d 25 a0 be 9a 30 50 be 25 37 b3 bd 39 30 90 be
       -0.31278458 -0.2033104 -0.08750752 -0.2816179
000390 40 3e c7 3c d2 d9 aa be c5 59 58 be e8 45 2d bd
       0.024321675 -0.3336931 -0.21127994 -0.042302996
0003a0 d0 23 1a 3e 61 43 86 bc 39 58 53 3e 45 1f 86 3d
       0.15052724 -0.01638955 0.20639123 0.06548933
0003b0 1d 66 06 be 74 6d b9 3d 76 a1 87 bc 9d fd 77 bd
       -0.1312489 0.0905408 -0.016556483 -0.0605446
0003c0 2f c3 56 be 4f ea 73 be 9a bd 2a be d5 19 16 be
       -0.20972894 -0.2381985 -0.1667389 -0.14658292
0003d0 74 9c 75 3e 2a ad 11 3e 2f d7 81 3e 41 13 7f 3e
       0.23985463 0.14226213 0.25359485 0.24909689
0003e0 c3 7b 14 be 90 06 9d 3e 77 59 97 be a3 dc ca bc
       -0.14500336 0.3066907 -0.29560444 -0.02476341
0003f0 81 8f 86 be 7f f3 0e be 94 18 97 be 7d 8d 61 be
       -0.2628136 -0.13960074 -0.2951094 -0.2202663

model.gcn1.bias f4 [32]
000000 8b c2 67 bc d3 4b 4b bb e6 fa 0f bc 54 43 26 3d
       -0.014145504 -0.0031020537 -0.008787846 0.040591553
000010 ac 7b 37 bc 53 39 53 3c 55 07 ba bb 3d 32 f7 bb
       -0.011198919 0.012892085 -0.0056771436 -0.0075438307
000020 69 d0 c5 3c cf 5e 68 3c d7 ad 66 bc 05 9d 7a bb
       0.02414723 0.01418276 -0.014079533 -0.0038240564
000030 2a 84 6d 3c 08 be 10 3c bf 14 97 3c a3 a7 4b bb
       0.014496842 0.0088343695 0.01844251 -0.003107526
000040 9e 24 84 3c ca 59 21 bb 36 e8 27 3d c1 ec 42 bc
       0.016130742 -0.002462017 0.040992938 -0.011897267
000050 d5 73 a0 3c 95 62 ca bc 27 77 a3 bc 35 3f d0 bb
       0.019586483 -0.02470521 -0.019954277 -0.006355191
000060 0b 40 ab 3a 6f 51 29 3d 37 d4 52 bc 78 35 f4 bb
       0.0013065351 0.041337427 -0.012867979 -0.007452663
000070 7c 8e 36 3c da ee 7d 3c e2 89 62 bc cf 32 5d 3a
       0.011142369 0.015498841 -0.013826819 0.0008438052

model.gcn2.weight f4 [32, 32]
000000 cb cc 2e 3e af b9 86 3e 66 5f 02 be 10 f7 50 3d
       0.1707031 0.2631354 -0.12731704 0.051016867
000010 5c ff 9d be 61 0a 5e be 71 13 96 3e 6c 60 36 be
       -0.30858886 -0.21683647 0.29311708 -0.1781022
000020 e2 04 30 3d d7 4b 49 be 96 ab 3b bd 29 59 23 3d
       0.042973407 -0.19657837 -0.045817934 0.03987995
000030 f4 04 e6 3d 24 b7 88 3e d4 ad 04 3b 4d 44 ff bc
       0.112314135 0.26702225 0.0020245211 -0.031160498
000040 ae 8e bb 3d ac ee a7 be c9 53 8f be 23 4b 78 3e
       0.09158073 -0.3279928 -0.2799361 0.24247412
000050 47 dd 18 3e 3c 59 01 3d 9e 19 25 3e dd 9f 1e 3e
       0.1492816 0.03157924 0.16123053 0.1549067
000060 84 87 a1 3e a5 a0 8c bd 9c 52 ef bd ff 8a 5e 3e
       0.31548703 -0.06866578 -0.11685678 0.2173271
000070 48 b0 17 be 42 46 a7 bd 96 94 79 3c 1a 82 a1 3d
       -0.1481334 -0.081676975 0.01523318 0.07886143
000080 f0 a4 82 3d 26 bf 50 3d 7e 37 69 be 6f b6 4a 3e
       0.063791156 0.050963543 -0.22775075 0.19796155
000090 d2 71 d3 bd 10 2c 9a 3e 52 ae d8 bd a1 67 29 3e
       -0.10324444 0.30111742 -0.10580124 0.16543438
0000a0 1a 27 c2 3d 77 9d 6c 3e 1b ce 31 be 4d e1 84 3e
       0.09480114 0.23106943 -0.17363779 0.2595314
0000b0 2a f7 e0 bd 3b 07 f5 bd 28 ce 91 3e fa 5b 42 be
       -0.10984643 -0.1196427 0.28477597 -0.18980399
0000c0 05 8b 56 bd be 51 4c 3e d5 4c a1 3e 40 44 da 3c
       -0.052378673 0.19953057 0.3150393 0.026643872
0000d0 78 f2 72 be 02 93 99 3e 43 f0 90 3d 48 7b 6c 3e
       -0.23725307 0.2999497 0.07077076 0.23093903
0000e0 59 57 6c 3e ab 54 9e 3d e9 b7 40 be e4 48 93 3e
       0.23080195 0.07730993 -0.18820156 0.2876655
0000f0 d4 07 79 3e c0 ca 82 be 07 5d 87 3e c8 24 9b 3e
       0.24319392 -0.2554531 0.26438162 0.303015
000100 cc 56 91 be 32 99 bc bc 48 64 89 be db 35 85 3d
       -0.28386533 -0.023022268 -0.2683432 0.06504413
000110 c4 a0 39 bb 19 ba 46 3e 4c d2 b8 3d b8 d5 29 3e
       -0.0028324584 0.19406928 0.09024486 0.16585433
000120 29 22 90 3e 3e 45 31 be 34 3c 32 3e 96 7e 46 3e
       0.28151062 -0.1731157 0.17405778 0.19384226
000130 31 1d 18 3e 21 7b fd 3d 1d 3a 1d 3e a5 c1 75 3e
       0.14854886 0.123770006 0.153542 0.23999651
000140 be 83 6c be 36 b0 30 3d f3 b9 b6 bd 7f be 59 be
       -0.2309713 0.043136798 -0.08922186 -0.21264075
000150 88 71 8d bd 2b 7e da bd 89 3e af bd 49 91 6e 3e
       -0.0690642 -0.10668596 -0.085568495 0.2329761
000160 53 dd 34 3c 6e 8b 92 be 65 78 2a 3d d5 39 31 3e
       0.011039096 -0.28622 0.041618723 0.17307217
000170 32 c6 46 3c 0e 5a 1f 3e 84 bc d4 bd ed fd 89 3e
       0.012132214 0.15561697 -0.10387519 0.26951542
000180 1a 48 ec bd f3 0a 86 be 22 c1 8b 3e 09 7a 83 be
       -0.1153719 -0.2618023 0.27295786 -0.25679043
000190 54 0f 52 be ea b0 8b b9 e9 90 8b be 8a 16 9a 3e
       -0.2051366 -0.00026643957 -0.27258995 0.3009532
0001a0 39 6b c4 3d 45 e3 a8 bd ad 85 58 3e a5 65 16 3e
       0.095907636 -0.08246473 0.21144743 0.14687212
0001b0 ae 75 1b 3b e8 27 6a bd d7 47 e0 3d cb 0d 49 3e
       0.0023721266 -0.057166964 0.10951202 0.19634168
0001c0 e6 c6 ef 3d 78 8f 94 be 82 89 cb 3d 87 31 29 3e
       0.11707859 -0.29015708 0.09938337 0.165228
0001d0 59 5f cc bd 28 e5 b5 bd 8c 42 06 be 57 4f 0c 3e
       -0.099791236 -0.08881599 -0.13111323 0.13702141
0001e0 a2 ed d5 bd b4 68 af 3d 78 cf fe 3d b3 5f 20 3e
       -0.104457155 0.085648924 0.12441915 0.15661506
0001f0 a2 13 76 3d 2c 60 d1 bc a7 98 13 be c5 bd 21 be
       0.060077317 -0.025558554 -0.14413701 -0.15795048
000200 35 7e 4c be b2 69 34 bd 69 53 1b be c0 c0 84 be
       -0.19970019 -0.04404611 -0.15168537 -0.25928307
000210 8e 68 8b 3e dc 85 81 3e ea fc 02 3e 91 df 11 3e
       0.27228206 0.2529744 0.12791792 0.1424544
000220 c0 97 38 3e 22 ae 35 3d 86 89 a1 bd 61 38 76 be
       0.18026638 0.04435552 -0.07887559 -0.24044944
000230 57 a3 d8 3d 2d 03 be 3c 39 e0 1a be fc 7b 8a 3e
       0.105780296 0.023194874 -0.15124597 0.27047718
000240 38 45 96 bd 6b 10 74 bd 3d 6e 55 3c 7b 51 ea 3d
       -0.07337421 -0.05958597 0.013026771 0.114413224
000250 55 fb 5f be 87 b5 1d be 5c 95 81 3e 5d cd 02 3d
       -0.2187322 -0.15401278 0.25309265 0.03193413
000260 98 94 c8 bd b6 1d 7b 3b 8a 54 77 bd 93 00 50 3e
       -0.09793967 0.003831727 -0.060383357 0.20312719
000270 18 99 57 be 08 c1 7a 3e 93 03 37 3d 8a d4 5c bd
       -0.21054494 0.24487698 0.044681143 -0.05391363
000280 5c 42 84 3e 8e dc f1 bd e6 48 1d be 4c 9c 80 3e
       0.25831878 -0.118096456 -0.1535984 0.25119245
000290 66 ba 0b be 40 2c 96 3e 04 68 18 3e d7 9e 1f 3e
       -0.13645324 0.29330635 0.14883429 0.15587936
0002a0 d8 9c dc 3d d0 0f 93 be ab 7c fb 3d 1d 5f 6f 3e
       0.10772103 -0.28723 0.12279638 0.23376127
0002b0 75 21 54 3e 4e e7 09 be ae 8f d2 bc 64 2b 2d be
       0.20715888 -0.13467142 -0.025703277 -0.16911083
0002c0 44 45 a7 bb 79 fb 57 be 98 e5 1d 3d 71 3f 03 3e
       -0.0051046927 -0.21092023 0.038549036 0.1281717
0002d0 7e 8d 7c be b8 d6 8d be 2c 97 8a 3e 45 01 a1 bc
       -0.2466335 -0.2770288 0.2706846 -0.019653926
0002e0 88 21 2b be b1 f2 2a be b6 70 4a 3c 73 53 a6 bd
       -0.1671201 -0.16694142 0.012355974 -0.081213854
0002f0 71 d5 62 be 5d 61 c9 bd 38 a3 2e 3d 94 c8 9c bd
       -0.22151734 -0.09833024 0.042636126 -0.07655445
000300 a0 f6 19 be 93 71 50 3e 60 fd 20 3e 8a fb 85 3e
       -0.15035486 0.20355825 0.15721655 0.26168472
000310 9a 60 8c be 20 03 f5 bc 04 ad b6 bd 57 c3 7c 3e
       -0.2741745 -0.029908717 -0.08919719 0.24683891
000320 a6 f0 e0 3d 41 73 0f 3e 44 cc 3d be f6 25 ae 3d
       0.109834 0.1400881 -0.18534952 0.08503334
000330 f3 7f 18 3e ae f2 9b be e5 5d bd bd 95 af 61 be
       0.14892559 -0.30458587 -0.092464246 -0.22039635
000340 df 6b 4f bd 08 12 b7 bd f6 19 1b be 3b a0 92 3e
       -0.050639983 -0.08938986 -0.15146622 0.2863787
000350 26 fe 87 be a0 4f 18 be b1 7e 95 3e 75 b5 6a be
       -0.26561087 -0.14874125 0.2919822 -0.22920783
000360 3b 13 5f be 3b 7b 5f be b5 3b 5d bc 3f ec 93 3e
       -0.2178468 -0.21824352 -0.013503005 0.2889118
000370 a6 55 ad bc 41 2e 8b 3e 70 31 d5 3d 9d 79 91 3e
       -0.021159004 0.27183726 0.1040982 0.28413096
000380 d8 9f f5 bc 5b bc bd bd 62 26 73 3e 97 5f 13 be
       -0.029983446 -0.092644416 0.2374511 -0.14391933
000390 ee 79 6b be 8d 47 93 3e ed 54 27 be b6 a9 fe bd
       -0.22995731 0.28765526 -0.1634099 -0.124347135
0003a0 25 80 44 be b6 4e 02 3e 5a 13 c4 3d 3e 38 c6 3d
       -0.19189508 0.12725338 0.095740035 0.09678696
0003b0 5b 0d 79 3d e8 c0 bb bd 3b 58 36 be 8f 75 9b 3e
       0.060803752 -0.09167653 -0.17807095 0.30363128
0003c0 52 ef 18 be af ea 10 be c5 d0 ac bd b7 cd 84 be
       -0.14935043 -0.14152025 -0.08438257 -0.25938198
0003d0 4d 61 80 3d 96 4e 1c bd 4b 48 c9 bd 5c ac 49 3d
       0.06268559 -0.038160883 -0.09828242 0.04923664
0003e0 bc c3 ad be 1e 82 4c 3e c8 7d 39 3d c4 56 46 3d
       -0.33938396 0.19971511 0.04528597 0.04842259
0003f0 36 aa f8 bd 1a 62 84 3e e2 0d 61 be 96 a1 29 be
       -0.1214184 0.25856096 -0.21977952 -0.16565546

model.gcn2.bias f4 [32]
000000 9e 00 a2 bb 2b 96 a4 3c 7a 70 c5 3c 9d 2a d3 bb
       -0.004943921 0.020091137 0.024101485 -0.006444289
000010 39 01 b2 3b 0f a3 3c bc 26 0a 7e bc 40 00 de bb
       0.0054322747 -0.011513486 -0.015505349 -0.006774932
000020 24 f1 b8 3c 2c 15 20 bc 87 bd 38 3d 54 1a 8f 3b
       0.022575922 -0.009770673 0.045102622 0.004367152
000030 d2 75 31 bb 60 e0 fb ba b2 da 86 bb 66 1e db 3c
       -0.0027078283 -0.0019216649 -0.004115426 0.026747894
000040 b3 69 45 bc 25 6f 0e 3c 00 54 54 bc ff 86 2b bc
       -0.012049126 0.008693491 -0.01295948 -0.010469197
000050 8e 9a 1e bb f7 56 e3 bc 13 1f d5 3b 4c b5 99 b9
       -0.0024201008 -0.027751429 0.0065039485 -0.0002931751
000060 67 73 1b bb a7 08 80 3a e5 c8 0e bc 57 fd 30 bb
       -0.0023719908 0.0009768204 -0.008714889 -0.002700647
000070 79 ef 3a 3b 61 17 6e bc 61 fe 57 3c 01 87 57 bc
       0.0028524084 -0.014531941 0.013183207 -0.013154746

model.gcn3.weight f4 [32, 32]
000000 52 fc 8a bd 96 29 e3 bd b0 0a 9c bd 43 27 91 3e
       -0.067864075 -0.11091916 -0.07619226 0.28350267
000010 7c ca 5a be 92 5a 8c 3e ec 34 b5 bd c8 de 66 be
       -0.21366304 0.2741285 -0.08847985 -0.22545922
000020 15 34 a2 3e ef 0c d9 bd 6f 52 26 3d 12 97 3f bd
       0.3168036 -0.1059817 0.04060596 -0.04677493
000030 8b 85 8e 3e fa e8 9b 3d 4f a4 88 3e 0c 21 8a be
       0.2783626 0.07612796 0.26687858 -0.26978338
000040 30 f1 36 be de b3 7d be 8e 04 e2 3d 9b 02 58 be
       -0.17865443 -0.24775645 0.11036025 -0.21094744
000050 6a e7 20 3d ee 38 92 3e 22 95 95 bd 20 e9 0c 3d
       0.039283194 0.2855906 -0.073038355 0.034402013
000060 ca 86 c1 bd 1e de 43 bd db 07 13 3e 93 c8 1f be
       -0.09449537 -0.04781925 0.14358465 -0.15603857
000070 58 ca 29 bc 03 44 5e 3e 95 aa 92 be 0c da 01 3e
       -0.010363184 0.21705632 -0.2864577 0.12680835
000080 29 8d 92 3e 1f ec bb bc 6f e7 52 3c aa 10 49 3e
       0.28623322 -0.02293974 0.012872561 0.19635263
000090 35 89 9b 3e c0 4e 61 3e f3 d7 5e 3d 60 d5 5f 3d
       0.30378118 0.22002697 0.054405164 0.05464685
0000a0 8c 08 5f bc 74 c3 6c bd 44 5c 20 3e 0a 4e 1c 3e
       -0.013612878 -0.057803586 0.15660197 0.15264145
0000b0 20 67 1f 3e 8c 98 38 3d 94 d4 cc bd d5 44 51 3e
       0.15566683 0.045067355 -0.100014836 0.20436414
0000c0 3b 71 eb 3d 79 c6 44 3e 64 84 42 bd e6 cb a6 bc
       0.114962064 0.19216336 -0.04748954 -0.020360898
0000d0 fe bf aa 3d 34 e9 9e 3d 39 b3 ea bd dc cb 7d 3e
       0.08337401 0.07759324 -0.11459965 0.24784797
0000e0 83 df be 3d 62 c4 5c be 2e 46 53 bd 97 01 66 be
       0.09319975 -0.21559289 -0.0515806 -0.22461544
0000f0 07 ce 58 be 5c c4 60 3e 53 af 4d be 7c e9 94 be
       -0.21172343 0.21949905 -0.20086412 -0.29084384
000100 6a e1 21 3d e5 23 50 3d 71 b0 d4 3d f2 29 67 be
       0.039521612 0.05081548 0.10385216 -0.22574595
000110 85 7d 2e 3e 44 9b 79 3e a7 9e 11 3e 97 bf 60 3e
       0.1704007 0.24375635 0.14220677 0.21948086
000120 70 8f 83 3e 7e 3b 10 bd 6b c1 47 3e 64 49 af 3d
       0.25695372 -0.035212986 0.19507377 0.0855892
000130 92 7b e0 bc d1 91 a9 3d 8c 72 97 3e c0 93 19 be
       -0.027402673 0.082797654 0.2957958 -0.14997768
000140 74 6e ce 3d 66 a2 61 3e 5d 84 46 be 4c 26 7f 3e
       0.10079661 0.22034606 -0.1938643 0.24916953
000150 a3 ba ac bd 24 b7 12 3e 9b 67 7a be 83 3d 4d be
       -0.08434036 0.14327675 -0.24453585 -0.20042996
000160 0a e6 62 be 73 26 9d be 92 3f 1b be 0a c3 bc 3d
       -0.22158065 -0.30693397 -0.15160969 0.09216888
000170 3b 53 d6 bd a0 43 96 3e 62 e4 4d 3e a7 32 8e be
       -0.10465094 0.2934847 0.20106652 -0.2777302
000180 c8 42 02 3e 90 9a 88 3e e3 51 ed 3d ac 12 37 3e
       0.12720788 0.26680422 0.11587884 0.17878217
000190 82 84 6d be dd c2 83 3e 7f 1c 49 be 01 e9 7d 3e
       -0.23195079 0.25734606 -0.19639777 0.24795915
0001a0 9b 03 db bd fc 59 1d 3e c5 48 7e be 13 7a 5b be
       -0.10694047 0.15366358 -0.24832447 -0.21433286
0001b0 a2 f4 20 be 72 6e 9b 3e ad 86 27 be e0 30 29 3d
       -0.1571832 0.303577 -0.16359968 0.041306376
0001c0 f3 3e 2b bd c5 34 60 bd 2c c6 1a 3e 0b 05 96 3d
       -0.04180808 -0.054737825 0.15114659 0.073251806
0001d0 9e 6c 27 bd ec a0 03 3e 30 eb 23 be d2 93 8a be
       -0.04087507 0.12854356 -0.16007686 -0.27065903
0001e0 77 0c 8f 3e cc a8 52 be 5b 76 29 be b6 72 99 3d
       0.27939197 -0.20572203 -0.16549055 0.074925825
0001f0 13 38 83 be 64 77 86 3e ab 81 49 3d 2f 42 64 3e
       -0.2562872 0.26262963 0.049195927 0.22290872
000200 eb ca 78 3d eb 42 f0 3d ac b2 87 bd 54 da fa bd
       0.060740393 0.117315136 -0.06625876 -0.12248674
000210 3d a0 04 3d 8d 85 e2 bd 07 3e 69 3e 25 61 d2 3d
       0.032379378 -0.11060629 0.22777568 0.10272435
000220 e8 0a 9f 3e c8 dd 5c be 45 36 85 be 7c 74 19 bc
       0.31063008 -0.21568978 -0.26017967 -0.009366151
000230 ac d8 31 3e d2 51 62 bd 3e 91 f2 bd 9b d8 27 3e
       0.1736781 -0.05525381 -0.11844109 0.16391222
000240 43 7e 83 be 50 2d 67 bd d4 35 35 be 24 ec 64 3e
       -0.25682268 -0.056439698 -0.17696315 0.22355705
000250 1a 1a 9d be 4f c0 87 be d0 e3 85 be f2 8c 11 be
       -0.30683976 -0.26513907 -0.2615037 -0.14213923
000260 77 70 fb 3c 75 ac f4 3d f9 7c 4d be 6f 53 80 be
       0.030693276 0.11946956 -0.20067205 -0.25063655
000270 34 15 98 3d a4 ab 34 3b fd ce ab 3d 30 73 1a bc
       0.07425919 0.0027568126 0.08389089 -0.009426877
000280 e5 eb 21 bd 74 32 87 bc f0 5c f2 3d d3 a1 40 be
       -0.039531607 -0.01650355 0.11834133 -0.18811731
000290 9a 46 34 be db bf 23 be c0 1e 4e bd 91 56 27 bd
       -0.17605057 -0.15991156 -0.050322294 -0.04085404
0002a0 3a 51 83 3e cf e1 6d 3e 9a 42 d3 ba fd fb 88 bd
       0.25647908 0.2323067 -0.0016117871 -0.06688688
0002b0 2b 4a 80 bd 79 f2 43 3d fb ca 83 3e 79 92 21 3e
       -0.062641464 0.04783866 0.257408 0.15778531
0002c0 f4 12 53 3e 69 98 06 bb 73 24 09 be ad 6f f2 bd
       0.20612699 -0.002053762 -0.1339281 -0.11837707
0002d0 af 44 81 3e 7b 30 27 be ac 2f ea bd de db 69 3e
       0.25247714 -0.16327088 -0.11434874 0.22837779
0002e0 e6 a9 97 3d 7d dc 78 3e 66 a9 7e be 30 d5 7a bc
       0.074054524 0.2430286 -0.24869308 -0.015309617
0002f0 f8 14 3c 3e d5 b8 de 3d a7 83 87 3e 6f bc fa bd
       0.18367374 0.10875098 0.2646763 -0.12242972
000300 0b 2d 3b be 6a 08 a3 bd a1 61 bd bb 8d 82 7e be
       -0.18278901 -0.07960589 -0.0057794605 -0.24854489
000310 d8 48 60 3e f9 21 cc 3c a7 22 80 be 10 3b ab bc
       0.21902788 0.024918543 -0.25026438 -0.020902187
000320 67 e4 7f 3e f9 06 14 bc 1a a6 e7 bd 44 f5 b0 bd
       0.24989472 -0.009034866 -0.11310978 -0.08640531
000330 f6 25 88 3e 6b 1c 97 3e d0 86 d9 bd 16 f0 c8 3b
       0.26591462 0.2951387 -0.106214166 0.006132136
000340 f6 8d 72 be 54 33 36 3e e3 99 56 be 59 7c 58 be
       -0.23686966 0.17793018 -0.2095714 -0.21141185
000350 59 e4 68 be eb cd 13 be e5 38 5c 3e cd 61 80 3e
       -0.22743358 -0.1443402 0.21506079 0.25074616
000360 e0 61 b4 3c b4 45 8c 3e 23 82 bd 3d bd dd f0 bb
       0.022019327 0.2739693 0.09253337 -0.007350652
000370 a0 c3 63 3b 37 1e 80 be 9c c6 74 be 49 9b 82 be
       0.0034754053 -0.25023052 -0.23903888 -0.25509098
000380 9f 49 55 3d 60 bb 4a bd 6d d2 e8 3c 88 da 35 be
       0.052072164 -0.0494951 0.028420651 -0.17759144
000390 0d e9 71 be 44 19 6f be 53 36 3f 3e 46 99 84 3e
       -0.23624058 -0.23349482 0.18673067 0.25898188
0003a0 00 92 69 3e b0 d3 7e 3c 62 b7 d6 3d 82 2b 95 be
       0.22809601 0.0155534 0.10484196 -0.29134756
0003b0 83 e3 8f 3e 88 92 19 3e 2d 3d 33 be 6d 23 df bd
       0.28103265 0.14997303 -0.17503805 -0.10895429
0003c0 f9 2e 2e 3c 39 07 5d be 18 93 01 3e 3c 2f 12 3e
       0.010631316 -0.21584786 0.12653768 0.14275831
0003d0 70 a3 86 be 78 18 31 3d ca 2c 70 3e c6 0d 7f be
       -0.26296568 0.043236226 0.23454586 -0.24907598
0003e0 68 00 75 be 37 0d 45 3b fc 89 0a 3c 40 89 40 3e
       -0.23925936 0.003006769 0.00845575 0.18802357
0003f0 36 88 8c 3d a8 f5 f0 bd b3 16 7d 3e 17 c7 36 3d
       0.06861918 -0.11765605 0.2471569 0.04462346

model.gcn3.bias f4 [32]
000000 3c cb c0 3b b1 88 84 3c 2a 27 c1 bb 05 55 52 bc
       0.0058836024 0.01617846 -0.0058945613 -0.012837653
000010 a6 eb 8a 3c da f3 f7 bb a0 0c fe 3a 09 02 be bb
       0.016958069 -0.007566911 0.0019382425 -0.0057985825
000020 73 3a 55 bc f9 07 94 bb c8 7a 88 3b ea 93 b9 3c
       -0.013014424 -0.004517552 0.0041650273 0.022653539
000030 04 aa 47 bc 90 d9 d8 b9 70 5b fd bb a7 c4 75 bc
       -0.012186531 -0.00041360827 -0.0077318475 -0.015000499
000040 16 dd 0f bc 53 9a 88 3c cf 47 2f bc 40 e6 31 3c
       -0.008780738 0.01667515 -0.010698273 0.0108581185
000050 04 80 7a 3c 45 cb 1d bc 22 60 d2 bb 8d 21 c8 3b
       0.01528931 -0.009630983 -0.0064201513 0.006107515
000060 c8 e4 39 bc 29 e0 23 bc 96 d2 0a 3c da 38 93 bc
       -0.01134605 -0.010002174 0.008473059 -0.017971445
000070 0d fa 47 bc 0d 21 ed 3a 3e 56 83 bc 7c ac ef bb
       -0.012205613 0.0018091515 -0.016032334 -0.007314263

model.fc1.weight f4 [6, 32]
000000 70 74 6a bd ec 64 17 3d 64 6e 9b 3d 90 2b 4a 3d
       -0.05723995 0.03696148 0.07589415 0.04935795
000010 b0 41 69 bd 10 a5 f6 3d 1e 95 fb 3d 4b 5e 39 3e
       -0.05694741 0.12043202 0.12284301 0.18102376
000020 71 95 97 3d ad bd c1 bc 0d 5e d0 bd 21 df a1 bd
       0.074015506 -0.023650015 -0.10174189 -0.079038866
000030 89 2a 96 bd ac c0 ca bd 4b 6b dc bc 9f fb e2 bd
       -0.07332332 -0.099000305 -0.02690663 -0.11083149
000040 ca 56 3d bd a9 13 24 bd dc da 27 bd 6b 22 19 3e
       -0.046225347 -0.040057812 -0.040980205 0.14954536
000050 51 bb 0f 3e af a0 0a be 5c a0 17 3e 16 82 b0 bd
       0.140363 -0.13537858 0.14807266 -0.08618562
000060 f7 2e 91 bd 5a 02 bf bd a4 8f 3a be 31 1a 79 3d
       -0.07089036 -0.093266204 -0.18218857 0.060815994
000070 18 8e 9d bd e6 00 18 3d a9 27 93 3c 8b f8 01 be
       -0.07693118 0.03711023 0.017963247 -0.12692468
000080 38 d0 99 bc cb f2 c4 bd 89 05 09 be 7a 73 7b bd
       -0.018776044 -0.096166216 -0.13381018 -0.061389424
000090 c0 d4 07 be 48 86 25 3d 09 99 82 3d 65 78 09 be
       -0.13264751 0.040411264 0.063768454 -0.13424833
0000a0 19 21 64 3d cd 28 ea 3d 13 16 58 bd c0 23 df bd
       0.055695627 0.114335634 -0.052755427 -0.10895491
0000b0 c7 0f 3e be 02 b9 10 3d fa 61 07 be 23 b1 24 bd
       -0.18560706 0.035332687 -0.13220969 -0.040207993
0000c0 db 57 5c bc 61 dd 35 be f4 2d 2b be 4c dd e2 3d
       -0.013448681 -0.1776023 -0.16716748 0.11077365
0000d0 cd 20 0c 3d 0c 51 6e 3c 16 84 2b 3e 57 66 aa 3d
       0.03421097 0.01454569 0.16749606 0.08320301
0000e0 aa 98 cc bd bb 28 f1 3d dd 72 df 3d 21 08 03 3e
       -0.09990056 0.11775347 0.1091058 0.1279607
0000f0 44 e4 22 3d 80 cb 5e bb fd c9 9b 3d 85 40 ba bd
       0.039768472 -0.0033995807 0.076068856 -0.090943374
000100 96 5c 38 3d 5a b4 85 bd 28 63 ca 3d 81 f0 b8 3c
       0.04501017 -0.0652854 0.09882194 0.022575619
000110 30 9a 64 3d 6a 40 0e bd 33 55 fa bd ae db 04 3e
       0.055811107 -0.0347294 -0.12223282 0.12974426
000120 5d 25 97 bc 7e a9 8b bd c0 38 28 be eb 3e 29 3e
       -0.018450433 -0.068194374 -0.16427898 0.16527908
000130 0b 3d ef bd d9 32 a0 bd dc a6 29 3e 9f 77 bd bc
       -0.11681565 -0.078221984 0.16567558 -0.023128329
000140 ea 6f 0b 3e 3e 63 e6 3d 4a 84 25 be b7 42 48 bd
       0.1361691 0.11249398 -0.16163746 -0.04889175
000150 52 84 04 3e 16 96 c4 3b 79 35 0a be 53 00 7d bd
       0.12941101 0.005999337 -0.1349696 -0.061767887
000160 a5 f9 9e 3d 39 e8 55 bd 67 c9 e5 bc 13 49 ca bc
       0.0776246 -0.052223418 -0.028050138 -0.024693048
000170 37 4e a5 bc 71 fe 21 3d 26 ab 0c be 7d 84 e4 3d
       -0.020178897 0.039549295 -0.13737163 0.11158083
000180 c7 66 39 3d b4 1f 11 bd 8d 10 94 bb 55 84 06 3d
       0.04526403 -0.035430625 -0.0045185746 0.032841045
000190 78 3b 39 bd 33 70 b9 bd c4 39 37 3d 49 5b 05 3e
       -0.04522273 -0.090546034 0.044732824 0.13023104
0001a0 88 f4 3d bd 63 69 1a be 9c 73 d4 bd 1d 80 25 be
       -0.04637578 -0.15079264 -0.10373613 -0.16162153
0001b0 65 0a 16 be e6 17 73 3d 3b 9d 4c 3d 21 f0 9c 3d
       -0.14652403 0.059348963 0.049954634 0.076629885
0001c0 92 4f d3 bc 18 84 f0 3d 20 7f c3 bc f8 7a 1a 3e
       -0.025794778 0.11743945 -0.023864329 0.15085971
0001d0 03 b8 3a 3e e9 47 c1 3c bc 82 c5 bd c4 39 f6 3d
       0.18234257 0.02359386 -0.09644076 0.12022737
0001e0 81 81 79 3d 16 fc 08 bd 4a 45 25 3d a7 3f 32 3e
       0.06091452 -0.033443533 0.040349282 0.17407094
0001f0 38 bd 14 be 9e a5 04 be 9d 96 10 be ec 70 ea 3d
       -0.14525306 -0.12953803 -0.14119954 0.114473194
000200 a2 ad 0e be 5e 68 cf 3d 55 19 29 3e 80 f9 05 be
       -0.13933423 0.10127328 0.1651357 -0.13083458
000210 b2 17 89 bd 9f b3 bf 3d 8a 89 c4 bc 04 b5 11 3d
       -0.06693973 0.09360432 -0.023991365 0.03557302
000220 cd db 96 3c 36 08 be bd 13 f9 d2 bd f9 20 c7 3b
       0.018415356 -0.0927891 -0.103014134 0.0060769287
000230 4b 80 d5 bd 84 03 12 3e ab b9 a1 bd 8b c1 b4 bd
       -0.104248606 0.14259154 -0.078967415 -0.08825978
000240 98 4d 21 bc 65 31 b8 3d 1d 0a 89 3d 5d b3 e4 3d
       -0.00984516 0.08993796 0.06691382 0.11167023
000250 f5 d0 df 3d 0f 97 34 3e 6c c7 1d be f7 e5 0a be
       0.10928527 0.1763575 -0.15408105 -0.13564287
000260 8d 5e 1f be 8e cd 2c 3e 90 80 26 3a 59 a8 28 3e
       -0.15563412 0.16875288 0.0006351555 0.1647047
000270 c3 61 9e bd 5e c9 2f 3e 86 2c e7 bd ec 86 dc 3c
       -0.0773349 0.17166659 -0.11287789 0.026919805
000280 39 a3 3d bd ae 55 79 bd 1c 18 31 3e 89 30 37 3d
       -0.04629824 -0.060872726 0.17294353 0.04472402
000290 65 76 81 bd 8f 58 9d 3d ca 84 1f bc 16 14 0e 3e
       -0.0632141 0.07682907 -0.009736249 0.1387485
0002a0 6b ac 17 3e e7 9b 68 bd a8 7b 00 be 92 6f 00 be
       0.14811866 -0.056789305 -0.12547171 -0.1254256
0002b0 da 52 3b 3e 86 d4 db 3c d8 bc bf 3d c9 e9 93 3b
       0.18293324 0.026834738 0.09362191 0.0045139533
0002c0 7a 4a ea 3d 35 9c 01 be 7b 35 dd 3c 05 3e 40 be
       0.114399865 -0.12657245 0.02700304 -0.18773659
0002d0 23 3b a6 3d fe 7b cb 3d 83 59 4e 3b bc af 09 be
       0.08116748 0.09935759 0.0031486459 -0.13445944
0002e0 95 e1 d4 3d a6 8f 7a 3d 4d 30 eb bd 4b 1a fb 3d
       0.10394589 0.06117215 -0.11483822 0.12260874
0002f0 cf bf 95 3d 96 2d 13 3d c8 81 1a bd 4f f6 6f 3d
       0.07311975 0.035932146 -0.037721425 0.058584508

model.fc1.bias f4 [6]
000000 df 52 86 3b 86 ea b1 bb 37 1f 99 bd 13 d6 01 be
       0.0040992345 -0.0054295687 -0.07476657 -0.12679319
000010 f7 cd 6b bd f1 68 f6 bd
       -0.05756947 -0.12031735

exp_avg f4 [21, 32]
000000 c0 d2 7d 3b 52 29 a4 3b e5 cb 43 3c ca 4d ab ba
       0.0038730353 0.0050098086 0.011950468 -0.0013069448
000010 e7 4a 44 3c 6c 68 01 ba e0 33 1e bc 53 7b 16 3b
       0.011980749 -0.00049365195 -0.009655923 0.002296169
000020 1f 34 1d ba 20 7f 09 bc 54 96 ff 3b ca 25 eb bb
       -0.00059968414 -0.008392125 0.007799903 -0.0071761357
000030 b3 b3 66 bb 03 83 a3 bc f5 0a a4 bb 86 5f 77 bb
       -0.0035202324 -0.019959932 -0.005006189 -0.0037746145
000040 f9 11 ab 37 84 66 02 bc 82 67 85 3b e4 56 1b 3c
       2.0393158e-05 -0.007959012 0.004071177 0.009481166
000050 c9 74 1b bc 16 90 1a bb 2c 3f 7a 3a 15 cd 75 3c
       -0.009488293 -0.0023584417 0.00095461565 0.015002509
000060 b1 b8 1a 3b cc a3 44 bb d1 3c a6 3a 4b d9 11 3b
       0.002360862 -0.0030004857 0.001268292 0.002225476
000070 86 b8 0d bb c3 cc 2e ba d2 e7 b3 bb 3d 04 a7 ba
       -0.0021624877 -0.0006668085 -0.0054902816 -0.0012742352
000080 4d 4e ad bb c2 ab da 37 0f d6 13 3d 72 7c 38 bb
       -0.005288875 2.6067606e-05 0.036092814 -0.0028150347
000090 84 7d 0a 3d cf 88 71 39 6d eb 71 bb 72 28 a0 3b
       0.033811107 0.00023034516 -0.0036914006 0.004887634
0000a0 2e 06 f6 39 9a 29 4f bc 2b c8 ab 3c d4 cf 62 bb
       0.0004692538 -0.012644196 0.020969471 -0.0034608738
0000b0 6a 6e e1 ba 9c 9b 18 bd 06 33 80 bc 45 0d 4a 3c
       -0.0017199044 -0.037257776 -0.01564933 0.012332265
0000c0 bd e6 03 ba 8a d5 8c bc 34 db e9 ba dc 18 e0 b9
       -0.0005031636 -0.017191667 -0.0017841817 -0.0004274313
0000d0 dd ba 96 bc 9c e8 2d bb 0c ad c8 3a cd 67 5c 3d
       -0.01839965 -0.002653635 0.0015310361 0.05380993
0000e0 62 99 b8 bc da cc c9 3b 15 f8 df 3a 50 9d c3 bb
       -0.022534076 0.0061584534 0.0017087484 -0.005969681
0000f0 2c 04 c6 b9 50 fe 1f 3a 19 45 09 3c 8e 57 df b9
       -0.0003776861 0.0006103264 0.008378291 -0.00042599108
000100 27 ac 11 bc 5f be bd 39 53 75 03 3d c5 3b 43 b9
       -0.008891142 0.00036190727 0.03209431 -0.00018618915
000110 a8 ca e1 3c 19 3a f1 b4 e5 c0 90 bc 27 1f 58 3c
       0.027562454 -4.493202e-07 -0.017670104 0.013191021
000120 28 9e 2d 3a 80 9b 31 bb 9f b0 54 3c 0a 16 2f bd
       0.00066229934 -0.0027100742 0.012981563 -0.042745627
000130 26 bf bb 37 24 18 b9 bb 30 ba b5 bc 9a 1d 0c bd
       2.2381148e-05 -0.0056486297 -0.022183508 -0.034207918
000140 26 48 c9 b9 25 2a bc bc 3a 18 04 b9 cf 2d 1f 3d
       -0.00038391462 -0.022969315 -0.00012597526 0.038862046
000150 69 1e c6 bc e5 d7 85 38 6e 44 e1 b8 6c 15 22 3d
       -0.024184423 6.382148e-05 -0.00010741582 0.03957121
000160 00 36 60 ba a2 f2 4d 3c 1c dc b1 38 d7 35 8a bc
       -0.00085529685 0.012570055 8.481016e-05 -0.016871376
000170 02 7f 08 ba 58 fa 82 b8 7c 8a 81 bc cf 04 99 b9
       -0.0005206914 -6.245513e-05 -0.015813105 -0.00029186017
000180 9c bf 93 3a 3d c9 b3 b6 e6 5b 2c 3a 08 77 1b 36
       0.0011272314 -5.358043e-06 0.0006574973 2.3166085e-06
000190 76 db f0 39 1f 4a cc 37 c1 72 9e 3a 0d 9b f3 3a
       0.00045939878 2.435321e-05 0.0012088643 0.0018585637
0001a0 76 9e b3 38 19 75 96 ba 8f 60 15 3a ff b7 b4 3a
       8.564901e-05 -0.001147899 0.0005698287 0.0013787745
0001b0 f3 d6 7f b9 c3 d4 03 bb c7 b0 26 bb 6f ba 09 b7
       -0.0002439877 -0.002011583 -0.0025434957 -8.209244e-06
0001c0 eb ba 77 36 d1 0b f7 39 83 6e 87 b6 04 11 4f 38
       3.6914669e-06 0.00047120315 -4.036179e-06 4.9368493e-05
0001d0 12 f3 06 39 69 db bb b5 af e9 cb 37 e2 76 94 3a
       0.00012869787 -1.3996442e-06 2.4308303e-05 0.0011326934
0001e0 94 4c 2d ba a4 ea 81 3a 99 8c 3c 36 62 27 cf ba
       -0.00066108373 0.0009911847 2.8096022e-06 -0.0015804584
0001f0 55 4c e3 36 7d 85 e0 b5 27 88 11 ba 3e 32 83 36
       6.7740134e-06 -1.6728151e-06 -0.00055515993 3.909953e-06
000200 f7 f4 cf b9 16 26 87 37 a8 e3 c1 3a b0 72 0c b7
       -0.0003966463 1.611099e-05 0.0014792578 -8.371353e-06
000210 f5 dd a9 3a ba 3c 46 34 dd 99 53 ba 19 5b 22 3a
       0.0012959825 1.8462279e-07 -0.00080719386 0.0006193384
000220 c2 3c 08 38 88 92 0c b9 67 18 1e 3a 3d 37 fd ba
       3.2481512e-05 -0.00013406028 0.0006030858 -0.001931883
000230 46 d7 0f b6 de 7f 8d b9 fe 9e 86 ba 5b c0 c8 ba
       -2.1433966e-06 -0.00026988884 -0.0010270772 -0.0015316115
000240 1a 6c 95 b7 24 12 88 ba 00 e2 c6 b6 92 67 e4 3a
       -1.7812523e-05 -0.0010381383 -5.9271697e-06 0.0017425886
000250 17 fb 90 ba a2 5c 38 36 1d 9f 9c b6 f7 40 ef 3a
       -0.0011061159 2.7472056e-06 -4.6676855e-06 0.0018253614
000260 47 85 4d b8 db e5 18 3a 30 c4 88 36 ec 07 4c ba
       -4.8999933e-05 0.0005832591 4.075955e-06 -0.0007783163
000270 98 24 c9 b7 df 99 10 b6 3b 45 37 ba 11 01 5a b7
       -2.3978107e-05 -2.1547237e-06 -0.0006991212 -1.2994061e-05
000280 92 be fd bc 11 90 f0 39 e2 c9 ae 3d 93 7a 9d b9
       -0.03097466 0.00045883705 0.085346 -0.00030036698
000290 3d 7a e5 3d d0 28 15 39 f5 87 86 bd 39 34 f4 3c
       0.11204956 0.00014224951 -0.065689005 0.029810058
0002a0 d5 38 e0 3a af 51 78 bb a0 b3 d5 3c f8 3e c1 bd
       0.0017106781 -0.0037890484 0.026086628 -0.094358385
0002b0 8e 81 df 3b 7d d1 9c bc c5 4a 3f bd 66 6b 3c bd
       0.006820864 -0.01914286 -0.046702165 -0.04600086
0002c0 eb 01 94 ba d7 09 8d bd 36 73 c7 b9 10 49 58 3d
       -0.0011292076 -0.068866424 -0.00038042077 0.052804053
0002d0 32 de 9f bd 23 6a a3 b9 57 f4 83 b9 0c 1f 15 3e
       -0.07806052 -0.0003116886 -0.00025168314 0.14562625
0002e0 e2 0f 71 3a 1f 10 a0 3c 7c b4 09 3a 92 86 ea bc
       0.0009195787 0.019538937 0.00052530295 -0.028628621
0002f0 a2 60 d2 ba 61 4d 61 3a 00 00 ad bb 4e 2e a7 b9
       -0.0016050527 0.0008594599 -0.005279541 -0.00031887222
000300 8d ef f2 ba d0 40 61 37 43 cc ad 3b 39 ff f8 36
       -0.0018534526 1.3426135e-05 0.005303891 7.420688e-06
000310 06 01 f1 3b e2 02 c9 b6 ce 4f c7 bb 5f f5 bc 3a
       0.0073548583 -5.9906024e-06 -0.0060825115 0.0014416388
000320 fb 26 de 38 96 84 e2 b9 8b 29 07 3b 2b 35 98 bb
       0.000105930456 -0.00043204863 0.0020624127 -0.00464501
000330 5a a6 72 3a c0 bc 4e b9 ac 30 2b bb 4b 16 41 3a
       0.00092563557 -0.00019716006 -0.002612154 0.00073656876
000340 ee 0e c9 b8 fd 91 3d bb b2 73 1b b8 1a 70 e8 b9
       -9.587208e-05 -0.0028926127 -3.706263e-05 -0.0004433401
000350 e4 e5 90 bb 10 28 30 b8 75 07 ff b7 6b 71 3b 3c
       -0.0044219363 -4.199898e-05 -3.0401841e-05 0.011440615
000360 e1 7d 9e ba 34 dc 49 3b b1 c2 5f 38 78 a0 a0 ba
       -0.0012091958 0.0030801417 5.3348664e-05 -0.0012254855
000370 0f df e3 b8 86 fc f0 38 12 3e 61 3b e0 73 99 b6
       -0.000108657514 0.00011491128 0.0034369272 -4.573245e-06
000380 ab 84 5b ba 15 d7 94 b7 3a e0 ff 3a db bc eb b7
       -0.0008373956 -1.774313e-05 0.0019521781 -2.8102126e-05
000390 af 46 c3 3b 29 49 2b 38 6e 68 a3 ba c3 0d ed 3a
       0.005959354 4.0837713e-05 -0.0012467036 0.0018085766
0003a0 fc 49 3d 38 2b 8d 8a 38 c6 1a 4d ba f4 b9 0c bb
       4.5130015e-05 6.6066474e-05 -0.0007824119 -0.0021473141
0003b0 13 b4 09 39 fe 85 15 bb 4f 3f cf ba f3 ca 34 bb
       0.00013132421 -0.0022815461 -0.0015811714 -0.0027586787
0003c0 bd 5b 02 b6 13 da 3b bb be b2 bc 36 9d 8d 16 3b
       -1.9424908e-06 -0.0028663918 5.623645e-06 0.0022972592
0003d0 f9 3a 87 bb e4 75 a7 b7 a3 a4 9e 37 78 e3 ac 3b
       -0.004126903 -1.9962848e-05 1.8911733e-05 0.00527614
0003e0 ab cb 24 3b e8 4e 0a bb 90 f6 27 37 06 3b d5 ba
       0.002514581 -0.002110416 1.0011383e-05 -0.0016268201
0003f0 f7 25 57 b8 cc 0e dc 37 b8 67 10 bb ba d0 38 37
       -5.1295352e-05 2.6232934e-05 -0.0022034477 1.1015853e-05

exp_avg_sq f4 [21, 32]
000000 72 06 87 38 08 d4 c6 36 79 9b a2 3a 5c a7 83 38
       6.438502e-05 5.9255435e-06 0.0012405954 6.27774e-05
000010 42 d7 ef 3b 77 da f9 35 59 ef ea 3b 9f c9 b7 39
       0.007319362 1.8615527e-06 0.0071696457 0.000350547
000020 aa 48 85 35 39 fd 05 39 29 02 42 3b 90 97 bd 3a
       9.93042e-07 0.00012778201 0.0029603338 0.0014464725
000030 98 e0 da 39 e6 85 0c 3b 42 cb 56 38 62 53 44 3a
       0.00041747536 0.0021442114 5.1210875e-05 0.00074892316
000040 b4 53 c1 34 c2 d5 ec 39 34 1d 0b 37 6b 66 33 3a
       3.6009953e-07 0.0004517269 8.291845e-06 0.00068435696
000050 cb 33 bf 3a c8 07 85 39 93 25 41 39 da 94 31 3b
       0.0014587579 0.00025373534 0.00018419912 0.002709678
000060 9d f3 6b 3a f5 7a 19 3a e9 dd c5 36 c6 a4 7b 3a
       0.000900084 0.0005854809 5.8968913e-06 0.00095994433
000070 7e de 22 37 fe 5d d4 35 aa f7 72 3b 07 42 14 38
       9.707755e-06 1.5822586e-06 0.0037073889 3.5347442e-05
000080 49 f0 41 39 cc 37 77 35 14 40 79 3b 55 fa 12 39
       0.00018495428 9.2095866e-07 0.0038032578 0.00014016901
000090 97 7d b8 3c 7c 21 64 36 f0 81 ba 3c e1 7d c1 3a
       0.022520823 3.3994138e-06 0.022767037 0.0014762246
0000a0 a8 f8 83 35 88 cf 8f 39 f8 ea 1f 3c 26 22 9b 3b
       9.832629e-07 0.00027429708 0.009760611 0.0047342954
0000b0 2a dd ad 3a c8 a6 cc 3b 98 df 88 39 eb 77 06 3b
       0.0013264765 0.006245468 0.00026106532 0.0020518254
0000c0 30 6b 82 35 bc 19 3f 3a 3c f0 66 37 cf a1 fe 3a
       9.71695e-07 0.00072899065 1.3765002e-05 0.0019426885
0000d0 7f 59 b0 3b 64 59 56 3a 2d 20 1e 3a 7b b0 0d 3c
       0.0053817625 0.00081767724 0.0006032016 0.008648033
0000e0 f6 d5 36 3b d2 de 23 3b 5e 3f 8e 37 49 99 66 3b
       0.0027898527 0.0025004637 1.6957227e-05 0.003518658
0000f0 a9 52 62 35 da ce 5a 36 b7 32 58 3c 78 8e 01 39
       8.4311847e-07 3.2604935e-06 0.013195685 0.00012355472
000100 3b e1 b3 37 94 22 7f 36 c3 0d 7e 3c 9a be 19 36
       2.1443344e-05 3.8018088e-06 0.015506211 2.2909721e-06
000110 e0 5b b3 3d 31 b5 45 37 f2 da 8c 3d b0 2d 87 3b
       0.08757758 1.1784302e-05 0.06877698 0.0041253194
000120 aa 57 81 36 7f 20 a1 39 4a 68 b7 3c 3c ae 50 3c
       3.854705e-06 0.00030732524 0.022388596 0.012736853
000130 0c b0 3c 3b 00 cf 88 3c f4 66 2a 3a d0 2a 11 3c
       0.0028791456 0.016700268 0.00065003266 0.008860305
000140 07 aa 56 36 27 19 a2 3b 22 3a bd 36 23 ad 00 3c
       3.1987454e-06 0.004946846 5.6394065e-06 0.007853779
000150 5d 99 8a 3c de e4 d5 35 de f6 42 37 fa 6a 02 3d
       0.016918832 1.5936346e-06 1.1620779e-05 0.031840302
000160 16 1b 13 3c b1 c5 4a 3b d1 77 2b 36 69 39 43 3c
       0.008978626 0.0030940587 2.5550728e-06 0.011915543
000170 ec 68 40 36 21 3f 49 37 17 fd 42 3d 69 5a e0 36
       2.8671302e-06 1.1995232e-05 0.047604647 6.6862453e-06
000180 55 0e 84 34 0b d0 cb 31 49 1a d6 37 ae 19 86 31
       2.4597344e-07 5.9317293e-09 2.5523028e-05 3.9028327e-09
000190 87 a1 ea 38 31 7a 83 32 41 91 bf 38 27 8b 91 37
       0.00011188076 1.5305973e-08 9.1346454e-05 1.7350145e-05
0001a0 f9 c6 1b 32 13 fc 6b 36 c5 1a 00 38 96 e3 b8 37
       9.067429e-09 3.5164455e-06 3.054251e-05 2.2040487e-05
0001b0 d9 32 a5 36 17 47 b4 37 c4 bf dc 36 90 8f 54 37
       4.9233026e-06 2.1490776e-05 6.5788354e-06 1.266961e-05
0001c0 db aa a3 31 db c6 89 36 56 b0 04 32 9c 7a 65 37
       4.7633484e-09 4.106068e-06 7.723505e-09 1.3678011e-05
0001d0 df df 00 38 e3 c3 54 31 21 36 8c 32 44 df 6a 38
       3.0726074e-05 3.096141e-09 1.632276e-08 5.599788e-05
0001e0 a3 8c 5a 37 d4 f8 94 37 7e cf 7a 31 75 ef 90 38
       1.3026557e-05 1.7758844e-05 3.6497734e-09 6.9110574e-05
0001f0 f0 24 b3 31 7f 6e 90 32 c9 df 9c 38 20 92 17 32
       5.213785e-09 1.6814054e-08 7.480343e-05 8.822582e-09
000200 c7 6e 3b 33 b7 1b 09 32 5f cf 08 38 7b cb a5 31
       4.364008e-08 7.980751e-09 3.2618056e-05 4.825265e-09
000210 8e f2 40 39 14 a6 d4 32 cb 5e 17 39 3e 02 13 37
       0.00018400906 2.4755572e-08 0.00014435795 8.762405e-06
000220 7e 0f 0c 32 3b ea 32 35 8c 59 45 38 c6 f6 df 37
       8.152595e-09 6.665102e-07 4.7051857e-05 2.6698584e-05
000230 43 54 cb 36 68 a9 12 38 aa e7 bb 35 fa fd 9b 37
       6.059681e-06 3.4966884e-05 1.4000009e-06 1.8595707e-05
000240 5c bc e6 31 e2 b8 2b 37 5d bd 4b 32 33 7a 8a 37
       6.715295e-09 1.0235441e-05 1.1859211e-08 1.6507785e-05
000250 cf 4b 15 38 8b bc 64 31 94 6d d1 32 8e 3c 8c 38
       3.559497e-05 3.328554e-09 2.4380633e-08 6.6869994e-05
000260 b6 1d 9e 37 b6 ac dc 36 13 60 b8 31 77 9b d4 37
       1.8848903e-05 6.576617e-06 5.366027e-09 2.5344763e-05
000270 29 e0 ce 31 c2 98 d8 32 ad 1b d2 38 71 31 71 32
       6.020873e-09 2.5215176e-08 0.00010018735 1.4039288e-08
000280 54 3d 64 39 2d dc b7 37 99 a0 b3 3d 07 8e 5a 37
       0.00021766621 2.1917827e-05 0.08770866 1.3026881e-05
000290 c6 69 03 3f b8 aa 8e 38 36 54 ca 3e 7d 29 bc 3c
       0.5133327 6.8028865e-05 0.39517373 0.022969002
0002a0 a2 5c b6 37 27 cf a3 3a 94 15 02 3e 78 f2 95 3d
       2.1739226e-05 0.0012497649 0.12703544 0.07321638
0002b0 fc 2c 88 3c 5a 5e c8 3d 29 5d 33 3b 30 4b 55 3d
       0.016623013 0.09783621 0.002736876 0.052073658
0002c0 31 18 9b 37 61 a3 09 3d cf eb 06 38 c5 c4 37 3d
       1.8488705e-05 0.033603076 3.2167703e-05 0.04486539
0002d0 b5 fa cb 3d 33 3e 1b 37 8b 75 8b 38 42 48 3b 3e
       0.09959928 9.253202e-06 6.6499306e-05 0.18289283
0002e0 cd 0f 5b 3d c2 e1 60 3c ae 66 78 37 9d 90 71 3d
       0.053481866 0.0137257 1.4805859e-05 0.058975805
0002f0 6a c6 8b 37 66 36 93 38 b5 90 8e 3e bb 26 23 38
       1.6662485e-05 7.019639e-05 0.27844778 3.88983e-05
000300 90 21 28 35 58 f3 1f 33 ff 15 1c 39 49 b8 c2 32
       6.2633717e-07 3.7241392e-08 0.00014885514 2.2668376e-08
000310 c3 7d 6b 3a 9c b6 f5 33 bc 64 2f 3a 02 6c 2e 38
       0.00089832785 1.1441918e-07 0.0006690731 4.1585423e-05
000320 39 49 21 33 94 ba cd 35 14 db 60 39 f5 01 01 39
       3.755233e-08 1.5327992e-06 0.00021443918 0.00012303128
000330 89 60 f8 37 09 ef 30 39 14 62 6d 36 84 a6 bc 38
       2.9608856e-05 0.00016873716 3.537284e-06 8.9955545e-05
000340 d0 97 0d 33 a8 30 8d 38 22 82 6b 33 08 8c 9f 38
       3.2967193e-08 6.732467e-05 5.4833556e-08 7.607794e-05
000350 8e ca 3d 39 a0 66 92 32 cf bf eb 33 d5 13 a8 39
       0.00018099902 1.7043305e-08 1.097793e-07 0.00032058233
000360 5b 9e c5 38 93 91 66 37 a3 d2 db 32 4d 09 af 38
       9.423188e-05 1.3742962e-05 2.5590742e-08 8.346383e-05
000370 2d 50 ff 32 82 12 05 34 fd eb 03 3a c5 db 8d 33
       2.9722367e-08 1.2393323e-07 0.00050324184 6.6058e-08
000380 61 63 80 34 8d 66 5c 33 62 92 50 39 60 24 f8 32
       2.3914166e-07 5.131601e-08 0.00019890958 2.8887541e-08
000390 a1 57 9a 3a 35 5b 2a 34 18 fd 6e 3a 43 81 76 38
       0.0011775383 1.5865665e-07 0.00091166934 5.8771355e-05
0003a0 9b 7a 5e 33 15 5a 75 36 ea d1 95 39 a1 ae 35 39
       5.1799912e-08 3.656028e-06 0.00028575893 0.0001732656
0003b0 ac d5 1e 38 5a 2f 70 39 92 58 06 37 84 c4 fe 38
       3.7869133e-05 0.00022905823 8.007644e-06 0.00012148268
0003c0 e3 89 34 33 b9 51 8a 38 2d 74 9b 33 70 c8 dd 38
       4.2034923e-08 6.595575e-05 7.238882e-08 0.000105754356
0003d0 3c a4 7b 39 f3 a3 ce 32 ee d5 2c 34 1b 6c e1 39
       0.00023998407 2.4056112e-08 1.6096575e-07 0.0004299589
0003e0 47 9a 09 39 71 69 36 38 38 f0 15 33 e3 a1 35 39
       0.00013122811 4.349038e-05 3.4910244e-08 0.00017321813
0003f0 cf 50 28 33 86 97 2f 34 05 cc 25 3a 33 75 c4 33
       3.9189043e-08 1.6353269e-07 0.0006324652 9.14828e-08

exp_avg f4 [32]
000000 28 aa 2d ba cb 03 bd 36 01 8c 22 3b af 65 ec b9
       -0.00066247815 5.6330805e-06 0.0024802687 -0.00045089188
000010 60 14 e5 3a fa 7d 25 b9 61 2d 49 bb 1c c8 ce 39
       0.0017477386 -0.00015782556 -0.0030697214 0.00039440475
000020 f8 8c ad b8 88 26 0b ba ac 8d ad 3a f7 86 29 bb
       -8.27554e-05 -0.0005308171 0.0013241074 -0.0025867799
000030 65 a1 00 3a f4 cc 8c 39 a2 05 b3 ba f2 de 95 38
       0.0004906862 0.00026855583 -0.0013658295 7.1464005e-05
000040 f5 ad 80 b7 35 82 1d 39 33 1d 38 b9 a9 bf 85 3a
       -1.5339794e-05 0.00015021193 -0.00017558485 0.0010204214
000050 36 27 f0 ba a0 35 09 b9 1b e4 e8 38 24 a0 bb 3b
       -0.0018322233 -0.00013085315 0.0001110511 0.0057258774
000060 3c b1 c4 ba 70 77 c6 39 ce 93 05 39 65 7d 34 b9
       -0.0015006433 0.0003785449 0.0001273893 -0.00017212851
000070 f3 2d 15 b8 f8 78 01 b9 53 05 a2 3a 95 15 3f b9
       -3.5567162e-05 -0.00012347463 0.0012361206 -0.0001822322

exp_avg_sq f4 [32]
000000 94 75 29 35 69 12 b6 31 11 a2 ae 37 f3 b5 f7 34
       6.3128505e-07 5.29899e-09 2.0817884e-05 4.613972e-07
000010 0a 54 f8 38 a5 6f 6d 33 83 75 d7 38 aa 0f c9 36
       0.00011841215 5.5282403e-08 0.00010273887 5.9920903e-06
000020 81 fd df 32 54 4c 8b 35 0c dc 39 38 8b f3 a4 37
       2.6075897e-08 1.0378521e-06 4.431237e-05 1.9663732e-05
000030 6a 7c c2 36 21 88 d5 37 6b f2 91 35 92 94 35 37
       5.7961342e-06 2.5454969e-05 1.0873895e-06 1.0823032e-05
000040 a7 2d ea 31 9b 71 d6 36 a0 9d 4a 33 c9 81 2c 37
       6.8154864e-09 6.3909224e-06 4.717515e-08 1.0282217e-05
000050 61 b8 d2 37 85 5a 41 36 c4 3e 1d 36 5f b0 29 38
       2.5119809e-05 2.881193e-06 2.3431357e-06 4.0457e-05
000060 0f 58 5f 37 3b df 15 37 8f 92 b5 33 5c 23 92 37
       1.33123385e-05 8.933067e-06 8.455128e-08 1.7421022e-05
000070 4b 3c 96 31 cb 04 24 33 e8 03 83 38 7e 28 07 35
       4.372429e-09 3.8188585e-08 6.2472944e-05 5.0350343e-07
