outputs/debug_model.ckpt (torch, 8841 bytes, 10 tensors)

gcn1.weight f4 [21, 16]
-0.26460138 0.0720228 -0.102173924 -0.39904407 0.14726868 0.23269802 -0.16574872 0.27447096
-0.012525532 0.0038284021 -0.08994662 -0.28223476 -0.3752663 -0.28931254 0.15900294 -0.062423196
-0.1440562 -0.005753312 0.2888739 0.2961449 0.30594575 0.24135493 -0.38413703 0.036348272
-0.23717691 -0.09649015 0.29673418 0.4017394 0.34177235 -0.25407404 0.1337561 0.3028378
-0.041722883 0.3003568 -0.35168782 0.24693629 0.07729917 0.29578248 0.14753416 0.08256682
-0.09254731 0.15674944 -0.19939046 0.029298382 -0.28863198 0.27582625 0.019138834 -0.07336412
-0.31940535 -0.08149163 0.37076437 0.36702502 0.2115327 -0.35832158 0.06125774 0.116735645
-0.28075996 0.049362652 0.25257364 -0.14085372 0.006988492 0.05425961 -0.27432093 0.21903814
0.041234158 0.16787456 0.3413482 0.071924075 -0.0574783 -0.173902 0.26192755 -0.07643875
-0.03419078 -0.17548126 -0.20353979 -0.1046632 -0.033328578 0.28139782 0.35920194 0.016306056
0.19058555 0.029993286 -0.23491248 -0.19792908 0.3636873 -0.27915835 0.02031303 -0.39510846
0.17469423 0.16235766 0.15421484 0.36338055 -0.33797094 -0.23058839 0.19995725 -0.0076236282
-0.11592486 -0.089988045 0.29850653 0.086323746 0.33512852 -0.14367716 -0.22862217 0.1827556
0.06169434 -0.16736552 0.03326723 0.38006347 -0.14854687 0.3231265 -0.38330713 0.3534008
0.16433135 -0.30142692 -0.29893947 -0.06769699 -0.33067122 -0.04770212 0.12805726 0.23785266
-0.2374312 0.06202076 0.0062419875 -0.3675118 -0.11619504 0.06269659 -0.040663656 0.23944366
-0.38981193 -0.26149398 -0.0016546368 0.3966982 -0.19071223 -0.018915262 -0.2764675 0.10502443
0.073844455 -0.12417276 0.039805714 0.23859651 0.094785854 0.14238527 -0.12251494 -0.35312527
0.059645016 -0.31530258 0.38843992 0.2689573 0.15764473 -0.007928685 -0.19398376 0.18510886
-0.07356299 0.06777289 -0.28704515 0.16621369 -0.22281036 -0.03637691 0.29314384 -0.33035296
-0.007963392 0.28276727 -0.12239347 0.24918297 -0.035458155 0.18706109 0.10727698 -0.06915209
-0.31929976 -0.09823225 0.37932238 -0.1272623 -0.28745976 0.10626135 -0.15304966 -0.08422881
0.0034349528 -0.3145248 0.17309219 0.29637787 -0.22954218 0.112484545 -0.33088693 -0.15429147
-0.16806975 0.35016102 0.19573501 -0.19633499 -0.2900763 0.22539948 -0.2280163 -0.32467377
-0.039133836 -0.35427865 -0.22259326 -0.0050360598 -0.29590413 0.24917746 -0.31952158 0.3444778
0.13541831 -0.23017216 -0.2256403 0.023427056 -0.31537235 0.38500553 -0.19904947 -0.025553957
-0.31276456 0.07477919 0.3821131 -0.2136778 -0.29121515 0.23910551 0.020262241 0.20898372
0.082674414 -0.34051788 -0.28525218 -0.1349097 -0.32224616 -0.18212266 -0.25809905 0.14167896
0.3650112 -0.35329762 -0.11834706 0.060086224 0.08775664 -0.33636263 -0.012257856 0.103226274
0.21444663 -0.06885537 -0.07005808 -0.08342841 -0.13278145 -0.3387756 0.30391786 -0.20088023
0.02414049 -0.35663915 0.30142155 -0.13347249 0.10359506 0.3988579 0.35609424 0.39774334
0.07337545 -0.3053083 -0.39417273 0.34231672 0.37565565 0.31224903 0.069940224 -0.2548635
00000000: d579 87be b180 933d 9040 d1bd 814f ccbe
00000010: 9acd 163e 6448 6e3e 08ba 29be 7587 8c3e
00000020: e437 4dbc eee5 7a3b ef35 b8bd 1381 90be
00000030: e822 c0be c620 94be abd1 223e 77af 7fbd
00000040: 7883 13be 4786 bcbb 48e7 933e 4ea0 973e
00000050: eca4 9c3e bf25 773e 9cad c4be ede1 143d
00000060: 81de 72be a19c c5bd 8bed 973e c9b0 cd3e
00000070: c9fc ae3e fe15 82be 5cf7 083e 8e0d 9b3e
00000080: 9de5 2abd 5ec8 993e 6d10 b4be dedc 7c3e
00000090: 074f 9e3d cd70 973e 3213 173e cb18 a93d
000000a0: 7289 bdbd ed82 203e 032d 4cbe 2903 f03c
000000b0: 92c7 93be 1939 8d3e 0bc9 9c3c ee3f 96bd
000000c0: 1989 a3be 15e5 a6bd d4d4 bd3e b4ea bb3e
000000d0: 079c 583e ed75 b7be 65e9 7a3d 1913 ef3d
000000e0: c5bf 8fbe 7e30 4a3d 5551 813e f53b 10be
000000f0: b8ff e43b 533f 5e3d cb73 8cbe 894b 603e
00000100: 26e5 283d 4fe7 2b3e 31c5 ae3e ee4c 933d
00000110: 5e6e 6bbd 5e13 32be 5e1b 863e eb8b 9cbd
00000120: a20b 0cbd 5cb1 33be bc6c 50be a959 d6bd
00000130: 8c83 08bd 6013 903e 51e9 b73e 4794 853c
00000140: dc28 433e 7bb4 f53c e68c 70be ecad 4abe
00000150: 3935 ba3e d8ed 8ebe 8367 a63c a84b cabe
00000160: 0be3 323e 1641 263e 7fea 1d3e 040d ba3e
00000170: 870a adbe 5d1f 6cbe 98c1 4c3e a1cf f9bb
00000180: 036a edbd a74b b8bd d9d5 983e 81ca b03d
00000190: f795 ab3e 1b20 13be ee1b 6abe 4924 3b3e
000001a0: 34b3 7c3d de61 2bbe 3843 083d ae97 c23e
000001b0: ac1c 18be d670 a53e d540 c4be f3f0 b43e
000001c0: 7a46 283e a154 9abe 980e 99be b8a4 8abd
000001d0: bd4d a9be 4c63 43bd 7121 033e a68f 733e
000001e0: 2a21 73be 7b09 7e3d 9689 cc3b 822a bcbe
000001f0: aaf7 edbd 1267 803d ef8e 26bd b830 753e
00000200: 6e95 c7be 8ae2 85be 66e0 d8ba 071c cb3e
00000210: 114a 43be 2ef4 9abc 268d 8dbe 0c17 d73d
00000220: c33b 973d 4a4e febd 510b 233d a552 743e
00000230: 161f c23d 72cd 113e 1de9 fabd d6cc b4be
00000240: 554e 743d 576f a1be 99e1 c63e c5b4 893e
00000250: 9f6d 213e 51e7 01bc aea3 46be 2d8d 3d3e
00000260: 31a8 96bd 83cc 8a3d 95f7 92be ec33 2a3e
00000270: 6628 64be f4ff 14bd f316 963e 0624 a9be
00000280: e378 02bc dfc6 903e 6da9 fabd d229 7f3e
00000290: 923c 11bd f18c 3f3e 09b4 db3d 9c9f 8dbd
000002a0: 427b a3be fd2d c9bd 8b36 c23e 0c51 02be
000002b0: ed2d 93be 8d9f d93d 0db9 1cbe 2880 acbd
000002c0: f21c 613b 6509 a1be 143f 313e d7be 973e
000002d0: 1b0d 6bbe 4c5e e63d 036a a9be 95fe 1dbe
000002e0: 7a1a 2cbe 4e48 b33e c26e 483e 0a0c 49be
000002f0: e184 94be 1fcf 663e 1b7d 69be a43b a6be
00000300: cd4a 20bd 0364 b5be 7def 63be 8805 a5bb
00000310: bf80 97be 6028 7f3e 5598 a3be 655f b03e
00000320: 19ab 0a3e 40b2 6bbe 400e 67be 19ea bf3c
00000330: 7c78 a1be 721f c53e a0d3 4bbe 8856 d1bc
00000340: ad22 a0be d525 993d 54a4 c33e 5ace 5abe
00000350: 271a 95be 13d8 743e 00fd a53c d4ff 553e
00000360: 3451 a93d 5c58 aebe 930c 92be c525 0abe
00000370: 73fd a4be 5d7e 3abe 8f25 84be 4a14 113e
00000380: bfe2 ba3e 6de3 b4be f25f f2bd f91c 763d
00000390: c1b9 b33d b937 acbe 2dd5 48bc 4c68 d33d
000003a0: e697 5b3e 0b04 8dbd 9c7a 8fbd 84dc aabd
000003b0: dcf7 07be ff73 adbe 1f9b 9b3e 8cb3 4dbe
000003c0: 47c2 c53c 6899 b6be ed53 9a3e 03ad 08be
000003d0: a629 d43d 1a37 cc3e fc51 b63e 04a5 cb3e
000003e0: de45 963d 5f51 9cbe 02d1 c9be 2344 af3e
000003f0: f055 c03e 1bdf 9f3e d23c 8f3d 787d 82be

gcn1.bias f4 [16]
-0.00029999894 0.0002999996 0.0002999918 -0.00029999923 -0.0002999995 -0.0002999874 -0.0002999986 -0.00029999876
-0.00029999975 0.00029997353 -0.00029999745 0.00029999294 0.00029999125 -0.00029997333 -0.00029999967 0.00029999972
00000000: 2d49 9db9 4449 9d39 3848 9d39 3749 9db9
00000010: 4049 9db9 a147 9db9 2149 9db9 2749 9db9
00000020: 4949 9db9 c445 9d39 fa48 9db9 5f48 9d39
00000030: 2548 9d39 bd45 9db9 4649 9db9 4849 9d39

gcn2.weight f4 [16, 16]
-0.11120642 0.32011938 -0.41421598 -0.11757828 0.07606009 0.14643382 0.14089136 -0.16310063
0.2328707 -0.010899757 -0.41875625 -0.4247713 0.24955204 0.37971732 0.24570176 -0.21028218
0.038331784 -0.3278126 -0.26603648 0.2997271 -0.14852554 0.11534485 -0.015250997 -0.40433827
0.2462892 -0.407069 -0.10531276 -0.3303079 -0.17216761 -0.21400897 0.06185417 -0.31835985
-0.22470853 0.036467776 -0.36907756 -0.2654171 -0.39781874 0.17372054 -0.2652099 -0.42488655
-0.41843268 0.093519725 0.39384556 0.2142556 0.36458078 0.37557924 0.0077302344 0.24493517
0.26709005 0.28753704 -0.28008634 0.2728232 -0.21731856 -0.0016638011 0.19381873 -0.29098403
-0.23380837 -0.29202142 0.33553278 0.010159434 -0.19842316 0.40151584 -0.40064055 -0.098760195
0.07556018 0.28908783 0.38678572 -0.12900266 -0.025481828 -0.31948307 -0.38875034 -0.14384432
0.010456117 -0.0029510856 0.15276611 -0.37935758 -0.2350369 -0.04350374 0.2533702 -0.2945963
-0.116611026 -0.27722472 -0.36276284 0.1870039 0.13625422 0.08380853 -0.17490965 -0.32879296
-0.27308774 -0.08697057 -0.025512252 0.06432252 -0.076043114 -0.30082077 -0.22980803 -0.4090577
0.22324777 0.4105396 -0.20130084 -0.34299386 0.31240535 0.41702807 -0.21013792 0.032743465
-0.23504959 0.39087895 -0.077560656 -0.11946742 -0.15364544 0.14149944 -0.17415379 0.08384071
-0.14258401 0.150311 -0.31677133 -0.0036288446 -0.41142172 0.08651924 -0.06035898 0.40515873
0.4276438 0.15523541 -0.32805172 -0.25322357 -0.29812542 0.30851078 0.25575912 -0.16074449
0.05878912 0.19171828 0.25835654 -0.17149374 0.09031698 0.019969158 0.004886405 -0.1919066
0.27041584 -0.020894887 -0.076419875 0.02489649 0.23263754 -0.07418141 -0.36620155 0.26905447
0.34339473 -0.03643221 0.25806984 -0.011970053 0.26910096 0.1289779 -0.13227658 -0.107547395
0.27197507 -0.10558859 -0.20474967 0.13957742 0.36123332 0.36775178 -0.2169653 0.011595501
-0.3803825 -0.34543747 0.18907388 -0.3646714 0.25492096 0.27061313 0.051647976 0.20734465
-0.19513014 -0.27779692 -0.22641566 -0.4064276 -0.038439315 -0.35568342 0.42676345 0.17536582
-0.2948553 0.15968262 -0.27243412 0.15503983 0.2836716 -0.14948943 0.3637797 -0.34496906
0.1364097 0.06979519 0.4181947 0.08215006 0.18527822 0.36215946 -0.2102384 0.003343411
0.39891788 -0.025683163 -0.32806748 0.4156195 0.36803493 0.39876366 -0.40754434 0.0061504934
-0.26999414 -0.37187654 0.086596355 0.09558886 0.24647656 0.1883654 0.118435785 -0.10497241
0.39485526 0.25007617 -0.081067 0.3233742 0.37610003 -0.019157914 0.28816268 -0.24156024
0.3567392 -0.369937 0.34334028 0.2928456 -0.12146263 -0.17979176 0.13987482 -0.40145698
-0.20501062 0.18870491 -0.023116041 0.21332383 0.38142657 -0.3626725 0.019055655 -0.3141545
-0.37126043 0.00866812 0.13154152 0.2095582 -0.21443146 -0.019134244 0.35029426 -0.011846863
0.24004568 -0.39966583 -0.3036356 -0.38448647 -0.279936 -0.3602299 0.3450434 -0.03482909
-0.32173976 -0.17895713 -0.20259696 0.031771783 -0.41526425 0.30067128 -0.29386058 -0.064380586
00000000: 31c0 e3bd b0e6 a33e 1e14 d4be e2cc f0bd
00000010: 64c5 9b3d bff2 153e d345 103e da03 27be
00000020: a875 6e3e e594 32bc 3867 d6be a07b d9be
00000030: 928a 7f3e 4f6a c23e 3e99 7b3e 3654 57be
00000040: ca01 1d3d 0ed7 a7be ef35 88be d575 993e
00000050: 1417 18be ec39 ec3d 51df 79bc 6d05 cfbe
00000060: 3c33 7c3e 596b d0be 37ae d7bd 1e1e a9be
00000070: b54c 30be 2b25 5bbe cc5a 7d3d 1000 a3be
00000080: fe19 66be 3c5f 153d bcf7 bcbe c0e4 87be
00000090: e6ae cbbe cce3 313e 98c9 87be bb8a d9be
000000a0: cf3c d6be 4587 bf3d 20a6 c93e d265 5b3e
000000b0: 55aa ba3e ec4b c03e e84d fd3b 49d0 7a3e
000000c0: 07c0 883e 0e38 933e 7a67 8fbe 7caf 8b3e
000000d0: c288 5ebe e713 daba 6b78 463e dcfb 94be
000000e0: 766b 6fbe d583 95be f4ca ab3e c173 263c
000000f0: 712f 4bbe 7c93 cd3e c220 cdbe c942 cabd
00000100: 4cbf 9a3d 5203 943e c708 c63e 4619 04be
00000110: 44bf d0bc 4993 a3be 490a c7be ed4b 13be
00000120: 2250 2b3c 0067 41bb b86e 1c3e 283b c2be
00000130: 83ad 70be fa30 32bd bdb9 813e 54d5 96be
00000140: c3d1 eebd 66f0 8dbe 0dbc b9be f37d 3f3e
00000150: 3a86 0b3e cea3 ab3d 841b 33be 8d57 a8be
00000160: 28d2 8bbe a01d b2bd 12ff d0bc 86bb 833d
00000170: 7ebc 9bbd 2e05 9abe cc52 6bbe 0370 d1be
00000180: 109b 643e 3f32 d23e cf21 4ebe e49c afbe
00000190: 98f3 9f3e b484 d53e 652e 57be 031e 063d
000001a0: d7b0 70be 4921 c83e 1fd8 9ebd 56ab f4bd
000001b0: 3b55 1dbe 3be5 103e 5f55 32be aeb4 ab3d
000001c0: 8b01 12be 20eb 193e da2f a2be e9d1 6dbb
000001d0: dea5 d2be 0031 b13d fa3a 77bd f770 cf3e
000001e0: 21f4 da3e 08f6 1e3e 65f6 a7be 85a6 81be
000001f0: e5a3 98be 20f5 9d3e dcf2 823e 349a 24be
00000200: dccc 703d cc51 443e 4f47 843e 0e9c 2fbe
00000210: 1cf8 b83d 5c96 a33c 231e a03b 2a83 44be
00000220: f273 8a3e c12b abbc 0682 9cbd b9f3 cb3c
00000230: 8938 6e3e 6cec 97bd c57e bbbe 82c1 893e
00000240: 6fd1 af3e f139 15bd bb21 843e 0b1e 44bc
00000250: 9ac7 893e c812 043e 8373 07be cf41 dcbd
00000260: 5140 8b3e d53e d8bd e6a9 51be 62ed 0e3e
00000270: 93f3 b83e f649 bc3e 272c 5ebe 0efb 3d3c
00000280: 7fc1 c2be 2edd b0be 959c 413e 36b6 babe
00000290: 0085 823e ce8d 8a3e d48c 533d 2852 543e
000002a0: 32d0 47be 663b 8ebe 82d9 67be 4717 d0be
000002b0: 8b72 1dbd 231c b6be bd80 da3e 1993 333e
000002c0: 46f7 96be d783 233e 7c7c 8bbe c3c2 1e3e
000002d0: 673d 913e c213 19be 5541 ba3e c99f b0be
000002e0: fcae 0b3e c8f0 8e3d 9e1d d63e 4a3e a83d
000002f0: 93b9 3d3e f76c b93e bc48 57be 211d 5b3b
00000300: f73e cc3e 7f65 d2bc 76f8 a7be 14cc d43e
00000310: 136f bc3e c02a cc3e a7a9 d0be 148a c93b
00000320: ac3c 8abe 9a66 bebe 6e59 b13d 18c4 c33d
00000330: 5a64 7c3e dce2 403e 768e f23d c6fb d6bd
00000340: 782a ca3e fc09 803e 7506 a6bd 4e91 a53e
00000350: 2f90 c03e 0ff1 9cbc 0f8a 933e 915b 77be
00000360: 85a6 b63e 6268 bdbe 4cca af3e dcef 953e
00000370: 66c1 f8bd 551b 38be 583b 0f3e c58b cdbe
00000380: 4eee 51be dc3b 413e da5d bdbc 9071 5a3e
00000390: 584a c33e 36b0 b9be 9b1a 9c3c dcd8 a0be
000003a0: d915 bebe bb04 0e3c d2b2 063e 6d96 563e
000003b0: ec93 5bbe 6bbf 9cbc c559 b33e 5819 42bc
000003c0: 89ce 753e 00a1 ccbe 2076 9bbe 69db c4be
000003d0: c553 8fbe 0e70 b8be 87a9 b03e f3a8 0ebd
000003e0: 13bb a4be 8a40 37be 9475 4fbe 2123 023d
000003f0: 849d d4be 96f1 993e e574 96be f8d9 83bd

gcn2.bias f4 [16]
0.00029996145 -0.0002999999 -0.00029999745 -0.00029999122 -0.0002999998 0.00029997763 0.0002999897 0.00029998727
0.000299999 -0.0002999514 0.00029999964 -0.00029998238 -0.00029999917 0.00029999984 0.00029999946 0.00029957196
00000000: 2544 9d39 4e49 9db9 fa48 9db9 2448 9db9
00000010: 4b49 9db9 5146 9d39 f047 9d39 9c47 9d39
00000020: 2f49 9d39 cc42 9db9 4549 9d39 f446 9db9
00000030: 3549 9db9 4c49 9d39 3f49 9d39 de0f 9d39

gcn3.weight f4 [16, 16]
-0.0661002 0.3980308 -0.17053214 0.39230943 0.17295727 0.3867896 0.15686223 -0.3116791
-0.2737034 -0.2935374 0.23317806 0.39097053 -0.109849066 0.09982709 -0.044154324 0.27975747
-0.41605574 -0.17724773 0.29656446 -0.016674621 0.06592635 0.32247463 0.3885389 0.4113413
-0.39809212 0.2577146 0.26930866 -0.2786578 -0.41605324 -0.32595864 -0.41287413 -0.19154076
0.2187497 0.2818498 -0.23573025 -0.19487876 0.020507136 -0.13414936 -0.3122495 -0.21456034
0.30246058 -0.10560701 0.38091204 -0.044835392 -0.26282927 -0.36411723 0.20675533 -0.31757742
-0.13367854 0.2560805 -0.13190624 -0.021662166 -0.22766905 0.35525042 0.09600226 -0.37679684
-0.3287657 -0.059285086 -0.17662488 0.059063915 -0.29941386 -0.32737058 0.11498461 -0.41405797
-0.3605813 0.1712423 0.41022587 -0.31786546 0.2846687 -0.14214702 0.13816553 0.033913005
0.088777855 -0.0078092422 -0.17916025 0.39862633 0.10844012 -0.15911739 -0.43210462 -0.43066555
0.42980674 -0.28991762 0.25390893 -0.16924796 0.15396683 0.26934305 -0.42861018 0.3853645
0.09331514 -0.34416524 0.15334107 -0.21499097 0.2648699 -0.13434824 0.012957447 0.05563011
-0.063404724 -0.264712 0.12063414 -0.094687946 -0.23847832 -0.39844555 -0.019969624 0.055658314
-0.37293938 0.27432385 -0.35437056 -0.038533907 0.013191766 0.24929422 -0.2287429 0.1453084
0.22410077 -0.25135976 -0.1863804 -0.12287555 -0.34311274 0.42903763 0.14719047 0.2798368
-0.25633544 -0.40104324 0.15454529 -0.27074042 0.025781706 0.19036373 0.2986121 -0.4297034
0.3573686 0.022744102 0.10029225 -0.27642715 0.08397614 -0.100842744 0.12053472 -0.10803569
0.3102338 -0.13967322 -0.12826586 0.35331887 -0.2688551 -0.035239205 0.34355563 0.2631263
-0.09495255 0.017983763 -0.14795043 0.11402289 0.4134744 -0.26243454 -0.36900154 -0.3661232
0.0556223 0.34592655 -0.26248673 -0.26834938 -0.08860128 -0.42126074 0.3300954 0.41166633
-0.13110827 -0.20671338 0.075192474 -0.03637584 0.13351676 0.35538957 0.09648144 -0.25631914
0.32669145 -0.41251543 0.27241552 0.17823417 0.3377672 -0.30744064 0.23666522 -0.3295366
0.00013494663 0.010869763 -0.11182962 0.08605884 0.17062682 -0.37292448 -0.37540886 0.11959146
0.15721476 0.4199152 -0.36994198 -0.39208716 0.074175216 -0.3914952 -0.1632149 0.3793983
0.34973758 -0.3123211 -0.27470812 0.3008748 -0.36643466 0.30544072 0.0011614196 0.3381179
-0.18629831 -0.20757003 -0.20336314 0.121505216 -0.10732662 -0.4103298 -0.23243622 0.031429615
0.045510724 0.20861764 0.29172876 -0.027374236 -0.34308848 -0.3520062 -0.18910773 -0.20030852
-0.109137654 -0.24372154 -0.15751502 -0.387781 0.17442359 0.017164435 -0.05437597 0.31291363
-0.06124281 -0.09901692 -0.102306016 -0.28839067 0.22171208 0.3583289 0.15328762 0.026043518
-0.27193758 -0.34423158 0.385064 0.32639587 -0.3430613 0.12410752 0.111918375 -0.33750293
-0.35738367 0.36873615 -0.28120315 0.09334793 0.07430235 -0.24162546 0.15361394 0.06718524
0.24064213 0.41551507 -0.08699571 -0.06321275 0.27317113 0.35253823 -0.115164965 0.28094244
00000000: 8b5f 87bd b1ca cb3e fa9f 2ebe c8dc c83e
00000010: b61b 313e 4909 c63e 7ea0 203e 6794 9fbe
00000020: da22 8cbe 894a 96be 3bc6 6e3e 4a2d c83e
00000030: 8cf8 e0bd 2572 cc3d 2adb 34bd 5f3c 8f3e
00000040: 4205 d5be 6e80 35be 4cd7 973e 3799 88bc
00000050: 6504 873d 651b a53e 92ee c63e 549b d23e
00000060: bbd2 cbbe 2bf3 833e d3e2 893e 3cac 8ebe
00000070: ee04 d5be 0de4 a6be 3d64 d3be 4323 44be
00000080: ecff 5f3e 9e4e 903e 4563 71be 4c8e 47be
00000090: 95fe a73c 735e 09be 2bdf 9fbe b5b5 5bbe
000000a0: 1ddc 9a3e 7d48 d8bd e706 c33e 51a5 37bd
000000b0: 8f91 86be 936d babe abb7 533e 8299 a2be
000000c0: 07e3 08be fc1c 833e 6e12 07be db74 b1bc
000000d0: 1322 69be 62e3 b53e d59c c43d 84eb c0be
000000e0: fa53 a8be ebd4 72bd 27dd 34be 01ed 713d
000000f0: c64c 99be 1e9d a7be 0d7d eb3d 68ff d3be
00000100: 1d9e b8be 245a 2f3e 2009 d23e 43bf a2be
00000110: 19c0 913e fd8e 11be 447b 0d3e 5de8 0a3d
00000120: 2ad1 b53d ace4 ffbb c975 37be c018 cc3e
00000130: db15 de3d abef 22be d13c ddbe 3280 dcbe
00000140: a10f dc3e 1570 94be 5a00 823e 564f 2dbe
00000150: 7ba9 1d3e 55e7 893e cb72 dbbe 7f4e c53e
00000160: 021c bf3d 6d36 b0be 7105 1d3e 9826 5cbe
00000170: 079d 873e 9692 09be 794b 543c 66dc 633d
00000180: 56da 81bd 5588 87be 080f f73d c1eb c1bd
00000190: a933 74be 0e01 ccbe 5697 a3bc f9f9 633d
000001a0: e9f1 bebe 2d74 8c3e 0f70 b5be bbd5 1dbd
000001b0: 4722 583c fc46 7f3e 943b 6abe bacb 143e
000001c0: ac7a 653e 3ab2 80be 81da 3ebe 2da6 fbbd
000001d0: 79ac afbe d2aa db3e 19b9 163e c546 8f3e
000001e0: 663e 83be 8a55 cdbe 1f41 1e3e 7d9e 8abe
000001f0: 2834 d33c b6ee 423e afe3 983e 1602 dcbe
00000200: 04f9 b63e d751 ba3c 0666 cd3d dc87 8dbe
00000210: affb ab3d a486 cebd e8da f63d d141 ddbd
00000220: f7d6 9e3e 7f06 0fbe 2058 03be 36e6 b43e
00000230: 60a7 89be fc56 10bd 86e6 af3e 7eb8 863e
00000240: 7c76 c2bd af52 933c 5180 17be d584 e93d
00000250: ebb2 d33e d25d 86be c5ed bcbe 8074 bbbe
00000260: 35d4 633d 491d b13e a964 86be 1765 89be
00000270: 9674 b5bd 7daf d7be 4402 a93e eec5 d23e
00000280: 3f41 06be acac 53be 83fe 993d d5fe 14bd
00000290: 9eb8 083e 9ff5 b53e 1098 c53d 433c 83be
000002a0: 1a44 a73e 3935 d3be 0c7a 8b3e 0583 363e
000002b0: d3ef ac3e dc68 9dbe 5e58 723e 05b9 a8be
000002c0: 7680 0d39 1717 323c ee06 e5bd 9e3f b03d
000002d0: ccb8 2e3e f5ef bebe 9735 c0be 5eec f43d
000002e0: e8fc 203e 20ff d63e 0969 bdbe a6bf c8be
000002f0: 2de9 973d 0f72 c8be cf21 27be 7e40 c23e
00000300: ce10 b33e 8de8 9fbe 8ba6 8cbe 430c 9a3e
00000310: 539d bbbe ba62 9c3e c63a 983a ca1d ad3e
00000320: fcc4 3ebe 3d8d 54be 6d3e 50be bad7 f83d
00000330: 0fce dbbd bf16 d2be c303 6ebe 57bc 003d
00000340: 7469 3a3d dd9f 553e 795d 953e ef3f e0bc
00000350: 4ba9 afbe 283a b4be 75a5 41be ad1d 4dbe
00000360: 9083 dfbd 2492 79be 9e4b 21be 3b8b c6be
00000370: 199c 323e 6e9c 8c3c 56b9 5ebd 3736 a03e
00000380: bed9 7abd 62c9 cabd d185 d1bd f1a7 93be
00000390: 7e08 633e e376 b73e 6ef7 1c3e 3759 d53c
000003a0: 673b 8bbe 1f3f b0be 1c27 c53e 5c1d a73e
000003b0: bba5 afbe 152c fe3d 7635 e53d 2fcd acbe
000003c0: fefa b6be fcca bc3e dcf9 8fbe 332d bf3d
000003d0: d52b 983d aa6c 77be f94c 1d3e 6a98 893d
000003e0: e46a 763e 64be d43e cf2a b2bd b075 81bd
000003f0: 16dd 8b3e e47f b43e 9cdb ebbd b0d7 8f3e

gcn3.bias f4 [16]
0.00029999882 0.00029999964 0.0002999971 -0.00029999975 0.0002999972 0.00029999978 -0.0002999991 -0.00029999978
-0.000299997 -0.00029999987 -0.00029999932 -0.00029999987 0.0002999998 0.0002999999 0.00029999975 0.0002999994
00000000: 2949 9d39 4549 9d39 ee48 9d39 4949 9db9
00000010: f148 9d39 4a49 9d39 3349 9db9 4a49 9db9
00000020: ea48 9db9 4d49 9db9 3a49 9db9 4d49 9db9
00000030: 4b49 9d39 4e49 9d39 4949 9d39 3d49 9d39

fc1.weight f4 [16, 16]
0.020723382 -0.22242604 0.10515731 0.25010476 -0.1637987 0.038690884 -0.027550885 0.053127445
-0.24847107 -0.19732495 -0.021358082 -0.13406454 0.22434632 -0.029428234 -0.23334093 0.00057447935
-0.15813409 0.016147366 0.04540666 0.17979272 -0.22622405 0.15598394 0.088476054 0.009388844
0.034344207 -0.11785924 -0.07738013 0.08445262 0.091974415 -0.12231093 0.13728882 -0.23564596
0.07491229 -0.108975895 0.10794171 0.23291914 0.2175111 -0.113952495 -0.18909837 0.20445608
0.106218316 0.22863199 -0.07246802 0.030631414 -0.16415985 -0.11355876 -0.23367818 0.035811614
0.046562772 -0.087615885 0.2222275 -0.10683935 -0.17832477 -0.15904148 0.0064805946 0.16342412
-0.13502733 0.17915078 -0.2277102 0.0032955608 0.11404056 -0.16328497 -0.029937943 0.012208114
0.16716494 0.091746844 0.15807588 0.027157655 0.1439585 0.20819072 -0.18152715 -0.082167454
0.14739878 -0.22258155 -0.08125719 -0.19358225 0.041591752 0.13042526 0.0596401 -0.15243717
0.18015057 0.16075537 -0.09833177 0.12250661 -0.186701 0.052820593 0.17113394 0.22504786
-0.08642822 -0.24315235 -0.09232998 -0.11468226 0.22815937 -0.067655005 0.15052801 0.16103101
0.025436828 0.14583863 -0.19209652 -0.10241591 0.03700905 0.061716426 -0.13954975 -0.12543409
-0.17774935 -0.16825534 0.07447212 -0.1684732 -0.021650603 0.19961841 -0.20136298 -0.044050325
-0.11525478 -0.25006878 -0.12832905 0.1285743 -0.14724095 0.1638032 -0.13968946 0.05086644
0.044494845 -0.13339932 -0.20380889 -0.114264466 0.22960411 0.107148744 0.2048978 0.23932259
0.23280329 -0.21945924 -0.17067456 0.22196102 0.03346256 0.23573412 -0.20511115 0.090929754
0.18255736 -0.24358767 0.2008793 -0.10849633 -0.18674824 0.0006174486 -0.11826533 -0.1747989
0.24594821 -0.07660574 -0.14084189 0.14442255 0.008554378 0.17973012 -0.08244049 0.11983653
0.052090105 0.21095376 0.1847267 -0.1984741 -0.025823094 0.083389126 -0.2426237 0.14971106
-0.0076538115 0.15924478 -0.044087254 0.008710495 0.21975523 -0.2460134 -0.15672995 -0.21008998
-0.20646921 0.07120275 -0.21835788 0.078642614 -0.017149784 -0.11467958 0.07869624 0.19618799
0.15727161 -0.096162684 0.047139753 0.24711232 0.20735903 0.009674509 -0.061394762 0.041413642
0.0960925 0.099152334 0.20316921 0.15890698 -0.24941073 -0.23205392 -0.23672022 -0.040270347
0.111984454 0.068999834 0.22713538 -0.18037902 -0.06576323 0.24382804 -0.022802224 -0.1652698
-0.2307836 -0.06131388 -0.028358152 -0.13683407 -0.13344516 0.13463037 -0.15830077 0.24533616
0.09921371 -0.042845327 -0.05628171 -0.121876575 0.10504741 0.00520796 -0.19093388 -0.025235053
-0.024622945 0.23131487 0.22877637 0.049717937 -0.016695265 0.15010273 0.14913222 -0.19378592
0.17922081 0.24631527 -0.20133863 0.13640259 -0.061792694 0.2344841 0.112871744 0.1288905
-0.13323894 -0.05483208 0.06413976 -0.060987644 -0.03053803 0.048669092 -0.11968017 -0.10020817
0.24600138 0.054239534 0.008918187 0.05457331 0.23444183 -0.180445 0.0906141 -0.057784487
0.16980995 -0.021447858 0.064610384 0.21102323 -0.22118892 0.038624 -0.075329624 0.047292393
00000000: 15c4 a93c a7c3 63be b75c d73d bb0d 803e
00000010: d9ba 27be 557a 1e3d 65b2 e1bc 2a9c 593d
00000020: 336f 7ebe 8d0f 4abe 25f7 aebc 3748 09be
00000030: 0bbb 653e 7b13 f1bc edf0 6ebe a898 163a
00000040: e7ed 21be 7b47 843c 55fc 393d 951b 383e
00000050: 47a7 67be 41ba 1f3e ef32 b53d aad3 193c
00000060: 83ac 0c3d 2f60 f1bd 7979 9ebd 7ff5 ac3d
00000070: 155d bc3d 277e fabd 7195 0c3e 2d4d 71be
00000080: 9d6b 993d c12e dfbd 8b10 dd3d 5b82 6e3e
00000090: 3bbb 5e3e ed5f e9bd 01a3 41be ef5c 513e
000000a0: fd88 d93d 811e 6a3e 1d6a 94bd bbee fa3c
000000b0: 8519 28be 7f91 e8bd 5549 6fbe 33af 123d
000000c0: 9bb8 3e3d f56f b3bd 9b8f 633e 97ce dabd
000000d0: c59a 36be c5db 22be 2b5b d43b a758 273e
000000e0: 9b44 0abe 4d73 373e dd2c 69be 56fa 573b
000000f0: 198e e93d 2d34 27be 6b40 f5bc 8b04 483c
00000100: 492d 2b3e c5e5 bb3d a5de 213e bb79 de3c
00000110: db69 133e f32f 553e 41e2 39be 6947 a8bd
00000120: b5ef 163e 6bec 63be 2b6a a6bd 6d3a 46be
00000130: 1d5c 2a3d 338e 053e 2d49 743d 7d18 1cbe
00000140: 6479 383e 0e9d 243e 2b62 c9bd bfe4 fa3d
00000150: 8c2e 3fbe 685a 583d bc3d 2f3e f272 663e
00000160: 4701 b1bd eefc 78be 8017 bdbd 88de eabd
00000170: 9ca2 693e b58e 8abd 0424 1a3e 50e5 243e
00000180: e560 d03c b956 153e f3b4 44be 6fbf d1bd
00000190: cd96 173d 5dca 7c3d 21e6 0ebe cb71 00be
000001a0: ed03 36be 214b 2cbe d784 983d 3d84 2cbe
000001b0: 9b5c b1bc c568 4c3e 1932 4ebe 1d6e 34bd
000001c0: b30a ecbd 0409 80be b168 03be fba8 033e
000001d0: 55c6 16be 07bc 273e c10a 0fbe 5459 503d
000001e0: 3a40 363d d599 08be 47b3 50be 7d03 eabd
000001f0: 571d 6b3e cd70 db3d bbd0 513e fb10 753e
00000200: fc63 6e3e ecb9 60be 50c5 2ebe c049 633e
00000210: 0a10 093d 4964 713e a808 52be 6139 ba3d
00000220: 51f0 3a3e 0c6f 79be 4eb3 4d3e 5333 debd
00000230: ee3a 3fbe 46dc 213a 1835 f2bd 7cfe 32be
00000240: d9d9 7b3e 78e3 9cbd db38 10be 81e3 133e
00000250: a927 0c3c 2c0b 383e 8fd6 a8bd db6c f53d
00000260: 6f5c 553d 4304 583e ff28 3d3e cb3c 4bbe
00000270: f48a d3bc ebc7 aa3d 5972 78be db4d 193e
00000280: d3cc fabb 1011 233e d694 34bd 77b6 0e3c
00000290: 8407 613e f0ea 7bbe d17d 20be d421 57be
000002a0: aa6c 53be bfd2 913d 3599 5fbe 610f a13d
000002b0: b47d 8cbc 21dd eabd 7f2b a13d 81e5 483e
000002c0: cf0b 213e f1f0 c4bd 9d15 413d 030b 7d3e
000002d0: ed55 543e d581 1e3c 1379 7bbd 5aa1 293d
000002e0: 25cc c43d 6110 cb3d 970b 503e 83b8 223e
000002f0: 8765 7fbe 8b9f 6dbe c966 72be 85f2 24bd
00000300: 1b58 e53d c94f 8d3d 2d96 683e 47b5 38be
00000310: dfae 86bd 0fae 793e bbcb babc 7d3c 29be
00000320: 8952 6cbe 4324 7bbd 5b4f e8bc 3b1e 0cbe
00000330: d9a5 08be 8bdc 093e 9919 22be 6739 7b3e
00000340: 8f30 cb3d 957e 2fbd a687 66bd 6d9a f9bd
00000350: 1923 d73d 89a7 aa3b 2c84 43be beb9 cebc
00000360: 0fb6 c9bc cedd 6c3e 5a44 6a3e 09a5 4b3d
00000370: 82c4 88bc 88b4 193e 1eb6 183e d16f 46be
00000380: a985 373e 123a 7c3e b72b 4ebe 1fad 0b3e
00000390: 561a 7dbd 9a1c 703e 4d29 e73d dffb 033e
000003a0: ca6f 08be 9a97 60bd b55b 833d 2ece 79bd
000003b0: e42a fabc 3e59 473d e11a f5bd f139 cdbd
000003c0: c9e7 7b3e 462a 5e3d 961d 123c 4388 5f3d
000003d0: 8511 703e 93c6 38be e393 b93d 6daf 6cbd
000003e0: a9e2 2d3e 6bb3 afbc 7352 843d 7916 583e
000003f0: 597f 62be 3334 1e3d 6b46 9abd abb5 413d

fc1.bias f4 [16]
0.039277773 -0.12113667 0.24634658 -0.13493307 0.08132125 -0.23265432 0.21140648 0.035349853
0.13063502 -0.0021045152 -0.16152242 -0.030968914 -0.22191663 0.022313079 -0.054166734 0.01415789
00000000: bbe1 203d 8116 f8bd 4742 7c3e e52b 0abe
00000010: c18b a63d ef3c 6ebe f17a 583e 02cb 103d
00000020: 30c5 053e e8eb 09bb 2266 25be 85b2 fdbc
00000030: 1d3e 63be ebc9 b63c f0dd 5dbd 7ff6 673c

fc2.weight f4 [6, 16]
0.12486745 0.15594266 -0.21937858 0.05616923 -0.08190871 0.042869996 -0.2464522 0.22937693
0.0004958289 -0.1767043 0.21637987 0.09471475 -0.17353247 -0.18589051 0.116409786 0.2466895
-0.1514868 -0.031571228 -0.08394406 -0.16744845 -0.16884302 0.16257174 0.24710253 0.028232863
-0.02487933 0.014796474 -0.12176528 0.09030918 -0.20662145 0.0467803 -0.14077866 -0.05695159
-0.24093361 -0.24911095 -0.22076716 0.21322788 -0.052023005 0.022125222 0.05415689 0.20113866
0.038540695 -0.17474987 0.24987775 -0.2206883 -0.19894107 0.057960156 -0.07773101 0.08685788
-0.12092524 -0.20130564 -0.13955908 -0.10438546 0.14232086 0.0071000364 0.17760456 -0.05328272
0.029116891 -0.24737008 0.19454725 -0.22761263 0.012696366 -0.028226594 0.21746926 -0.24927083
0.0632365 -0.037980806 0.119193904 -0.067027636 -0.24118848 0.010947891 -0.10834016 -0.11722534
0.111217685 -0.09649252 0.04282511 0.07520183 0.06254076 0.1561112 0.23757604 -0.094233245
-0.03331108 0.084829785 0.13293563 0.14041181 -0.12613018 0.19707456 -0.10346875 0.09941245
-0.04451955 0.20486657 -0.026089063 0.09998273 -0.047980685 -0.04105679 0.18167767 -0.13169283
00000000: 81ba ff3d 6faf 1f3e c7a4 60be b511 663d
00000010: c1bf a7bd 7398 2f3d f75d 7cbe c9e1 6a3e
00000020: 84fa 013a f9f1 34be af92 5d3e cff9 c13d
00000030: 7fb2 31be 155a 3ebe 4168 ee3d 2c9c 7c3e
00000040: 5b1f 1bbe d550 01bd ddea abbd 9b77 2bbe
00000050: 2fe5 2cbe 3579 263e 7208 7d3e 9b48 e73c
00000060: bdcf cbbc e96c 723c 1360 f9bd 05f4 b83d
00000070: 9394 53be b39c 3f3d 4828 10be 1246 69bd
00000080: 4db7 76be f116 7fbe c910 62be 6958 5a3e
00000090: 1316 55bd f43f b53c 9dd3 5d3d 4bf7 4d3e
000000a0: d9dc 1d3d a1f1 32be f4df 7f3e 1dfc 61be
000000b0: 35b7 4bbe a167 6d3d 7031 9fbd 8be2 b13d
000000c0: a7a7 f7bd 1123 4ebe 93e8 0ebe 0bc8 d5bd
000000d0: 8fbc 113e 6ca7 e83b f8dd 353e fb3e 5abd
000000e0: 8c86 ee3c 954e 7dbe 6537 473e 4913 69be
000000f0: 6b04 503c 753b e7bc 43b0 5e3e da40 7fbe
00000100: 2382 813d c391 1bbd ef1b f43d c945 89bd
00000110: 1dfa 76be c85e 333c 72e1 ddbd d713 f0bd
00000120: 19c6 e33d df9d c5bd 6269 2f3d 6b03 9a3d
00000130: 5f15 803d 9ddb 1f3e 2247 733e 5cfd c0bd
00000140: 3371 08bd 3dbb ad3d 4720 083e 1dc8 0f3e
00000150: 4528 01be eacd 493e 6de7 d3bd c198 cb3d
00000160: 225a 36bd 8bc8 513e bbb8 d5bc bfc3 cc3d
00000170: 6587 44bd 2a2b 28bd b609 3a3e 7cda 06be

fc2.bias f4 [6]
-0.14251868 0.13380475 0.11183437 -0.04720931 0.18483518 -0.030310074
00000000: 6bf0 11be 1d04 093e 6b09 e53d 8d5e 41bd
00000010: 6f45 3d3e d54c f8bc
