outputs/debug_model.ckpt (torch, 25926 bytes, 30 tensors)

model.gcn1.weight f4 [21, 16]
00000000: d651 943e dec4 88bc 0868 2e3d b92a 1ebd
00000010: e0a1 7d3e 06a2 9cbd 5e99 78be f48d 2ebe
00000020: 2028 6d3d c63d 8abe 082f ad3e d327 623e
00000030: 7233 13be 9e59 95be e683 90bd 229e 27be
00000040: 58fe 133e 5abe a13e 0ba6 cd3e e9b0 d93c
00000050: 9110 e93d 8689 5ebe 51ee b33e 2008 9dbe
00000060: 245b e7bd a976 beba 1f80 883e c684 97be
00000070: b22b 81be e265 abbd b5af a2be b123 0d3e
00000080: a910 b73e 2c32 80be 68b3 f6bd 3af9 c2be
00000090: 9843 793e ef8e 823e 0548 28be ce74 263d
000000a0: 0423 943b 1823 913c 99c6 b23c acf5 11be
000000b0: 5800 aabd 962f bcbc f362 a73e 18d9 69be
000000c0: 9de9 22be c8a0 8c3e c999 ca3e 8969 e63c
000000d0: 8949 d43d 000d b4bc 4950 c3be 420f c6be
000000e0: 6175 943d 15bb 613e 41f9 383e e871 cc3e
000000f0: cb28 a1be c916 50be 9301 89be 61c8 a13e
00000100: 4a56 283e 8ebb a13e 7a0e 04be fa6e ab3e
00000110: fa07 29be 6029 af3e 2165 95be e49b 99bc
00000120: 1308 f83b 50b8 e73d c80f a7bd 7d7e 863e
00000130: 45fc 9d3e 8216 583d 400e 95bd 18f9 553d
00000140: 4cda 1a3d 0c6d d8bd 1538 b53c eec9 efbd
00000150: 3753 dcbd 5997 84be d408 2e3a 9bb7 0ebe
00000160: 2a03 5c3e b6a6 553e 508c a63e 85c7 813e
00000170: 3489 ba3e b385 b83e b4b0 553e a960 b0be
00000180: 43d4 77be 3514 2c3e 3f4b 4d3b a148 dd3d
00000190: 7e2a 4fbe 53bc d1bd 46ec 7bbe 1bfa 033e
000001a0: 5534 4abd f166 033c 74ca c2be 6c84 cabe
000001b0: 951b ccbe da07 9a3e 102f c6be 11eb 3ebe
000001c0: 5b50 593d 778b b83d b0a6 c7bd c571 99be
000001d0: 8af5 c93e eff6 9e3e d642 2ebe d656 bf3e
000001e0: 157b 563e 41b5 083e 1813 71be 2fa7 043d
000001f0: ae00 983e 640f 29be 9a83 cc3e 69e7 0dbd
00000200: e31d a73d 987e b2be a8ac bdbd 6f96 66bc
00000210: d988 4bbe 3518 303e 42b1 433e 94d6 eb3b
00000220: ebee c8be fece cb3e ffde c03e 7677 f23c
00000230: 8f4c 6dbe eb76 5ebd aec3 4cbe ce33 0b3d
00000240: b80a 813e 4b94 ecbd 2a30 5f3d ab13 a9be
00000250: a03a b9be dc89 b23e 8d1a 46be b02c 6fbb
00000260: b71a 2c3e 0ad8 f1bd 5093 963d 1eed 073e
00000270: 87d7 883e 8283 083e 7a67 35be 786f 1ebe
00000280: 18a4 bd3e de8c a9be d6b7 9f3e b5cf bf3e
00000290: da9e b4be 606a 963e 6547 a0bc 6bf1 9ebe
000002a0: 5f3c bc3e a47a 54be d322 a4bd 10aa 973e
000002b0: b460 3c3c 773f 18be fc46 e0bd 4676 3ebe
000002c0: 4d52 a83e 3bed 1bbe 2396 8e3e 794d b9be
000002d0: 187e bbbd 45f5 53be 23d7 94be 728d ccbe
000002e0: c716 ffbd 565d 1c3d 0268 973e 8d9a 013e
000002f0: 7c59 ab3d 8612 303e 20fd a1bc d0e6 7c3e
00000300: c011 67bd 4a64 8c3e 3ce9 3b3e f03a 14be
00000310: f002 ac3e e833 a2bd 37ba 5a3e 599a 903e
00000320: 9452 e13c e570 27be d2a1 9c3e 7e02 fb3c
00000330: 08ff 293c 5585 1f3e 8048 1e3e e4e7 fc3d
00000340: 786f cbbd 2cc2 6e3e 8568 523e ca3d 643e
00000350: 9141 883d 42c6 6dbd d3ac 90bd 6b88 81bd
00000360: 4194 36be 328e 5e3e 9ad5 433e 71fd ae3d
00000370: 57a8 f43d 22bb acbb b803 a53e 3014 4d3e
00000380: 5e7b 9ebd 73bf b23e 442b 293e 4b97 4a3e
00000390: d955 a63d 717a 21be 154e ba3e 2b91 7bbe
000003a0: 1c11 a6be 63f4 a7bd 78b6 88be bd27 b83d
000003b0: 5572 863e f41a c9be 8bcd 89be de64 96bc
000003c0: 92cd a9be 759e a63e a9da 58bd 8c2e c1be
000003d0: 354c bd3e bffb 5fbd 71e6 9a3d b7a8 04be
000003e0: d872 223d 908c 85be 28bb c1be d2da af3e
000003f0: 1b6e 66be bbc9 083e 617d 23bd 3a5f 66be
0.28968686 -0.016695436 0.04257968 -0.038614962 0.24768782 -0.07648091 -0.24277255 -0.17046338
0.057899594 -0.27000254 0.33824944 0.22085504 -0.14375094 -0.29169935 -0.07056408 -0.16368917
0.14452493 0.3159054 0.40165743 0.026573615 0.11380113 -0.21732149 0.35142758 -0.3067026
-0.112966806 -0.0014531213 0.2666025 -0.29593486 -0.2522865 -0.08369042 -0.3177468 0.13783146
0.35754898 -0.25038278 -0.12045938 -0.3808077 0.24342191 0.25499675 -0.16433723 0.040638737
0.0045207758 0.01771693 0.021823214 -0.14253873 -0.08300847 -0.02297191 0.3269268 -0.22836721
-0.15909429 0.27466416 0.39570454 0.028126495 0.10365588 -0.021978855 -0.3814719 -0.38683516
0.07248951 0.22044022 0.18063833 0.39930654 -0.31476435 -0.20321192 -0.26759014 0.3159819
0.16439167 0.31588405 -0.12896147 0.33483106 -0.16506949 0.34211254 -0.29178718 -0.018751092
0.007569322 0.11314452 -0.08157307 0.26268378 0.3085653 0.05275584 -0.072781086 0.052239507
0.03780584 -0.10567674 0.022121469 -0.11708437 -0.107580595 -0.2589672 0.0006638889 -0.13937227
0.21485582 0.20864376 0.32528925 0.25347534 0.36432803 0.36039504 0.20868188 -0.34448746
-0.24202065 0.16804583 0.0031325368 0.108048685 -0.20231053 -0.10240998 -0.2460185 0.12888376
-0.049366314 0.008020149 -0.38045084 -0.39554155 -0.39864793 0.30084115 -0.3870778 -0.18644358
0.05305515 0.09010976 -0.0974859 -0.29969612 0.39445144 0.3104777 -0.17017683 0.37370938
0.2094539 0.13350393 -0.2354244 0.032386 0.2968802 -0.16509777 0.39944154 -0.034644518
0.08159997 -0.34862208 -0.09261447 -0.014073952 -0.19876422 0.17196734 0.19110587 0.0071972106
-0.3924478 0.3980636 0.37670133 0.029597979 -0.23173736 -0.054312628 -0.19996521 0.03398495
0.2520349 -0.11551722 0.054489292 -0.33022818 -0.3617754 0.34870803 -0.19346066 -0.0036495142
0.16807066 -0.11808784 0.073523164 0.13274047 0.26726934 0.13331416 -0.17715254 -0.1547221
0.37039256 -0.33115286 0.31194943 0.37463155 -0.35277444 0.29378033 -0.019565294 -0.31043562
0.3676481 -0.20749909 -0.08014455 0.29621935 0.011497665 -0.1486796 -0.10951039 -0.18599805
0.3287529 -0.15227215 0.2784892 -0.3619192 -0.0915491 -0.20699032 -0.29070386 -0.39951664
-0.12455516 0.03817495 0.2957154 0.12656613 0.08366677 0.17194566 -0.01977402 0.24697423
-0.056413412 0.27420264 0.1835069 -0.14475608 0.3359599 -0.079200566 0.21360098 0.28242758
0.027505197 -0.1635166 0.3059221 0.030640837 0.010375746 0.15578206 0.15457344 0.12348917
-0.0993337 0.23316258 0.20547684 0.22289196 0.06653131 -0.0580504 -0.070642136 -0.06324848
-0.17829992 0.2173393 0.19124451 0.08544434 0.11946171 -0.0052713314 0.322294 0.20027232
-0.07738374 0.3491169 0.16520411 0.19784276 0.08121843 -0.15769364 0.36387697 -0.24567096
-0.32434928 -0.0820091 -0.26701713 0.089919545 0.26259103 -0.39278376 -0.2691463 -0.018358644
-0.3316465 0.32542768 -0.052942906 -0.37730825 0.36972204 -0.054683443 0.075634845 -0.12954985
0.039660305 -0.26083803 -0.378381 0.34346634 -0.2250294 0.13358204 -0.039914493 -0.22497264

model.gcn1.bias f4 [16]
00000000: 4449 9db9 2249 9d39 4b49 9db9 0749 9d39
00000010: 4f49 9db9 9041 9db9 f048 9db9 f8f5 9839
00000020: 4c49 9d39 3c49 9db9 4e49 9db9 4649 9db9
00000030: 1349 9d39 4c49 9db9 3c49 9db9 fd48 9db9
-0.0002999996 0.00029999862 -0.0002999998 0.00029999783 -0.00029999993 -0.0002999422 -0.00029999716 0.0002917496
0.00029999984 -0.00029999937 -0.0002999999 -0.00029999967 0.00029999818 -0.00029999984 -0.00029999937 -0.00029999754

model.gcn2.weight f4 [16, 16]
00000000: 81bb a33e f875 4fbe 9a58 dd3d 32d3 ae3e
00000010: 0980 afbe 0e59 c63e a21b a43e 59e9 e73d
00000020: b7bb 5a3e 1d68 ddbe 8064 c63e ae3a 8ebe
00000030: 23f6 cbbe 1cf5 3abe becb b9be a9d4 533d
00000040: 903d d4bd fb3b c63e 34bd 0d3e 58b5 bebd
00000050: 1149 eb3d a8cf c13d c943 fbbd 0756 bb3e
00000060: 9428 c7be 6644 8c3e fafb 6ebc df45 20be
00000070: ee3e 16be acf4 b63e 7b54 96be b85d 1ebd
00000080: 82ad 853a 7c58 be3e 225e 2a3e 4d5d d5be
00000090: 5dc2 a23e 5654 5d3e db83 a03d 8301 dcbe
000000a0: 62ba 15bd 6f96 b23b 38f6 04be 81c5 a23e
000000b0: 3712 803d ae61 a93d c658 d1be 8cca 90be
000000c0: 83d1 4ebe 8699 cabd f216 36be ee4d b8be
000000d0: 4005 ddbe 9dee 483c 60b6 193e 1d46 c03e
000000e0: 8ec5 46be 0713 88bc 9911 a13e 2e95 cdbd
000000f0: 0d15 8dbe 146a f83d 55de d13e d9e3 9f3e
00000100: 1900 aa3d ca8f 76be 87db 94be ad7c 323d
00000110: 111a 94be c7a7 663e 5968 99be 8384 c23e
00000120: ac50 be3d 252c 073e 5962 da3e 50aa 1d3d
00000130: d64c a1be 6e5c c73e 748b 993e 6c35 d6be
00000140: 1547 1d3e c669 13be 4c1a a8be 3498 a3be
00000150: 2d16 923e 7a0a 7f3e 7d86 98be 2535 9d3e
00000160: 2ee8 a5bc 5069 ce3b 0049 03be 6141 d5be
00000170: ec3f 32be 831c 263e ac61 213e 9593 15be
00000180: 441e 2dbd f542 b93e 78cf a83e 0a23 9c3e
00000190: a230 1a3e 0267 793e e81d cf3e 153d 71be
000001a0: c5e1 863e 5790 ac3d b68b 943d ec4f 24be
000001b0: ce60 3f3e 8d2f 1c3e 1504 1c3e 780d f6bd
000001c0: c7ee 8dbe ffe5 473d fa20 853e 35cf ba3e
000001d0: d871 b23e 7c7a d7bc f407 aa3e 1c92 ae3e
000001e0: c152 2f3e e7a2 70be cded b0be bf0b 45be
000001f0: 2d9f bb3e 7f4f ccbe cc97 a83e 7587 b7be
00000200: 3320 0b3e 0dd7 953e 5ca8 42be 9f95 57be
00000210: ef52 c6be 24ae 3abd d7b0 553e 5ce1 24be
00000220: b99c 26be 883f 9f3d 295f fe3d d210 1b3e
00000230: 3453 a73e 1e01 153e d3e9 47be 165a d13e
00000240: d07d 183e 2466 313e 185a 1c3e b52e 9fbe
00000250: 5755 443e 7b9e 91be 2f34 243d 2903 5ebe
00000260: 2a7e ba3e 12bf 173e 5176 fc3d c0f6 bc3d
00000270: 93f4 16bd 332b 95be 536e 9dbd ad8f 06be
00000280: 20c6 8c3d ba84 bb3d 45cd 7abe 1c24 60be
00000290: 4c55 aebe 44a4 a53e 1288 013d 9fe0 903e
000002a0: 135a be3e 97e4 03bd a3dd b6be e423 983c
000002b0: b224 cebe 56c3 c23e 26b4 d73e 2aa0 393e
000002c0: 107d 8b3d caa1 24be a813 7c3d f337 9cbd
000002d0: 9691 95be 4b6b 4f3e b70e a1be 8a28 f7bd
000002e0: de02 9ebe b55c 263b 837a 13be 6091 b938
000002f0: 0c74 983e 7065 08ba 7469 9cbe 2626 bdbe
00000300: c2a8 14be ada7 e43d d5bd 943d 04e4 34be
00000310: 20f3 db3e 3deb 7fbe e12b 89be 1e35 bb3e
00000320: 314d c83e 130a b23e e98e 803e 07ca afbe
00000330: b032 aebe 1bd0 b13e 9167 18bd 418e 353e
00000340: 0d0d 463e cca3 2abe 3acf a43e 0557 693e
00000350: 487d af3e 6131 453e 4236 82bd d78d 93be
00000360: b8a9 9c3e 9ba4 8bbe 9727 5cbe d2d5 cf3e
00000370: ef20 31be 0b8b 2f3d 2bbc be3d eefa b23e
00000380: 28a1 b8bd 611a b33e 2b92 8ebe 767d 87bd
00000390: 77d8 69be 71e2 00bc b8a4 40be 9aba b9bd
000003a0: 5670 0ebe 1883 933e b4f9 6f3e 1e33 b13e
000003b0: d9e3 08be ee47 99bd df79 afbe 4783 c03d
000003c0: b594 9bbe 9cdf 03bd ca68 463e bc94 cfbe
000003d0: 52f6 db3e 5175 dc3e 734b 6cbe 47e0 87be
000003e0: c83e 1dbe d1c8 083e 4dc1 0c3d e406 dd3e
000003f0: 7ecc 2fbe fc30 a43e af9b d33e 0723 343e
0.31978992 -0.20259845 0.10807915 0.34145504 -0.3427737 0.38739818 0.32052332 0.113238044
0.2136067 -0.43243495 0.3874855 -0.27779144 -0.39836225 -0.18257564 -0.36288255 0.05171648
-0.103633046 0.38717636 0.13841707 -0.09311932 0.11488546 0.094634354 -0.12268788 0.3658907
-0.38898146 0.27395934 -0.014586443 -0.15651654 -0.14672443 0.35733545 -0.29361328 -0.038663596
0.0010198804 0.37176883 0.16637471 -0.41672745 0.31788912 0.21614203 0.078376494 -0.42969903
-0.0365547 0.005450062 -0.1298455 0.3179131 0.06253474 0.08270584 -0.4088804 -0.2827953
-0.2019711 -0.098925635 -0.1778219 -0.35996956 -0.43168068 0.012263921 0.15010977 0.37553492
-0.19411299 -0.016610635 0.31458738 -0.100382194 -0.27555123 0.12129608 0.40989938 0.3122852
0.083008 -0.24078289 -0.29073736 0.04357593 -0.28926137 0.2252494 -0.29962423 0.37991723
0.09292731 0.13200434 0.42653158 0.0384925 -0.31503934 0.38937706 0.29989207 -0.41837633
0.15359147 -0.14395818 -0.32832563 -0.3195206 0.28532544 0.2490634 -0.29790106 0.3070461
-0.020252313 0.0062991753 -0.12820816 -0.41651443 -0.17407197 0.16221814 0.15759915 -0.1460708
-0.04226519 0.36183897 0.32970786 0.30495483 0.15057614 0.243557 0.40452504 -0.23558457
0.26344123 0.08425968 0.0725321 -0.16046113 0.18689272 0.15252514 0.15235932 -0.12014288
-0.27721235 0.048803326 0.26001722 0.3648621 0.3485248 -0.026303522 0.33209193 0.34095848
0.17121412 -0.23499642 -0.34556428 -0.19242762 0.3664488 -0.399044 0.32928312 -0.35845533
0.13586502 0.29265633 -0.19009537 -0.2105317 -0.38735148 -0.04557623 0.2086824 -0.16101593
-0.16270722 0.077757895 0.12420494 0.15143135 0.32680666 0.14551207 -0.1952279 0.40889043
0.14891744 0.1732412 0.15268743 -0.31090322 0.1917318 -0.28441224 0.04008883 -0.21680893
0.3642438 0.14818981 0.123272546 0.09226751 -0.036854338 -0.2913452 -0.07687058 -0.13140745
0.06873727 0.09156175 -0.24492367 -0.21888775 -0.3404945 0.32351887 0.031623907 0.28296372
0.37178096 -0.032200422 -0.3571597 0.018571801 -0.4026237 0.38039654 0.4212963 0.18127504
0.06810963 -0.16077343 0.061542183 -0.07627859 -0.29212636 0.20255773 -0.3145654 -0.12068279
-0.30861562 0.0025384848 -0.14402203 8.8485656e-05 0.29776037 -0.00052031036 -0.30549204 -0.36943167
-0.14517501 0.11164794 0.0726277 -0.17665106 0.42958927 -0.2499208 -0.2679129 0.36563963
0.39121392 0.3477331 0.25109032 -0.34333822 -0.34023046 0.34729084 -0.037208144 0.17730047
0.19340916 -0.16664046 0.3218935 0.22787102 0.3427527 0.19257118 -0.06358005 -0.28819153
0.30598235 -0.27274022 -0.21499477 0.4059282 -0.1729772 0.04285721 0.09313234 0.3495707
-0.09015113 0.34981063 -0.27845892 -0.06615727 -0.22836481 -0.007866488 -0.18812835 -0.090687945
-0.1391004 0.28810954 0.23435098 0.34609312 -0.13368167 -0.074844226 -0.34272668 0.09400039
-0.30386892 -0.032195672 0.19375911 -0.40543163 0.42961365 0.43058255 -0.23075657 -0.26538298
-0.1535598 0.13357855 0.034364033 0.4316932 -0.17167851 0.32068622 0.41329715 0.17591487

model.gcn2.bias f4 [16]
00000000: 3849 9d39 4d49 9d39 1e49 9d39 5648 9d39
00000010: b548 9db9 4e49 9db9 b948 9db9 4349 9db9
00000020: 4e49 9db9 4e49 9db9 3349 9db9 4e49 9db9
00000030: 8b28 9d39 3a49 9db9 4447 9db9 4e49 9d39
0.00029999926 0.00029999987 0.0002999985 0.00029999268 -0.00029999544 -0.0002999999 -0.00029999556 -0.00029999958
-0.0002999999 -0.0002999999 -0.0002999991 -0.0002999999 0.0002997558 -0.00029999932 -0.0002999847 0.0002999999

model.gcn3.weight f4 [16, 16]
00000000: 47ce 8b3e 7f73 153d 0cf5 113e 4442 7c3e
00000010: 1c57 a13c be0c 4c3e d327 0f3e 21dc 7d3e
00000020: f40f d03e bd1e f1bd b325 ac3e 8d57 88bc
00000030: d90f b23e 89ec b13e 5993 a9be d95c 2fbe
00000040: 9d51 f83d 7990 953e 491b 483e 825e d73e
00000050: c800 b33b 421a b1be 71a5 1cbe a214 2d3b
00000060: f4b1 b8be 6822 d0be 16e9 dbbe 508c 02be
00000070: 124a af3e 8d49 98be c7ec c13d dd81 853e
00000080: f2a9 37be 6e00 a1bd a08b ce3e 354f 43be
00000090: 5730 e53d 9d18 abbe ecc4 4f3e 42a0 78be
000000a0: 7a2b 72be c6ed d5be efa0 27be 8532 17be
000000b0: f030 843e c3cb c3be ef58 a13e b214 51be
000000c0: ce53 b8be baba 9e3e e9a7 8d3d 1097 9e3e
000000d0: 0d22 553e 45c9 c6bd 5ba2 c43d 65e0 bbbe
000000e0: 38d7 52bb 1c7c c4be 7a7f b9be 0cf6 14be
000000f0: 0954 623e 21d2 c13d 39d8 743e effa ca3e
00000100: a86c 783e c424 263e f575 da3d c89f 693d
00000110: 4fb7 9fbe 9f8e d93b 90e2 8abe 597a bbbd
00000120: f956 c03e 1379 31be 3ff4 a03e 024a 29be
00000130: 6a19 a73e ab2d ee3d 2369 933e da6a afbe
00000140: 92dc 9b3d a148 b23e cb9d f5bd fa0d 8cbe
00000150: 3117 883e cba6 963e 216c 23bb 32c5 3a3e
00000160: 495b 113e e3bb d2be 7ec2 763e 4a60 b3be
00000170: e619 2dbe 319f 953e 2ad1 213e 8239 bbbe
00000180: c9f6 f6bd 4e9d ff3d 5b7a af3d 6485 69be
00000190: 1748 d1bc 9e54 b03e cabf 6d3e a9b4 0cbd
000001a0: 9b53 983e c03d 053e eb72 a53e 59e6 3abd
000001b0: 4b2f ab3c 97fe bc3e b761 97be 6eb0 fdbd
000001c0: 02af bfbd 5f18 b4bd 713b ac3e 5f5d 813e
000001d0: 1eb6 8cbd 28bd dabe f827 5d3d 2a6f af3e
000001e0: 5a16 3a3e d2cf bcbd 0466 71be 9982 50be
000001f0: db5a dc3e 0161 d73e 67ea 243e 8ef9 4e3e
00000200: 3184 adbe 5ccb 9cbe 3b70 49bd e441 0f3d
00000210: eb8d d6be 7a5a 8d3e 2bd1 95be 2ad7 643d
00000220: 5e18 983e 3aeb 603e dab0 10be fca8 263e
00000230: 8838 03be 3755 0abe f7a8 883e 4dbe 533e
00000240: 99f0 78bd d408 fcb9 c4ff b53d 4cc4 1fbe
00000250: 44fa a9be 9c41 c1be ccac a6be 31b1 3a3d
00000260: 26e1 0dbd c251 52be 48af 93be 6fbe 95be
00000270: 4a2a 553e fc1a b93e 86e1 c8be 8ef6 7e3c
00000280: a8da b9bb 7b28 52bc 87c0 7b3e 286c d3bd
00000290: 4ded b7be 2eca 53bd 2db6 d93e dcab c63e
000002a0: 295f 95be a50e ae3e f6ae cdbd 8c13 f73c
000002b0: 4ca2 a4bd e67e c63d 1da1 aa3e 22a3 15be
000002c0: 2793 093e 0354 083e dad4 dabe 9a39 5ebe
000002d0: a884 c0be 7ff3 a93e bbd3 88bd 07e9 da3e
000002e0: 50d0 e9bd cb21 cabe 0afe 16be 230d b3be
000002f0: 795b 383e 0edf 94be cb53 7fbe 09f2 2abe
00000300: ae55 ca3e 0cdd 6d3d 320e 78bd 7c64 c0be
00000310: e0cc 2d3d ef5d 09be 1e54 553e ef09 d83e
00000320: 2584 6b3e 5170 243e 3305 553e 0e2a 9abe
00000330: b580 acbb 03cc 91be 45ea ef3d 2c79 cb3e
00000340: 93a5 b73c a1d3 8fbe 8609 8f3e 18d6 be3c
00000350: 738a 6dbe adf7 b5bd 6431 b93d f526 5d3d
00000360: eca5 bebc d3ef 8dbe a3d8 06be f167 723e
00000370: 9eaa ae3d 544d ac3e cfd9 913e 9cfc d3be
00000380: bdcd 96be 4253 cdbe 5f1d 933e e707 cb3d
00000390: 2646 bb3e fa8b 053e 607b 56be ae2a a43e
000003a0: f22d b83e cb8a 65be 7b41 bb3e d13a 7dbe
000003b0: e809 17be 392c 09be 3bc0 3fbe bc69 ba3e
000003c0: bea1 a53e ab3b 153e fb15 cfbd d3e8 fa3d
000003d0: 3e46 af3e a771 8d3d e0b8 e4bd 5f8c 59be
000003e0: f6e6 883e d9bd 7bbe 2631 9cbe e92d 733e
000003f0: 4eea 4dbe cee1 913e f056 5b3e e01b 563d
0.27305815 0.0364871 0.14253634 0.24634653 0.019694857 0.19926736 0.13980035 0.24791004
0.4063717 -0.11773441 0.33622512 -0.01664331 0.34777716 0.34750775 -0.3312023 -0.17125262
0.121249415 0.29211786 0.19541658 0.4206429 0.0054627396 -0.34590346 -0.15297486 0.0026410003
-0.36073267 -0.4065125 -0.42951268 -0.12748837 0.342362 -0.29743615 0.0946899 0.2607564
-0.17935923 -0.0786141 0.403409 -0.19073184 0.11190861 -0.33417216 0.20289963 -0.24279884
-0.23649397 -0.4178297 -0.16369985 -0.14765365 0.25818586 -0.38241395 0.31513163 -0.20418051
-0.36001438 0.31001836 0.06916792 0.30974627 0.2081377 -0.09706358 0.09601279 -0.36694637
-0.0032171737 -0.38375938 -0.3623007 -0.14546984 0.2210237 0.09463907 0.23910607 0.39644572
0.24260199 0.16224962 0.1066703 0.057037145 -0.3119454 0.006639316 -0.27125978 -0.09154195
0.37566355 -0.17331342 0.31436345 -0.16532138 0.32636577 0.11629804 0.2879115 -0.3426121
0.0761043 0.34821036 -0.11992987 -0.27354413 0.26580194 0.29424128 -0.0024936276 0.18239287
0.14194979 -0.4115897 0.2409763 -0.350344 -0.1690441 0.29223016 0.15802446 -0.36567312
-0.12058789 0.12481175 0.08568259 -0.2280479 -0.02554707 0.34439558 0.23217693 -0.03435198
0.29751286 0.13011837 0.32314238 -0.045629833 0.020896574 0.36912987 -0.29566738 -0.12387167
-0.09359552 -0.08793711 0.336391 0.2526655 -0.068706736 -0.4272244 0.053993195 0.342645
0.18172589 -0.09219326 -0.23574072 -0.20362319 0.43038067 0.42066196 0.16105042 0.20212385
-0.33889917 -0.306239 -0.049179297 0.034974948 -0.4190515 0.2760809 -0.29261145 0.05586926
0.2970609 0.21964732 -0.14129964 0.162754 -0.12814534 -0.1350907 0.2669141 0.20678063
-0.060776327 -0.00048071763 0.08886674 -0.15602225 -0.3319875 -0.37745368 -0.3255371 0.04557914
-0.034638546 -0.20539 -0.28844666 -0.29246852 0.20816913 0.361534 -0.3923456 0.015561713
-0.005671818 -0.012827034 0.24585162 -0.103233635 -0.35923234 -0.051706485 0.42521802 0.38802993
-0.29174164 0.33995548 -0.10043137 0.030160688 -0.08038768 0.09692173 0.33326045 -0.14613011
0.1343504 0.13313298 -0.42740518 -0.21701661 -0.3760121 0.33193585 -0.066810094 0.4275591
-0.114166856 -0.39478907 -0.14745346 -0.3497096 0.18003644 -0.29076427 -0.24934308 -0.16693892
0.39518493 0.058072135 -0.060560413 -0.37576663 0.042431712 -0.13414739 0.2083287 0.4219508
0.22999628 0.1605847 0.20802765 -0.3011021 -0.0052643665 -0.2847596 0.11714605 0.39740884
0.02241782 -0.28091148 0.27936953 0.023295447 -0.23197345 -0.08885131 0.09042624 0.05399223
-0.023272477 -0.27722034 -0.13168578 0.23672463 0.085286364 0.33652747 0.28486487 -0.41403663
-0.2945384 -0.40102583 0.28733346 0.099136166 0.36576957 0.13041678 -0.20945501 0.32063812
0.35972553 -0.22416227 0.36573395 -0.24729468 -0.14749873 -0.13395776 -0.18725674 0.36408794
0.32349962 0.14573543 -0.10111614 0.12251439 0.34233278 0.06906443 -0.111680746 -0.21244954
0.2673871 -0.2458414 -0.30506247 0.23747982 -0.20108911 0.28492588 0.21419883 0.052272677

model.gcn3.bias f4 [16]
00000000: 4e49 9d39 4b49 9db9 3d49 9d39 4049 9d39
00000010: 4e49 9d39 4b49 9d39 4f49 9d39 4d49 9db9
00000020: 4e49 9db9 4a49 9db9 4849 9db9 5049 9d39
00000030: 4d49 9d39 0c49 9db9 4a49 9db9 4f49 9d39
0.0002999999 -0.0002999998 0.0002999994 0.0002999995 0.0002999999 0.0002999998 0.00029999993 -0.00029999987
-0.0002999999 -0.00029999978 -0.00029999972 0.00029999996 0.00029999987 -0.00029999798 -0.00029999978 0.00029999993

model.fc1.weight f4 [16, 16]
00000000: f52a 463d eda9 b4bd b99e 3b3e acb8 e43a
00000010: 09a7 723e 85cf 0e3e a37d e7bd b146 e2bd
00000020: ef5d 643e 4d72 a43d 33e1 58be e391 0ebe
00000030: dfc7 03be 7dd2 afbd c31a d83d 4b39 f8bd
00000040: c553 9dbc 7d94 a7bd 1b0f 553e d7f5 c63d
00000050: 0969 14be 257c 3ebe 0364 73be ff58 fa3d
00000060: 9b41 b43d d122 033e 3d7b 65bd 0f0f 70be
00000070: 7d2c 4abe 7b90 a63c 9db1 b3bd f962 4ebe
00000080: 7ac8 183e efee 95bd 8682 b1bc 00cc 003c
00000090: 16b1 2c3e e549 cfbd a8f1 073e 3fc2 4bbe
000000a0: d647 543d 16e3 75bd 4e7d 9b3b 6ae8 4c3e
000000b0: de83 783c 374e f83d eb6a d13d 2d89 e93d
000000c0: 8ba7 3fbe ca2c 0c3e 96e4 4bbe 3bc2 3ebe
000000d0: bbda b7bc bd73 85bd 5dba 753e 8d8f 27be
000000e0: eb72 4ebe 7b0c 4f3d 2f6e aabd 3622 a13c
000000f0: 27aa 6e3e a510 acbd 4b5a 993c a52f 18be
00000100: a589 413e 436b e43d 5d28 6fbe d913 233e
00000110: 45a4 d53c f32d 68be c3eb 493d 25e5 233e
00000120: eb65 19bd ffc8 d6bd 2bd0 563e ca43 273c
00000130: 795e c0bd 3726 903d 0d15 553e 1d50 2abd
00000140: ae8f d3bc 5263 9bbd 9f9a 30be fc48 3ebe
00000150: da3f 5fbd c5ff 9e3c 1b68 de3d 3315 94bd
00000160: c101 2dbe 6d19 84bd 5b98 3bbe f509 773e
00000170: 7219 6fbe b5c5 7bbe 523e f53b d7a5 bc3d
00000180: b75d 233e 173f 2ebe e61a 373c 4de3 0f3e
00000190: 8b26 c93c 6f43 d8bd 7542 1e3c e195 433e
000001a0: 6bb9 25be b137 adbd 37ee 06be d1ca 223e
000001b0: c1a7 9b3d 4177 663e 47b0 09be 5b77 863d
000001c0: 1b29 09bd e3b2 2e3e bb80 94bd 4586 2dbe
000001d0: 73b9 ffbd c7a3 bf3d 5643 72bb 0707 303e
000001e0: 61b0 22be aba2 e7bc 3143 793e eb52 8fbc
000001f0: 6f89 843d 1389 63bd 8b4d 423e ad48 7ebe
00000200: 4362 69be d670 73bd 2983 483e 9db8 da3d
00000210: 1925 76be 8bb8 64be 696b 223e 9b0b 5cbe
00000220: d90d 77be a961 bbbd ad4d 323d 258e 5fbe
00000230: 6948 563c 39fd 43be 7545 093e c5ea 87bd
00000240: 6c1e cd3b 71b5 dc3b 3732 6ebd 7d7e a9bd
00000250: 0339 c7bd b78f 7b3e b367 643e e145 193e
00000260: 07c8 143e e5b4 053e b39a 2f3d a5d3 993c
00000270: 4794 31be 3300 78be 55c6 79be 13c8 243e
00000280: f6e9 4f3e d4a3 f5bb e330 a43d e7d3 8abd
00000290: aae8 3ebc a9c9 793e d545 f9bd 5bfb a9bd
000002a0: 65d8 37be 7dd0 5a3e 3de2 373d 577a 74be
000002b0: ff09 4a3e ef13 b9bd f55b 363e 91b2 13be
000002c0: af1a 11be 2dab b0bd aa68 0a3c 15c4 c1bc
000002d0: fb78 8abd 4947 7b3e 878b 64be 2724 3abe
000002e0: fd7e 9ebd e175 003e 0b6c c0bc 5775 d1bd
000002f0: 2598 b4bc 93d8 8a3d 4baf 9a3d c526 5abd
00000300: 396d da3d 899a 6f3e 014c 683e 6d10 843d
00000310: 7543 14be 05db 0bbe 3368 843d 4174 613e
00000320: d50c 74bd 9764 453e 2122 eabd fb04 0dbd
00000330: 8bc9 67be d64a 22bb 6595 923d 27ef 07be
00000340: 1216 95bb 79c7 33bd 8070 9ebd e1bd e8bd
00000350: 455d 173e 0d16 85bd cb61 e4bc ad22 88bd
00000360: dd27 c5bd 2d85 7abe e9e2 013e 7a39 9a3d
00000370: a5b1 a1bd 3b87 ed3c 4f36 68be 5fcf dfbd
00000380: dbb6 43be db8d dd3d 01a8 61be f989 78be
00000390: d361 f9bd 3577 99bd 6fa5 8ebd 0bc0 c63d
000003a0: 9118 403e 8567 3bbe 7d67 4dbd 66e6 7ebd
000003b0: 135f 093e eb1c 78bc 038d 3cbd 3771 84bd
000003c0: 950e 31be ddf4 003e 6557 283e 079a 3b3e
000003d0: a3b8 24be 458a 1b3e dde1 55be 6b9e 553e
000003e0: 5539 013e ef52 4f3e 357c 62be f927 da3d
000003f0: a17f fcbd bf65 2b3e 79c7 7cbe 9b92 493e
0.04838081 -0.08821473 0.18322267 0.0017450056 0.23696531 0.1394635 -0.1130326 -0.110486396
0.22301458 0.08029614 -0.21179657 -0.13922839 -0.12869214 -0.08585069 0.105519794 -0.12120303
-0.019204983 -0.08182619 0.20806544 0.09714859 -0.14493193 -0.18602045 -0.2376862 0.12224006
0.08801576 0.1280625 -0.056025732 -0.23443244 -0.19743533 0.020332566 -0.087741114 -0.20154943
0.14920226 -0.073209636 -0.021668684 0.007861137 0.16864428 -0.10121516 0.13275778 -0.19898318
0.05182632 -0.06003102 0.004745162 0.20010534 0.015168158 0.12124293 0.10225471 0.11403117
-0.18716256 0.1368896 -0.19911417 -0.1862878 -0.022443166 -0.06516216 0.23996873 -0.16363354
-0.20161025 0.05054901 -0.08321797 0.019669633 0.23307095 -0.08401612 0.018719813 -0.14861925
0.18900163 0.11153271 -0.23355241 0.1592554 0.026079306 -0.22673778 0.049297106 0.1600538
-0.037450712 -0.10487556 0.20977847 0.010209033 -0.09393019 0.07038539 0.20808811 -0.04158031
-0.025825348 -0.07587303 -0.17246483 -0.18582529 -0.054504253 0.01940907 0.108597 -0.07230606
-0.168952 -0.06450162 -0.18319838 0.24124892 -0.2334955 -0.24587138 0.007484236 0.09211319
0.15953718 -0.17016254 0.011175847 0.14051552 0.024554512 -0.10559737 0.009659399 0.19100143
-0.16184013 -0.08457888 -0.13176809 0.15897681 0.07600356 0.2250643 -0.1344615 0.06565734
-0.033486467 0.17060427 -0.07251116 -0.16945751 -0.124865435 0.0935741 -0.0036966405 0.1719018
-0.15887596 -0.028275808 0.24342038 -0.017495593 0.06471526 -0.055550646 0.18974893 -0.24832411
-0.2279139 -0.05943378 0.19581284 0.106797434 -0.24037589 -0.22336023 0.15861286 -0.21488802
-0.24126376 -0.091494866 0.04353111 -0.21831568 0.013078787 -0.19139566 0.13405402 -0.066365756
0.00625973 0.0067354967 -0.058153357 -0.08276079 -0.09727671 0.24566542 0.22305183 0.14968063
0.1452943 0.13057287 0.042872142 0.018777678 -0.1734172 -0.24218826 -0.24392064 0.16091947
0.20304093 -0.0074963365 0.08017137 -0.067786984 -0.011652151 0.24393333 -0.121715225 -0.082998954
-0.17953642 0.21368594 0.044893492 -0.23874794 0.19730376 -0.09037005 0.17808516 -0.14423586
-0.14170335 -0.08626399 0.008447805 -0.02365307 -0.067613564 0.24538912 -0.2231885 -0.18177854
-0.07739065 0.12544967 -0.023489019 -0.10227459 -0.022045204 0.067795895 0.07552966 -0.05325963
0.10665364 0.23398794 0.22685243 0.064484455 -0.14478858 -0.13657768 0.06465187 0.22017004
-0.05958255 0.19276653 -0.11432291 -0.034428578 -0.22635476 -0.0024763844 0.07157401 -0.13274823
-0.00454975 -0.043891404 -0.077363014 -0.113643415 0.14781673 -0.064983465 -0.027878663 -0.06647239
-0.09626744 -0.24464865 0.12684216 0.07530494 -0.07895211 0.028995147 -0.22676967 -0.10928225
-0.19112723 0.108180724 -0.22036745 -0.24271382 -0.121768616 -0.0749344 -0.06965148 0.09704598
0.18759371 -0.18301208 -0.050147522 -0.062231444 0.13415174 -0.015143613 -0.046032917 -0.064669065
-0.17290719 0.12593408 0.16439588 0.18320476 -0.16086058 0.15189464 -0.20886941 0.20861213
0.12619527 0.2024648 -0.22117694 0.106521554 -0.12329031 0.16738032 -0.24685468 0.19684832

model.fc1.bias f4 [16]
00000000: 2da0 03be 979d 4abe acba debd 7d3a 8b3c
00000010: 6369 72bd 051f 1c3d 3908 27be 87d9 16be
00000020: 1788 57be dc54 b93c 5d43 083e 6fa8 983d
00000030: e3e2 6bbe cd06 f4bd ab19 6fbe f7e7 363e
-0.12854071 -0.19786678 -0.108754486 0.016995663 -0.059182536 0.03811552 -0.1631173 -0.14731418
-0.21048008 0.022623472 0.13306947 0.07454001 -0.23035769 -0.1191536 -0.23349635 0.17861925

model.fc2.weight f4 [6, 16]
00000000: d5a2 64bd 97c3 41be 6f27 7dbe af21 04be
00000010: 23cb f4bd d439 cabb 4b41 92bc c32e 6f3d
00000020: 455f 2b3e 9981 14be 9342 f1bd 252b 42be
00000030: a12f 5e3e 9658 113d 1b2d f9bd f5a2 36be
00000040: a5ee e53c 17e6 c7bd 7ca2 c7bd 6682 7dbc
00000050: f786 f9bd 083a 733e e3b7 e33d d3f1 b4bd
00000060: e916 47bd c006 afbc b520 533e f91f 2dbe
00000070: c511 31be 90fe a53d 969e 5bbc f3a6 793d
00000080: d5f6 1bbe 17f0 ee3d 0b84 86bc cdc8 973d
00000090: 87cb 4f3e 7121 533e a31a 7bbe b7f3 183e
000000a0: 95e9 56be 7d6c 38bd 059d 3b3d fb75 ce3d
000000b0: 136f 7a3e f58f 6a3e f5c6 88bc 4a16 18bc
000000c0: 1f75 fd3d 45fc 613e a79e 8cbd 6748 a4bd
000000d0: 8d04 1e3d db9b 92bd 21e9 e0bd 6fce d13d
000000e0: dd92 5dbe 4b2b 783e 73ed 65bd 9366 53be
000000f0: 83ca 78be 8a50 493c af05 363e 6341 41be
00000100: 8507 82bc c94e 07be ae7f 2cbe 936a c5bd
00000110: f36c c53d ad60 4dbe 8973 7cbe 9342 41bd
00000120: 980d 7b3e 601a 643e fdbd 00be fd5b 3d3d
00000130: cf30 993d 78cf 08be d3c2 af3d e9c2 e3bd
00000140: 5f66 e5bd 15d5 71be 1b35 cb3c 4175 33be
00000150: 7581 b13c 6b21 063e a3d8 fdbd 559f 72bd
00000160: 93fd 0abd 8dee 15be 16db 61bc ddb4 0cbe
00000170: 37d0 953d 6af9 1bbc 29ad 07be 0f2a 1fbe
-0.05581935 -0.18922268 -0.24722074 -0.12903474 -0.11952808 -0.0061714444 -0.0178534 0.058394205
0.16735561 -0.14502563 -0.11780276 -0.18961771 0.21697856 0.035484873 -0.12166806 -0.178356
0.028067896 -0.09760683 -0.09747788 -0.015472984 -0.121839456 0.23752606 0.11119058 -0.08835187
-0.048605833 -0.021365523 0.20617945 -0.16906728 -0.17291935 0.081051946 -0.013404509 0.06095023
-0.15230878 0.11666887 -0.016420385 0.074113466 0.20292483 0.20618226 -0.2452188 0.1493672
-0.20987542 -0.045025337 0.045804042 0.10081097 0.24456434 0.22906478 -0.016696433 -0.009282658
0.12375855 0.2206889 -0.06866198 -0.08021622 0.03857856 -0.07158633 -0.10981966 0.10244452
-0.21638055 0.24235265 -0.056134652 -0.20644598 -0.24296002 0.012287268 0.17775606 -0.188726
-0.015872726 -0.13213648 -0.16845581 -0.09639468 0.09639921 -0.2005641 -0.24653448 -0.04718263
0.24516904 0.22275686 -0.12572475 0.046230305 0.074800126 -0.13360393 0.08582082 -0.111211605
-0.11201166 -0.2361644 0.024805596 -0.17525198 0.021668175 0.13098685 -0.12394836 -0.059233982
-0.033933233 -0.14641781 -0.013785144 -0.13740869 0.073151045 -0.009519914 -0.13249649 -0.15543388

model.fc2.bias f4 [6]
00000000: c3d0 41be 3d1a 653e e109 203e 9d76 74be
00000010: 1324 613e 3f52 b0bd
-0.18927293 0.2237329 0.15628769 -0.23873372 0.21986417 -0.08609437

exp_avg f4 [21, 16]
00000000: d949 973b fb33 99ba af0b 833c f7de 47ba
00000010: 2cf9 3d3d af2d 7938 caaf 7d3a 1e55 33b8
00000020: e125 88bc a6fc 2e3b ebba ce3c c2dd 223c
00000030: 510b 133b fc7d 823c a5b3 013c a04c 573a
00000040: 459d 823c 8b09 2ebb b835 fd3c 0df8 dbba
00000050: 39d7 a13d 0980 ad38 7140 353b c3ad 9db8
00000060: a2ab e5bc 5a86 fa38 109b 153d 72a5 aa3c
00000070: ea55 e3bb 302c e93c ff78 383c 3dd2 e33a
00000080: e74a 9e3c 0821 80b9 53d0 673d b7d7 98b9
00000090: d6dd 263e 059d 4f39 bde3 593b c0a6 21b9
000000a0: 6719 73bd ff2d 0a3c 402f ab3d f36d 143d
000000b0: 990f 903b 1f5d 6d3d 881b db3c b4bb 9f3a
000000c0: 278a 043b 6863 bfb7 3b79 d13a 19f8 33b7
000000d0: ea2c 5f3b fdf1 7f35 801d ef38 20a8 bd36
000000e0: 2c9f 05bb 52c7 8039 685c d53a b760 773a
000000f0: 5083 a3ba 8239 223b 9645 9db9 3262 de37
00000100: e284 6d3a b77c 3fb7 96ea 283b 4b71 5fb7
00000110: ba9a f23b 4d11 1637 8c23 2039 4aa6 e6b6
00000120: bbae 31bb d3a8 ca39 0a6c 783b 7b54 d83a
00000130: 06f2 3b39 c0a0 2d3b e991 9d3a 4747 6838
00000140: 46f2 113d 1dee f7b9 29e1 063e 0087 30ba
00000150: 1b8d ca3e af8d 033a 789b f43b da5a dab9
00000160: be14 0ebe 5421 bc3c 172e 523e 3a5d aa3d
00000170: 233d cb3c 1b5d 063e 5ac3 8f3d 05fc 3d3b
00000180: b8e7 9a3a 1145 9bb7 9f14 983b ba6c d9b7
00000190: 5509 743c 0882 9f37 a703 8539 451a 74b7
000001a0: afd0 adbb a343 b03a 1fe2 ff3b 7774 363b
000001b0: 55b3 d33a 6fb3 9a3b 94dd 2e3b 3592 d938
000001c0: b3c8 cb3a ff79 afb7 5007 cd3b 270e 05b8
000001d0: 468b 973c e26f c537 d267 b639 0c45 a3b7
000001e0: 006e d2bb 3538 6d3a ea7a 1f3c 850e 823b
000001f0: b816 803a a5f9 cd3b 8253 563b abe4 0f39
00000200: adb3 fe3a 22d3 bab7 90da 963b 419b c0b7
00000210: a0a8 513c 60a3 7b37 b233 9039 dfd0 3fb7
00000220: f6bc 9cbb cbfe 083a 7fc1 d13b 3bf3 443b
00000230: 7d1e c3b8 1f74 9b3b 0cd6 003b 36aa cc38
00000240: 3dfe 813a 859c 4eb7 e6ae b83b fbf3 dbb7
00000250: 020b 8b3c e868 bd37 c148 ac39 ef55 b9b7
00000260: 4756 b5bb 7784 2a3a 0f67 0f3c f864 703b
00000270: 5efe 9d3a 8da7 aa3b ea6a 593b e355 0439
00000280: 454d c33a 8a45 beb7 234a 963b cf1b dcb7
00000290: c01e 613c 75d1 8c37 938c 8139 0cf9 42b7
000002a0: 2a4d aabb 8d99 9b3a 57fb eb3b e384 383b
000002b0: 1770 6d3a 851a 9e3b df5b 163b df6e d138
000002c0: 4c0c 103b 65fe dfb7 76fd ac3b 8014 ecb7
000002d0: bf93 7d3c 3b89 9837 d7c9 9d39 44d0 44b7
000002e0: 3658 bdbb a706 753a fde7 023c dd9a 563b
000002f0: e586 cb39 215f bb3b 5b40 163b 1aeb eb38
00000300: f72d 203b 33a9 ffb7 cbe0 c73b c305 08b8
00000310: 84bf 8e3c 65dc ab37 5dbc b139 2ad2 64b7
00000320: d573 d6bb 1de2 793a 43ba 133c 6b06 7c3b
00000330: 7f3c 6239 67dc d63b ccd2 2a3b 81d2 0739
00000340: f882 883a a7ec 89b7 1ac1 683b d863 abb7
00000350: 1bd3 363c b509 6937 49db 4539 83ee 26b7
00000360: d8cc 86bb 9ad7 8a3a 507e bf3b 43da 0b3b
00000370: 1e3d 8b3a 9233 723b cbab fc3a 33ae a438
00000380: 3585 9c3a b3f8 77b7 28b5 bf3b edb4 e8b7
00000390: 303b 903c 5762 c237 27f5 b639 465a b7b7
000003a0: f9ba bfbb df2c 473a 4ed3 143c 12a4 773b
000003b0: 7a13 a03a 042b b43b 73de 5c3b 48d9 0839
000003c0: 1fdc 8a3a 33d9 7eb7 535a 8d3b a419 c1b7
000003d0: d5bc 613c adf6 9437 5a14 7339 9330 72b7
000003e0: 6746 9cbb 84e5 8f3a 2004 eb3b 8790 2b3b
000003f0: c15e b93a 377c 8c3b 0ed1 243b cfd8 c938
0.0046169576 -0.0011688465 0.015996782 -0.0007624472 0.046380207 5.9408772e-05 0.00096773787 -4.2756197e-05
-0.016619625 0.0026700883 0.025235614 0.0099405665 0.0022437165 0.015929215 0.007916366 0.0008213017
0.015944133 -0.002655598 0.030909404 -0.0016782299 0.079023786 8.273131e-05 0.0027656818 -7.518709e-05
-0.028035942 0.00011945954 0.036524832 0.020830844 -0.006937732 0.028463453 0.0112593165 0.0017381381
0.019322826 -0.00024438673 0.056595158 -0.0002915242 0.16295561 0.00019799553 0.0033247315 -0.00015416276
-0.059350397 0.008433818 0.083586216 0.03623767 0.0043963906 0.057950135 0.026746526 0.0012186677
0.0020223947 -2.2815264e-05 0.0015981564 -1.0726996e-05 0.003405387 9.534704e-07 0.00011401903 5.6522113e-06
-0.0020389063 0.00024562568 0.001627815 0.0009436714 -0.0012475047 0.0024753516 -0.0002999722 2.6510188e-05
0.00090606336 -1.1413525e-05 0.002577459 -1.3318214e-05 0.0074036987 8.944725e-06 0.00015272031 -6.8738927e-06
-0.0027112204 0.00038654226 0.0037906193 0.0016504669 0.0001792387 0.002649352 0.0012021634 5.5379493e-05
0.03563144 -0.0004728892 0.1317183 -0.0006733984 0.3956078 0.0005018366 0.0074648224 -0.0004164789
-0.138751 0.02296511 0.20525394 0.08318563 0.024809426 0.13121454 0.07019682 0.0028989327
0.0011818325 -1.8509601e-05 0.00464113 -2.5919046e-05 0.014894803 1.9014828e-05 0.00025370458 -1.454965e-05
-0.005304418 0.0013447892 0.007808938 0.0027840415 0.0016151468 0.004721097 0.0026682364 0.000103745995
0.0015547484 -2.0918435e-05 0.0062569752 -3.172285e-05 0.018499028 2.353633e-05 0.00034791097 -1.9463267e-05
-0.0064218044 0.0009049208 0.009733895 0.003969016 0.0009772396 0.0062858635 0.0032703583 0.00013722728
0.001943221 -2.2271244e-05 0.0046036914 -2.296048e-05 0.012796551 1.49988045e-05 0.00027504336 -1.1433119e-05
-0.004783268 0.00052259554 0.0064012404 0.0030052203 -9.3040035e-05 0.0047440673 0.0019658832 9.759182e-05
0.0009917688 -1.2314999e-05 0.005636084 -2.6220447e-05 0.016973022 2.2579407e-05 0.00032860602 -2.2093735e-05
-0.0055339667 0.0006504724 0.008752598 0.0036681276 0.0012053957 0.005207962 0.0033175298 0.00012620496
0.0014900347 -2.2682147e-05 0.0045864745 -2.6238993e-05 0.0137402415 1.6786837e-05 0.00024709533 -1.1621287e-05
-0.005197187 0.0011871323 0.007201593 0.0028155379 0.0009057535 0.0048249387 0.0022942943 9.986548e-05
0.0021979986 -2.6702133e-05 0.0052792383 -2.8142938e-05 0.01547712 1.8183715e-05 0.00030095756 -1.1731001e-05
-0.005778338 0.00093469996 0.007989881 0.0032746114 0.00038819682 0.0057181274 0.0022926542 0.00011249464
0.002444146 -3.0477158e-05 0.0060997955 -3.2430293e-05 0.017425306 2.0487418e-05 0.00033900412 -1.3638792e-05
-0.00654457 0.00095322897 0.009016576 0.0038455974 0.00021575576 0.0065570357 0.0026065586 0.00012953022
0.0010415008 -1.6441873e-05 0.0035515488 -2.0431282e-05 0.01115873 1.3890142e-05 0.00018869074 -9.949904e-06
-0.0041137747 0.0010592819 0.005843915 0.002133981 0.0010623073 0.0036957008 0.0019277273 7.8525765e-05
0.0011941554 -1.4780252e-05 0.005850453 -2.7740805e-05 0.017606348 2.3172395e-05 0.00034896398 -2.1857337e-05
-0.0058511463 0.0007597934 0.009083582 0.0037787003 0.0012212836 0.005498292 0.0033701926 0.00013050914
0.0010594166 -1.519015e-05 0.004313746 -2.3019333e-05 0.013777931 1.7757842e-05 0.00023181867 -1.4435634e-05
-0.004769135 0.0010978435 0.0071721226 0.0026178674 0.0014142619 0.0042872685 0.002514902 9.6248106e-05

exp_avg_sq f4 [21, 16]
00000000: 1f0d 0f36 e0b1 1234 77a9 d637 70ad 7933
00000010: ca8f 6139 eb07 c22f 8c1d c933 3a00 492f
00000020: 0fb4 e737 ab60 3f35 e28d 8538 a9c8 2537
00000030: 3223 0735 39da d437 2248 d236 0adb 9033
00000040: 5640 d537 5b4e 3d35 2e5c c838 1335 9734
00000050: deb3 233a ad23 3c30 8053 4d35 2664 1b30
00000060: cfd6 a438 2522 c430 fee2 0b39 3d00 3638
00000070: 2e81 a136 92e7 a938 41b0 5437 0432 a234
00000080: 799a 1c38 8e36 cd31 1aee a739 6401 1232
00000090: 1c07 2e3b a6b2 8631 b55c 9435 dd51 2331
000000a0: caad b839 96ab ee36 a726 373a 1bb2 0939
000000b0: afb5 0136 3e11 b039 7f06 9638 8677 1f34
000000c0: a195 db34 2def 642e 571f 8934 386e 4a2d
000000d0: d3a5 9b35 63b6 cc29 e1ac b230 7dcf 602c
000000e0: 4a2f df34 914c cf31 5342 8e34 9e3c bf33
000000f0: 5f1a 2734 ef7a 2435 1597 1a32 908b 9a2e
00000100: 3f4c b033 be2b 652d 6054 3235 4305 9c2d
00000110: 84ed b736 72c0 0c2d 2047 2031 603f a62c
00000120: bc51 4535 b158 8032 cdda c035 f03e 9234
00000130: 8fc5 5c31 a86a 3c35 452d 1b34 9c9a a82f
00000140: 8e20 0539 7b17 c032 f667 e33a 0cc3 4233
00000150: 9735 803c 3054 d832 30fa ba36 16ff 9432
00000160: 7456 fc3a c034 5d38 850c 8a3b 5166 353a
00000170: d014 8138 85ab e13a 852c 013a 8c96 6135
00000180: f9f8 1534 eead 162e 988d 1036 ceba 932e
00000190: 081b ba37 7404 1f2e f328 dd31 df34 ba2d
000001a0: bfd2 3c36 822e 4234 019d cc36 b20f 5035
000001b0: af0d 8c34 cb93 1536 bb1c 3f35 c2ed 9330
000001c0: 55c6 8134 3a73 402e 5f5d 8336 df4b dd2e
000001d0: f388 0f38 38a2 732e dbf2 4f32 349b 262e
000001e0: 8660 8a36 7fda af33 42f6 1e37 326f d335
000001f0: 8715 cd33 9e94 8436 948c 8f35 6b68 0131
00000200: 6fba ca34 9225 5a2e f93a 0e36 99db 672e
00000210: 6a5d 8937 6ce1 c52d b7f6 0132 57f5 652d
00000220: f28a 1936 a998 ea32 037e 8936 f66e 7235
00000230: 57f2 6d30 5109 1736 fe7b cf34 2ce6 8230
00000240: 463a d333 9f66 852d 9d2c 5536 7a2f 972e
00000250: 74a9 f137 b739 602e f382 3932 e8ae 562e
00000260: fb84 4d36 eab9 3533 e186 0037 9597 b435
00000270: 2d03 1c34 bb04 3636 58b8 9335 95e8 da30
00000280: 7e64 6e34 4645 622e 252b 0d36 3f66 972e
00000290: 425f 9e37 3ddf f72d 85c9 d131 0e97 6d2d
000002a0: 1e44 3536 1452 1734 ed05 ae36 adcb 5435
000002b0: 622d b033 cb3a 1c36 764c 0d35 c711 8930
000002c0: beaf 0135 8dca 9c2e e908 3b36 0c2b ae2e
000002d0: 17f1 c837 996b 112e 829b 1b32 ea18 722d
000002e0: 3012 6036 309e bb33 9834 d636 39ec 8f35
000002f0: 9272 8132 fc6c 5b36 c518 0d35 fbed ad30
00000300: fa5b 2035 0342 cc2e 03b2 7936 ca46 e72e
00000310: 7ab6 fe37 e199 382e 0570 4532 399f a32d
00000320: e4b7 8f36 5121 c333 8065 0837 507d c635
00000330: 4cf2 9f31 2e44 9036 0861 3635 9d98 e630
00000340: 55f1 e833 13ca ed2d a74b a935 4397 372e
00000350: c0e7 5037 56b5 a92d 91ab 7431 e629 2e2d
00000360: 7a23 e335 e4f6 f033 902f 6536 fb7b f434
00000370: c357 f233 3b51 b735 2382 c734 747f 2930
00000380: c91d 1934 e327 c02d eab2 6536 f139 a92e
00000390: 3a04 0238 5128 6c2e 9835 5132 1a1d 522e
000003a0: dac0 6536 43f1 7733 676e 0a37 cfa4 bf35
000003b0: f626 2034 d5e0 4a36 7972 9835 4318 ea30
000003c0: 9406 f133 2ff6 ca2d 00c2 f935 470c 692e
000003d0: fc3d 9f37 3cb0 0a2e 1da6 b831 b44c b72d
000003e0: 01a3 1836 f369 0134 109a ac36 0af7 3735
000003f0: 56c3 5634 80b3 f635 3ac7 2935 7aa3 7e30
2.1316298e-06 1.366202e-07 2.5589701e-05 5.813257e-08 0.00021511238 3.529402e-10 9.3651664e-08 1.8280924e-10
2.7621192e-05 7.1293715e-07 6.368362e-05 9.881486e-06 5.0342635e-07 2.5373987e-05 6.266885e-06 6.7453655e-08
2.5421537e-05 7.052201e-07 9.553913e-05 2.8164558e-07 0.0006244759 6.84447e-10 7.648996e-07 5.653099e-10
7.8601406e-05 1.4270581e-09 0.00013340634 4.3392403e-05 4.8132124e-06 8.101681e-05 1.2677222e-05 3.0211243e-07
3.7337162e-05 5.9724874e-09 0.00032030122 8.498635e-09 0.002655453 3.9202233e-09 1.1053841e-06 2.3766156e-09
0.00035224698 7.112928e-06 0.00069866556 0.00013131688 1.9328252e-06 0.00033582182 7.1537674e-05 1.4851511e-07
4.0900798e-07 5.205363e-11 2.554104e-07 1.1506844e-11 1.1596661e-06 9.091059e-14 1.300034e-09 3.1947494e-12
4.1571394e-07 6.0331975e-09 2.6497818e-07 8.905157e-08 1.5562681e-07 6.127365e-07 8.998332e-09 7.0279005e-11
8.209508e-08 1.3026856e-11 6.643295e-07 1.7737483e-11 5.4814755e-06 8.00081e-12 2.3323494e-09 4.72504e-12
7.350716e-07 1.4941493e-08 1.4368794e-06 2.7240412e-07 3.2126513e-09 7.0190663e-07 1.4451969e-07 3.0668879e-10
0.00012695996 2.236242e-08 0.0017349708 4.534654e-08 0.015650554 2.5183994e-08 5.5723576e-06 1.7345467e-08
0.0019251839 5.2739633e-05 0.004212918 0.00069198484 6.155076e-05 0.0017217254 0.00049275934 8.4038106e-07
1.3967282e-07 3.4260532e-11 2.154009e-06 6.717969e-11 2.2185515e-05 3.615637e-11 6.436602e-09 2.1169231e-11
2.8136853e-06 1.8084577e-07 6.0979514e-06 7.750888e-07 2.6086988e-07 2.2288757e-06 7.1194853e-07 1.0763233e-09
2.4172428e-07 4.3758087e-11 3.914974e-06 1.0063394e-10 3.42214e-05 5.5395882e-11 1.2104205e-08 3.7881878e-11
4.1239573e-06 8.188817e-08 9.47487e-06 1.5753087e-06 9.549972e-08 3.951208e-06 1.0695244e-06 1.8831325e-09
3.776108e-07 4.960083e-11 2.1193975e-06 5.271836e-11 1.6375172e-05 2.2496414e-11 7.564885e-09 1.3071619e-11
2.2879653e-06 2.7310607e-08 4.097588e-06 9.0313495e-07 8.6564483e-10 2.2506176e-06 3.864697e-07 9.524164e-10
9.836053e-08 1.5165922e-11 3.1765442e-06 6.8751185e-11 2.8808347e-05 5.0982964e-11 1.0798192e-08 4.8813315e-11
3.0624785e-06 4.2311434e-08 7.6607985e-06 1.3455161e-06 1.4529788e-07 2.7122867e-06 1.1006005e-06 1.5927691e-09
2.2202036e-07 5.1447978e-11 2.103575e-06 6.8848476e-11 1.8879426e-05 2.8179787e-11 6.1056107e-09 1.3505431e-11
2.7010751e-06 1.4092831e-07 5.186294e-06 7.927254e-07 8.203894e-08 2.3280033e-06 5.263786e-07 9.973115e-10
4.8311983e-07 7.130039e-11 2.7870358e-06 7.9202506e-11 2.3954124e-05 3.306475e-11 9.057546e-09 1.3761639e-11
3.3389188e-06 8.73664e-08 6.3838197e-06 1.072308e-06 1.5069677e-08 3.269698e-06 5.256264e-07 1.2655045e-09
5.973849e-07 9.288572e-11 3.7207508e-06 1.05172385e-10 3.0364132e-05 4.1973428e-11 1.14923795e-08 1.8601664e-11
4.28314e-06 9.086455e-08 8.129864e-06 1.478862e-06 4.655055e-09 4.2994716e-06 6.794148e-07 1.6778078e-09
1.084724e-07 2.703352e-11 1.2613499e-06 4.174373e-11 1.2451725e-05 1.9293605e-11 3.5604197e-09 9.900058e-12
1.6923143e-06 1.122078e-07 3.4151344e-06 4.553875e-07 1.1284967e-07 1.3658204e-06 3.7161325e-07 6.1662964e-10
1.4260071e-07 2.1845586e-11 3.42278e-06 7.695523e-11 3.099835e-05 5.3695996e-11 1.2177587e-08 4.777432e-11
3.4235914e-06 5.7728595e-08 8.251146e-06 1.4278575e-06 1.4915335e-07 3.0231215e-06 1.1358198e-06 1.7032636e-09
1.12236336e-07 2.3074069e-11 1.8608407e-06 5.298897e-11 1.898314e-05 3.1534095e-11 5.3739897e-09 2.0838754e-11
2.2744646e-06 1.2052605e-07 5.1439347e-06 6.85323e-07 2.0001366e-07 1.838067e-06 6.324732e-07 9.2636976e-10

exp_avg f4 [16]
00000000: 377c 583a 3f94 67b9 da25 e43a 9533 10b9
00000010: 3ee0 903b cb4e ae36 d005 e038 00e1 17b3
00000020: c88b 04bb b200 003a a5d8 313b 8835 853a
00000030: 7638 2bb9 c765 0a3b 8dae f339 de8f 0139
0.00082582555 -0.00022085103 0.00174063 -0.00013752126 0.004421263 5.194777e-06 0.00010682235 -3.5362063e-08
-0.0020224918 0.0004882916 0.0027137187 0.0010163048 -0.00016328864 0.0021117793 0.00046478622 0.00012355993

exp_avg_sq f4 [16]
00000000: ad74 9233 1997 a731 28a9 a234 83f6 0131
00000010: 762e 0336 22e5 3d2c f1d4 9c30 872b 1025
00000020: 099b db34 06cf cc32 e0ae 4535 efce dd33
00000030: 5d3a 3731 6e6c ef34 ab90 b932 2ed4 d130
6.819878e-08 4.8775175e-09 3.029793e-07 1.8912096e-09 1.9547565e-06 2.698571e-12 1.1411015e-09 1.2504757e-16
4.0904732e-07 2.3842869e-08 7.3642695e-07 1.03287555e-07 2.666318e-09 4.4596112e-07 2.1602622e-08 1.5267057e-09

exp_avg f4 [16, 16]
00000000: baca e5bb de8d 4bbd e544 8bba 9ad2 57ba
00000010: b178 a03a 5ee6 ca3d dfcc 9e39 8950 a73c
00000020: ee30 8d3d ff1a 883d d267 8d3c 1098 a73d
00000030: 778f 4c38 aec5 9b3c b034 b539 3aef 62bd
00000040: aa0f 28b7 af44 e4b9 6175 0aba 454a a235
00000050: d08f fd36 bf73 c939 4797 7d39 af10 a9b9
00000060: 7d2a 453a cb9d a039 06e2 8aba 9c52 a039
00000070: 6b29 21b6 97cb f9b9 090d b836 96d6 8439
00000080: 6277 68bb dead 9dbc b7e6 6eba 734d a5b9
00000090: cb74 f639 3023 1d3d 2caa b239 196c ab3b
000000a0: b36e cb3c 3cab 9f3c dad5 003c d052 fc3c
000000b0: 0536 d337 20b1 db3b d34d de38 deb1 b1bc
000000c0: a000 8e38 cd00 083a 5a4c 94b7 1be8 1837
000000d0: 40a8 5ab7 a4fa 8aba 5ce4 2737 d77c 88b9
000000e0: ce40 3fba b37d 43ba 9556 76b9 abb2 69ba
000000f0: e285 21b5 2f4e 79b9 e75c 78b6 46d2 213a
00000100: ad9a faba 1755 08bc 7f37 e6b9 de13 01b9
00000110: 4fbd 4c39 3c4b 833c 4c53 4939 4faf 8d3a
00000120: 4bf0 2a3c 0729 c13b 32f1 263b 06a9 4b3c
00000130: 0f45 2537 972c 023b 5a55 2938 367f 0ebc
00000140: 6035 5638 1b71 dc39 6bf9 2e37 df45 f036
00000150: ca24 30b7 a51b 5dba a763 37b6 07e6 49b9
00000160: 401d 1cba 7a89 1cba 96ac 1fb9 ef54 39ba
00000170: b5b6 d1b4 b96c 34b9 b0ac 4db6 850d fa39
00000180: 1fd2 9db9 83d2 67ba ad96 c8b9 f3d2 95b6
00000190: 83ce 8937 1ef2 c63a 8b82 2e39 e862 14ba
000001a0: 5bcb 293a 662b b939 ef34 22ba 0526 5f3a
000001b0: ee9a cc35 08ba 7cb9 e332 8636 afeb 9ab9
000001c0: 2359 8c38 b321 f839 0066 5d37 093b 0437
000001d0: 38f3 43b7 e0cf 76ba bb2f 85b6 1bea 46b9
000001e0: 9847 2cba 7f7f 21ba 8054 32b9 e331 4cba
000001f0: d090 f3b4 6d3f 3cb9 5d93 58b6 912b 0b3a
00000200: 6965 80bb fa06 22bd f7db 08ba 9fe1 30ba
00000210: fef6 813a 1bda a13d aedc b538 a78f a93c
00000220: 57d9 6e3d dd12 7e3d fd5a 4f3c f6ff 893d
00000230: 18e5 e737 b046 873c 5875 a639 b316 36bd
00000240: 4720 8fbb 4f74 10bd 5a48 feb9 a687 1cba
00000250: 72fd 653a 9c74 903d 9a4e 9f38 130a 873c
00000260: 7029 4e3d 035a 4f3d ca04 4f3c 8715 723d
00000270: ae23 0238 9d83 6a3c 49fd 8739 1a48 23bd
00000280: 3546 3cbc 2968 b0bd cd33 efba 5fea bcba
00000290: b0c3 0b3b 5411 303e afb5 ff39 e814 183d
000002a0: 6294 f73d baca f03d a3c0 f73c 636c 123e
000002b0: d784 a938 fa15 0a3d 3268 203a 57e1 c5bd
000002c0: 4d3e 83bb 5f03 34bd 923e 18ba 7a0e 44ba
000002d0: ab58 903a 7ca8 b23d 20ed cb38 df07 c43c
000002e0: 3f7b 873d 8f5e 903d b0de 583c 4379 993d
000002f0: b3f6 c737 8b8f 943c 6ad9 be39 34ec 48bd
00000300: 3c01 99bb 7dea 53bd ebad 44ba f2c6 68ba
00000310: 8fd0 aa3a 63e2 d43d fbe5 e838 8dc5 e73c
00000320: 96dd 9c3d 43bd ac3d 5be0 833c cbf8 b53d
00000330: 67d6 1d38 a643 b63c 0bc5 e039 12f2 6dbd
00000340: 3385 d0bb 22b5 73bd eabd 68ba 251b 85ba
00000350: d011 c33a d08a f33d 0552 0739 f878 f53c
00000360: 6d95 b13d 6127 b93d 2222 a63c 6361 ce3d
00000370: 5d2c 3e38 8d72 ca3c da41 f239 b0b0 89bd
00000380: 9396 9cbb 48f8 3fbd e8f1 1cba d01e 4eba
00000390: 57e7 983a 652f be3d 6a67 d638 32ff c43c
000003a0: 2339 8e3d 18e1 943d 2503 623c 03d9 a13d
000003b0: 7074 ef37 9f32 993c fa4d c639 2277 54bd
000003c0: c87c bc38 052f 393a 93f0 eeb8 e298 6b37
000003d0: 0772 9ab7 ef82 c8ba b046 6a38 b815 f7b9
000003e0: f66f 81ba 9795 94ba abfd 0aba d15f a8ba
000003f0: 2376 a7b5 3245 eab9 ea32 a3b6 384a 7f3a
-0.0070126923 -0.049695842 -0.001062539 -0.0008232981 0.0012243 0.0990722 0.0003028875 0.020424144
0.06894098 0.06645774 0.01726142 0.081833005 4.8771002e-05 0.01901516 0.00034562266 -0.055403925
-1.0017227e-05 -0.00043538722 -0.0005281773 1.2091556e-06 7.5567295e-06 0.00038423945 0.00024184315 -0.00032246622
0.0007521285 0.00030635143 -0.0010595925 0.00030579127 -2.4014978e-06 -0.00047644667 5.485145e-06 0.0002533688
-0.0035471548 -0.019247945 -0.00091133587 -0.00031528957 0.00047007794 0.038363636 0.00034077594 0.005231392
0.024833059 0.01949083 0.007863486 0.030801207 2.5178315e-05 0.0067044646 0.00010600281 -0.021691259
6.771204e-05 0.00051881076 -1.7678529e-05 9.113947e-06 -1.3032986e-05 -0.0010603261 1.0007145e-05 -0.00026032954
-0.00072957284 -0.00074573903 -0.00023492643 -0.0008914868 -6.0172e-07 -0.00023775616 -3.7008956e-06 0.0006172996
-0.0019119583 -0.008321068 -0.00043910366 -0.000123098 0.00019525479 0.016027085 0.00019199884 0.0010809692
0.010433267 0.0058947834 0.0025473353 0.012430435 9.850845e-06 0.0019863003 4.037223e-05 -0.008697322
5.1071285e-05 0.0004204594 1.042928e-05 7.1606914e-06 -1.0498983e-05 -0.00084346003 -2.732713e-06 -0.00019254546
-0.00059552863 -0.00059714133 -0.00015227715 -0.0007069846 -3.906222e-07 -0.0001720664 -3.0647898e-06 0.0004769379
-0.00030101926 -0.00088433194 -0.00038259235 -4.4651038e-06 1.6427837e-05 0.0015178358 0.00016642564 -0.000566049
0.00064771407 0.00035318284 -0.0006187697 0.000851244 1.5244275e-06 -0.00024101895 3.999435e-06 -0.00029548767
6.692323e-05 0.00047327354 1.3196375e-05 7.881558e-06 -1.16795345e-05 -0.0009415131 -3.9692654e-06 -0.00018969963
-0.00065719476 -0.0006160661 -0.00017006882 -0.0007789416 -4.5367642e-07 -0.00017952705 -3.2272285e-06 0.0005308921
-0.003918339 -0.039557435 -0.00052207656 -0.00067474874 0.0009915528 0.079029284 8.671857e-05 0.020698382
0.05831274 0.06202971 0.012655971 0.06738274 2.7644026e-05 0.016513199 0.00031749415 -0.04445524
-0.0043678614 -0.03526717 -0.0004850056 -0.0005971141 0.0008773423 0.070534915 7.5963515e-05 0.016484296
0.050332487 0.05062295 0.012635419 0.05910256 3.1027645e-05 0.014313606 0.0002593792 -0.039863683
-0.011491348 -0.08613617 -0.0018249691 -0.001441311 0.0021326356 0.1719411 0.00048772755 0.037129313
0.12088849 0.11757417 0.030243224 0.14299159 8.083291e-05 0.033712365 0.0006119042 -0.09662121
-0.0040052296 -0.043948527 -0.00058076635 -0.0007478964 0.0011012753 0.08723542 9.723962e-05 0.023929534
0.06615304 0.070492856 0.013236687 0.07493832 2.3837527e-05 0.018134853 0.0003640161 -0.049053386
-0.0046693366 -0.051737297 -0.00075027224 -0.0008879743 0.0013032126 0.10394742 0.00011105459 0.028292442
0.07659452 0.08434536 0.016098192 0.08885344 3.7631395e-05 0.022249054 0.00042871418 -0.058092184
-0.006363535 -0.059498914 -0.0008878397 -0.0010155184 0.0014882628 0.11891711 0.00012905158 0.029964909
0.08671079 0.09040714 0.020279948 0.10077169 4.5340847e-05 0.024712825 0.000462069 -0.067231536
-0.004778692 -0.04686764 -0.00059869746 -0.0007862868 0.0011665624 0.092863835 0.000102235776 0.024047468
0.06944492 0.07269496 0.013794695 0.0790272 2.854524e-05 0.018700896 0.000378236 -0.051871426
8.987781e-05 0.00070641964 -0.00011393535 1.4042687e-05 -1.8411329e-05 -0.001529781 5.585578e-05 -0.00047127693
-0.0009875286 -0.0011336085 -0.00053020817 -0.0012845938 -1.2476852e-06 -0.00044683513 -4.8637057e-06 0.00097385375
