outputs/debug_model.ckpt (torch, 26246 bytes, 30 tensors)

model.gcn1.weight f4 [21, 16]
0	0x3c811650	0.01575771
1	0x3dc5bc98	0.09655112
2	0xbd2b7cd2	-0.041867085
3	0xbda2f3bb	-0.07956644
4	0x3e5571cf	0.20844196
5	0xbe8f47a6	-0.2798435
6	0x3e212645	0.15737255
7	0x3e735c69	0.2376572
8	0xbd5c0b05	-0.053721447
9	0xbd1ff79b	-0.039054494
10	0x3e33957d	0.17537494
11	0x3e7113b3	0.23542671
12	0xbded2f2b	-0.11581262
13	0xbddc6ec4	-0.10763314
14	0xbe9316be	-0.28728288
15	0xbe977ded	-0.2958826
16	0x3dedb938	0.11607593
17	0xbd8ef3ed	-0.06980119
18	0xbb6b27c2	-0.0035881852
19	0xbea446a3	-0.32085142
20	0xbea4f5c4	-0.32218754
21	0x3eb34807	0.3501589
22	0xbde7b9df	-0.11314749
23	0xbea459e9	-0.32099846
24	0xbebb0524	-0.3652736
25	0x3c9af5fd	0.018916124
26	0xbb34ab46	-0.0027567907
27	0xbe4d85a4	-0.20070511
28	0x3e7619fe	0.24033353
29	0x3e448f27	0.19195233
30	0xbe739c5d	-0.23790117
31	0xbeac2f93	-0.33630046
32	0xbd2b3f43	-0.041808378
33	0x3e4b7206	0.19867715
34	0x3ea3ae83	0.3196908
35	0x3ea4a90a	0.32160217
36	0xbd27e39d	-0.040988553
37	0xbcb1138f	-0.021615772
38	0x3e962d11	0.29331258
39	0x3ec656d4	0.3873812
40	0xbecc907d	-0.39953986
41	0x3e201a8b	0.15635125
42	0xbe4d08c1	-0.2002287
43	0x3dbad90c	0.0912343
44	0xbeb25618	-0.3483131
45	0xbe685e8d	-0.22692318
46	0xbe96fdbf	-0.29490468
47	0x3e449247	0.19196425
48	0xbec400d1	-0.38281873
49	0x3dc8ba00	0.09801102
50	0xbe560000	-0.20898438
51	0x3ec1de68	0.37864995
52	0xbde48832	-0.1115879
53	0xbe48395d	-0.19553132
54	0xbec9365e	-0.3929929
55	0xbe6e3604	-0.23262793
56	0xbe025c1c	-0.1273045
57	0x3ebd6eca	0.36998588
58	0x3dfae5c7	0.12250858
59	0xbe823a1b	-0.25434956
60	0x3e237e2e	0.15966102
61	0xbd418e66	-0.047254942
62	0x3dca3217	0.09872835
63	0x3e90bae9	0.282676
64	0xbe899ffd	-0.26879874
65	0xbe21197c	-0.15732378
66	0x3c8eee57	0.017447634
67	0x3e88aa57	0.2669246
68	0xbe808d7f	-0.25107953
69	0x3c9a10b0	0.018806785
70	0x3c8894d1	0.016672524
71	0x3d8842c6	0.06653361
72	0x3ab4a993	0.0013783447
73	0x3e6048e5	0.21902807
74	0xbe9fd5b8	-0.31217742
75	0x3eb5a5ba	0.35478002
76	0xbe0fc247	-0.14038955
77	0x3d058bad	0.03260391
78	0xbe3ad512	-0.18245342
79	0xbe4ac5e6	-0.19802055
80	0x3e70a1a6	0.23499164
81	0xbec1d594	-0.3785826
82	0xbe86fbec	-0.26364076
83	0xbec6e47e	-0.388462
84	0x3eaa7634	0.33293307
85	0xbc6c8d8b	-0.014438043
86	0x3e989df4	0.2980801
87	0xbdb80193	-0.08984675
88	0x3e9ea62e	0.3098616
89	0x3ec8de11	0.39231923
90	0x3e48aa6d	0.19596262
91	0x3e9ea9d1	0.30988935
92	0xbe84b5a6	-0.25919837
93	0xbe484966	-0.1955925
94	0xbe705445	-0.23469646
95	0xbe078528	-0.13234389
96	0x3eba08b9	0.3633478
97	0x3e05cb96	0.13065943
98	0x3e2a4304	0.16627127
99	0x3dacc860	0.08436656
100	0xbe33ebf7	-0.17570482
101	0xbe9795a6	-0.2960636
102	0x3dabd500	0.08390236
103	0x3d05c308	0.0326567
104	0xbe0173fb	-0.126419
105	0x3e7b58e9	0.24545635
106	0x3e9d0b82	0.30672842
107	0xbeccb22a	-0.39979678
108	0xbeb84d97	-0.35996696
109	0xbea4d0c1	-0.32190517
110	0x3e554706	0.20827875
111	0x3dbaffcd	0.091308214
112	0x3d72fb5c	0.059321746
113	0xbead7140	-0.33875465
114	0x3e703b7f	0.23460196
115	0x3e4b7438	0.19868553
116	0xbdde0d46	-0.108423755
117	0x3e19a4cb	0.1500427
118	0xbe9e6384	-0.309353
119	0x3e5db6a7	0.21651708
120	0x3e350858	0.17678964
121	0x3caace6c	0.020850383
122	0xbe9da8f5	-0.30792966
123	0x3e931e37	0.2873399
124	0xbce9090b	-0.028446695
125	0x3d2dc580	0.04242468
126	0xbbc76726	-0.0060852943
127	0x3ec7278d	0.38897362
128	0xbe99d65e	-0.30046362
129	0x3c55a1a5	0.013039027
130	0x3ec6e0ce	0.38843387
131	0x3e1db421	0.15400745
132	0xbc2fb6c4	-0.010724727
133	0xbe47b19f	-0.19501351
134	0x3ea2160b	0.31657442
135	0x3eaf032d	0.3418211
136	0x3e36de0c	0.17858142
137	0xbe6a2bac	-0.22868222
138	0xbec76017	-0.38940498
139	0x3ec19c2b	0.3781446
140	0xbd386e46	-0.04502704
141	0xbea20c56	-0.31650037
142	0x3eabfc9a	0.33591157
143	0xbe9fdd43	-0.31223497
144	0xbe8e01b9	-0.2773569
145	0xbead8a36	-0.3389451
146	0xbe9619fd	-0.29316702
147	0xbd361df1	-0.044462148
148	0x3e4dda78	0.2010287
149	0xbe7bb972	-0.2458246
150	0xbe87c678	-0.26518607
151	0xbe9f6268	-0.31129766
152	0xbde06bc1	-0.109580524
153	0x3e3661b4	0.17810708
154	0xbe93d195	-0.28870836
155	0x3e6e683a	0.23281947
156	0xbcabcf1b	-0.020972779
157	0xbeb26c6a	-0.34848338
158	0x3ebcd965	0.3688461
159	0x3caba3bd	0.0209521
160	0xbe85778c	-0.2606777
161	0x3d3ca190	0.046052516
162	0x3e89e03c	0.2692889
163	0xbd773534	-0.060353473
164	0x3eaa8db1	0.33311227
165	0xbec19840	-0.3781147
166	0x3bb1576d	0.0054120333
167	0xbe92e2cf	-0.28688666
168	0x3d99e81e	0.07514976
169	0x3df5b01f	0.11996483
170	0x3dd17b0e	0.10228549
171	0xbc8af563	-0.016962713
172	0xbe99fb22	-0.30074412
173	0x3eba2741	0.36358073
174	0x3eab7c2e	0.3349318
175	0x3e160abf	0.14652537
176	0x3d3d8dec	0.046277925
177	0xba40ed18	-0.00073595485
178	0xbd5f408f	-0.054504927
179	0xbe5d518f	-0.21613143
180	0xbe4de2e4	-0.20106083
181	0xbd34fd57	-0.044186916
182	0xbe43fff9	-0.19140615
183	0xbe89d75c	-0.2692212
184	0xbe24fd32	-0.16112211
185	0x3d2ae9c9	0.04172686
186	0xbd967370	-0.07346237
187	0x3e77305a	0.24139538
188	0xbec11832	-0.37713772
189	0x3d6e84ed	0.058232237
190	0x3e27840a	0.16358963
191	0xbe237a0c	-0.15964526
192	0x3e7ae1e1	0.24500228
193	0x3df02e10	0.11727536
194	0x3e7c2148	0.24622071
195	0x3ec5e0d5	0.38648096
196	0x3e7a7bec	0.24461335
197	0x3e8235a2	0.25431544
198	0xbe657a36	-0.22409901
199	0x3e0b5e66	0.13610229
200	0xbd76009f	-0.060059186
201	0x3ea2b82f	0.31781146
202	0xbde11238	-0.10989803
203	0xbeb12e81	-0.34605792
204	0xbea7b578	-0.32755637
205	0x3e43b292	0.19111088
206	0x3e5baf6c	0.21453637
207	0xbe621e06	-0.22081766
208	0x3e05ebef	0.13078283
209	0x3e9b2eab	0.30309042
210	0x3e9078e6	0.28217238
211	0xbca9942b	-0.020700535
212	0xbd327006	-0.043563865
213	0xbd76f3ff	-0.060291287
214	0xbe36c460	-0.17848349
215	0x3ec93133	0.3929535
216	0xbe3a8869	-0.18216099
217	0x3cd520b2	0.026016567
218	0xbebfab9c	-0.37435615
219	0x3ec2a776	0.38018388
220	0x3eae8b3e	0.34090608
221	0xbe4fa906	-0.20279321
222	0x3df12d90	0.117762685
223	0xbd27f44b	-0.04100446
224	0xbc9091e5	-0.017647693
225	0x3e546029	0.20739807
226	0xbe9d2160	-0.30689526
227	0xbdb791fd	-0.08963392
228	0x3ebe374c	0.37151563
229	0x3d411708	0.047141105
230	0xbd3b93a2	-0.04579509
231	0x3e1d0c3f	0.15336703
232	0x3e4147a4	0.18874985
233	0xbe2fc908	-0.17166531
234	0x3ec52ae4	0.38509285
235	0xbd8b1261	-0.06790615
236	0xbe2d8014	-0.16943389
237	0xbebe6d0f	-0.3719258
238	0x3dae316f	0.085055225
239	0xbec08d1f	-0.37607667
240	0xbecb7694	-0.39738905
241	0x3eb22b17	0.347985
242	0x3da66005	0.08123783
243	0xbe603324	-0.21894509
244	0x3e561e0c	0.209099
245	0x3e03df5e	0.12878177
246	0x3eaef96d	0.34174672
247	0x3e61bbad	0.22044249
248	0x3dc30f09	0.09524352
249	0x3d97ed24	0.07418278
250	0xbdb69b87	-0.08916383
251	0xbe6c57db	-0.23080389
252	0x3ebd4886	0.36969393
253	0xbc6b1230	-0.014347598
254	0xbe6e7987	-0.23288547
255	0xbb7c0429	-0.0038454628

model.gcn1.bias f4 [16]
0	0xb99d494e	-0.0002999999
1	0xb99d4672	-0.0002999786
2	0xb99d46f1	-0.0002999823
3	0x399d46f1	0.0002999823
4	0xb99d494e	-0.0002999999
5	0x399d48ef	0.00029999713
6	0x399d494d	0.00029999987
7	0xb99d494c	-0.00029999984
8	0xb99d494d	-0.00029999987
9	0x399d4915	0.00029999824
10	0xb99d494d	-0.00029999987
11	0xb99d494d	-0.00029999987
12	0x399d48f7	0.00029999737
13	0x399d45c9	0.00029997368
14	0xb99d4652	-0.00029997766
15	0x399d475b	0.00029998538

model.gcn2.weight f4 [16, 16]
0	0xbdecb339	-0.115576215
1	0x3e916e8b	0.2840465
2	0x3e308dbd	0.17241569
3	0x3e822b76	0.25423783
4	0x3e96eac3	0.29475984
5	0xbe77a4cb	-0.24183957
6	0x3e8cf739	0.27532366
7	0xbe88885b	-0.2666653
8	0xbea9d6e2	-0.33171755
9	0xbd90273b	-0.070387326
10	0xbd901d53	-0.07036843
11	0xbe66d7e2	-0.2254329
12	0xbe9810f3	-0.2970043
13	0x3e85620a	0.2605136
14	0x3c4d4ae8	0.012530066
15	0x3e8f5d9e	0.28001112
16	0xbc70f03b	-0.014705713
17	0x3d8287fd	0.06373594
18	0x3dd0db31	0.101980574
19	0x3df059e1	0.11735893
20	0x3e1b8a55	0.15189488
21	0xbec6b932	-0.38813168
22	0xbea9346d	-0.3304781
23	0xbe8201c7	-0.2539198
24	0x3e37f579	0.17964734
25	0x3ea361a0	0.3191042
26	0xbe05f7ec	-0.13082856
27	0xbe6cdd3b	-0.23131268
28	0xbed1cc3a	-0.40976125
29	0x3cc6f2ee	0.02428576
30	0xbeb2d3ad	-0.3492712
31	0xbce1e8a8	-0.02757676
32	0xbd059f0e	-0.03262239
33	0xbeaa499f	-0.33259293
34	0xbea77356	-0.32705182
35	0x3e558cfd	0.20854564
36	0xbd63732d	-0.055529762
37	0xbd79b592	-0.060964175
38	0x3e4769fa	0.1947402
39	0xbdb2d80f	-0.08732616
40	0xbdf555d0	-0.11979258
41	0x39c2ea36	0.00037177064
42	0xbec2c7e4	-0.3804313
43	0xbe39656c	-0.18105096
44	0xbe97eb3d	-0.2967166
45	0x3da73947	0.08165222
46	0x3e6fab30	0.23405147
47	0x3e5850e5	0.21124609
48	0xbeb34542	-0.35013777
49	0xbe932787	-0.28741094
50	0xbea5e487	-0.32400915
51	0x3c966ab7	0.018361432
52	0x3ed5167d	0.4161872
53	0xbe5a2882	-0.21304515
54	0xbe983e16	-0.29734868
55	0x3eb2931e	0.34877867
56	0x3eb243e3	0.34817418
57	0xbeae8f43	-0.34093675
58	0xbed74ab3	-0.42049178
59	0xbe997058	-0.29968524
60	0xbd9f48e6	-0.07777576
61	0xbebe1ec4	-0.37132847
62	0x3e5a298b	0.2130491
63	0xbc6dba3f	-0.014509737
64	0x3dfb5349	0.12271745
65	0xbedd92ce	-0.43276066
66	0xbcf893c9	-0.030343907
67	0x3d081643	0.033224355
68	0x3e877c71	0.2646213
69	0x3e88cc5f	0.26718423
70	0xbe2692ee	-0.16266987
71	0xbe06c3c2	-0.13160613
72	0x3e7e29e2	0.24820665
73	0xbebf521b	-0.3736733
74	0x3e9c3b85	0.3051416
75	0x3dd5c331	0.104376204
76	0x3ed2a8ce	0.41144413
77	0x3ed80f31	0.4219909
78	0xbe931b0d	-0.28731576
79	0x3e7868a3	0.24258666
80	0x3e9c63ca	0.30544883
81	0x3e8b6748	0.27227235
82	0xbec2f28a	-0.38075668
83	0x3e4e8800	0.20169067
84	0x3e3fa4b8	0.18715179
85	0xbe2a3ec2	-0.16625503
86	0x3e9737f4	0.29534876
87	0xbe886410	-0.26638842
88	0x3e9c3c53	0.30514774
89	0x3e74b379	0.23896588
90	0x3df38872	0.11891259
91	0x3e92749b	0.28604588
92	0x3e46f165	0.19428022
93	0xbe740df4	-0.23833448
94	0xbe4f77dd	-0.20260568
95	0x3dc11423	0.09427669
96	0xbd572427	-0.052524712
97	0xbecd078d	-0.40044823
98	0xbe960b56	-0.29305524
99	0x3daf263a	0.08552213
100	0xbe8d9e69	-0.2765992
101	0xbea6e1b8	-0.32594085
102	0x3e137ae0	0.14402342
103	0xbd31a4b6	-0.04336997
104	0xbea3b4a5	-0.31973758
105	0x3e2066aa	0.15664163
106	0x3eb9b028	0.3626721
107	0xbedbf2a5	-0.4295856
108	0xbedc3646	-0.43010157
109	0xbe2d31ed	-0.16913576
110	0xbe6ae863	-0.22940211
111	0xbec77c3b	-0.38961968
112	0x3e1be5c4	0.15224367
113	0xbeacd97f	-0.33759686
114	0xbd9e50eb	-0.07730278
115	0xbe6284d8	-0.22120988
116	0x3eaf191e	0.3419885
117	0x3e497808	0.19674695
118	0x3d42cd31	0.047558967
119	0xbcbb8197	-0.022888942
120	0xbd01ad43	-0.031659376
121	0x3e063658	0.13106668
122	0xbdd1171a	-0.102094844
123	0xbe1b38b7	-0.15158354
124	0xbde80dbc	-0.113307446
125	0xbccb999b	-0.024853518
126	0xbea10c2b	-0.31454596
127	0x3edbcf6c	0.42931688
128	0xbe01a95e	-0.12662265
129	0xbd4c61b9	-0.049897883
130	0xbec299fc	-0.38008106
131	0x3da01384	0.07816222
132	0xbcf1288c	-0.02943828
133	0x3e4ea8f3	0.20181637
134	0x3ea4e8b1	0.3220878
135	0x3e9bc6e5	0.30425182
136	0x3eac4bdb	0.33651623
137	0x3ec6e0c8	0.3884337
138	0x3e151af7	0.14561068
139	0xbe6666b9	-0.22500123
140	0xbea4c644	-0.32182515
141	0x3e15c3ad	0.14625426
142	0x3ed6a05b	0.41919217
143	0x3e69aa22	0.22818807
144	0xbddb2ba8	-0.10701686
145	0x3d41a402	0.04727555
146	0xbe867106	-0.26258105
147	0xbdd2c3f2	-0.1029128
148	0x3e50c7fa	0.20388785
149	0x3e5b358a	0.21407142
150	0xbe9bac7a	-0.30405027
151	0xbead41f1	-0.33839372
152	0xbea9c368	-0.33156896
153	0xbec340f4	-0.38135493
154	0x3e276b3f	0.16349505
155	0xbe949cb5	-0.29025808
156	0x3d53042f	0.05151766
157	0xbe1a5d7f	-0.15074728
158	0xbdab793d	-0.08372734
159	0x3da5843f	0.080818646
160	0xbe8e7823	-0.27826032
161	0xbe925d34	-0.28586733
162	0x3ea06746	0.3132879
163	0xbe84cf3f	-0.25939366
164	0xbdc26022	-0.09490992
165	0xbe83868b	-0.25688586
166	0x3dbbaab3	0.09163418
167	0xbd88d017	-0.06680315
168	0xbdc0e967	-0.09419518
169	0x3d8ec2ed	0.06970773
170	0xbd177d50	-0.03698474
171	0x3d23acbb	0.03995965
172	0x3e3cd8c3	0.18442063
173	0x3ecd1da4	0.40061677
174	0x3e9a6681	0.3015633
175	0x3e0db4a4	0.1383844
176	0xbe237a14	-0.15964538
177	0x3e0a7090	0.13519502
178	0xbdf28e3e	-0.11843537
179	0x3e38c5a9	0.18044151
180	0xbc91669d	-0.017749125
181	0xbec1b685	-0.37834564
182	0xbece7df6	-0.40330476
183	0x3e9b0443	0.3027669
184	0x3e993ef9	0.29930857
185	0xbe9a969e	-0.30193037
186	0xbe40ae70	-0.18816543
187	0x3d5ff9e7	0.054681685
188	0x3d991e74	0.074765116
189	0x3ed86144	0.42261708
190	0xbe240b17	-0.16019855
191	0x3e2b98d1	0.16757514
192	0x3eb18563	0.34672078
193	0x3e9c97ed	0.3058466
194	0x3e5d4cf6	0.2161139
195	0x3e5a7714	0.21334487
196	0xbdad2330	-0.08453977
197	0x3eaec002	0.34130865
198	0x3d97093d	0.07374809
199	0x3e9808d9	0.2969425
200	0x3e70f873	0.23532276
201	0x3d92fb52	0.07176842
202	0xbeb68822	-0.35650736
203	0x3e8bb083	0.27283105
204	0xbe85c5a0	-0.26127338
205	0x3c74ad9f	0.014933973
206	0xbd8293e0	-0.06375861
207	0xbe0a7966	-0.13522872
208	0xbe2d4eea	-0.16924635
209	0xbe80a2a0	-0.25124073
210	0x3eb5a850	0.35479975
211	0x3ec9db2c	0.39425027
212	0xbeb59258	-0.35463214
213	0x3cee129e	0.029061612
214	0x3eaf1f32	0.34203488
215	0x3e10ddf4	0.14147168
216	0x3e844092	0.25830513
217	0x3ea81e3d	0.3283557
218	0xbca4c263	-0.020112222
219	0xbec19972	-0.37812382
220	0xbd7477db	-0.059684616
221	0x3db2b2b4	0.08725491
222	0x3df2ba8a	0.11851986
223	0x3eab9d48	0.33518434
224	0x3e083a41	0.13303472
225	0x3ddb806d	0.10717855
226	0xbd08e597	-0.03342208
227	0x3eb49b02	0.35274512
228	0x3e17a540	0.14809132
229	0xbeb5b977	-0.3549306
230	0x3d973ffe	0.073852524
231	0x3e96f83a	0.29486257
232	0x3eb22639	0.34794787
233	0xbe545a7b	-0.2073764
234	0x3e1da66f	0.1539552
235	0xbe46412f	-0.19360803
236	0xbd962e18	-0.073330104
237	0xbe38a72f	-0.18032525
238	0x3d7a568b	0.06111769
239	0x3e787d8b	0.24266641
240	0xbe742ca0	-0.23845148
241	0xbe0df333	-0.13862304
242	0xbec543ea	-0.38528377
243	0x3ed4757a	0.41495878
244	0x3ed0cf6f	0.4078326
245	0x3e8eef97	0.27917168
246	0x3ebd7c22	0.37008768
247	0x3deb6e18	0.11495608
248	0x3e2ca1e8	0.16858637
249	0x3edbd175	0.4293324
250	0x3d62b56f	0.05534881
251	0xbc534e82	-0.012897136
252	0x3e236521	0.15956546
253	0xbe875f54	-0.26439917
254	0x3ec928ed	0.39289036
255	0xbedb1676	-0.42790574

model.gcn2.bias f4 [16]
0	0xb99d48c9	-0.00029999603
1	0x399d4779	0.00029998625
2	0xb99d48e6	-0.00029999687
3	0xb99d494d	-0.00029999987
4	0xb99d494d	-0.00029999987
5	0x399d48eb	0.00029999702
6	0x399d4911	0.00029999812
7	0xb99d46c9	-0.00029998113
8	0x399d4931	0.00029999905
9	0xb99d4918	-0.00029999833
10	0xb99d4941	-0.00029999952
11	0x399d48e8	0.00029999693
12	0xb99d474d	-0.00029998497
13	0xb99d494e	-0.0002999999
14	0x399c538d	0.0002981689
15	0xb99d4950	-0.00029999996

model.gcn3.weight f4 [16, 16]
0	0x3e58b63d	0.21163268
1	0xbe9d9022	-0.30774027
2	0x3e408c26	0.18803462
3	0x3e400a0d	0.18753834
4	0xbdc60215	-0.09668366
5	0x3dd5a758	0.10432309
6	0x3ea76839	0.32696703
7	0xbc545525	-0.012959753
8	0xbe3b1133	-0.1826828
9	0xbecbc3dc	-0.39797866
10	0xbe78f24f	-0.24311183
11	0xbe8f28b2	-0.27960736
12	0x3e053ae4	0.13010746
13	0xbea7be66	-0.3276245
14	0xbeceddfc	-0.40403736
15	0xbe3093db	-0.17243902
16	0x3e93c27c	0.28859317
17	0x3d825aff	0.063650124
18	0x3ddd037a	0.10791679
19	0xbd24502b	-0.040115517
20	0xbe936160	-0.2878523
21	0x3e543b71	0.207258
22	0xbea2f61b	-0.3182839
23	0xbebe8158	-0.37208056
24	0xbe938452	-0.2881189
25	0xbe227f1c	-0.15868801
26	0x3dad87e7	0.08473187
27	0xbde8fbc2	-0.11376144
28	0x3cbadf14	0.02281145
29	0x3dbc8481	0.092049606
30	0xbc93ecee	-0.018057313
31	0x3ebc3262	0.3675719
32	0xbed0c453	-0.40774783
33	0xbe1d1d1a	-0.15343133
34	0x3e3f5c03	0.18687443
35	0x3de44b0a	0.11147125
36	0x3e716c30	0.23576427
37	0xbe95f9c9	-0.29292133
38	0x3cac5f44	0.02104152
39	0x3cf14af7	0.029454691
40	0x3ed55983	0.41669855
41	0x3ebb432b	0.36574683
42	0x3ed70336	0.41994637
43	0x3e85c798	0.2612884
44	0xbe0856fc	-0.13314432
45	0x3b2a3348	0.0025970507
46	0x3e009bf8	0.12559497
47	0x3ec40897	0.38287804
48	0xbe608b8f	-0.21928237
49	0x3db19165	0.0867031
50	0xbe405fc8	-0.18786538
51	0xbdd299e0	-0.102832556
52	0xbe7774da	-0.24165669
53	0x3eb0b046	0.34509486
54	0x3e766db3	0.24065284
55	0x3b69d750	0.0035681315
56	0x3c315686	0.010823851
57	0xbcc06c17	-0.023489041
58	0x3dc94db7	0.09829276
59	0xbde57bf3	-0.11205282
60	0x3ec713f3	0.38882408
61	0x3d593371	0.053027574
62	0xbe9c307e	-0.30505747
63	0xbe8eff7e	-0.279293
64	0xbecccfad	-0.40002194
65	0x3df951d2	0.12173809
66	0xbeac1288	-0.33607888
67	0xbe917e9b	-0.28416905
68	0xbeb2c56f	-0.34916255
69	0x3e37e516	0.17958483
70	0x3e3c784d	0.18405266
71	0x3ea065ad	0.31327572
72	0x3ec3f532	0.38273007
73	0xbebccbcc	-0.36874235
74	0x3e832cac	0.2562002
75	0x3e05adc0	0.13054562
76	0xbc490ada	-0.012270654
77	0xbeb49ce7	-0.35275957
78	0x3e018002	0.12646487
79	0xbece6d4d	-0.40317765
80	0xbe6fcb38	-0.23417366
81	0x3eaef501	0.34171298
82	0x3ebaf664	0.36516106
83	0xbe8f9965	-0.28046718
84	0xbec70725	-0.38872638
85	0xbc09ac08	-0.008402832
86	0xbe9072f1	-0.28212693
87	0x3d89f775	0.06736652
88	0x3e952231	0.29127648
89	0xbe8f6acc	-0.28011167
90	0xbe88fbec	-0.267547
91	0x3dc5fdaf	0.09667527
92	0x3eaa42d5	0.33254114
93	0xbe601208	-0.21881878
94	0xbea479bd	-0.3212413
95	0xbdacd1dc	-0.08438465
96	0xbe300195	-0.17188103
97	0x3ec55dfb	0.38548264
98	0x3e03ae4c	0.12859458
99	0xbe6f9a1a	-0.23398629
100	0x3ed95137	0.42444775
101	0xbd416b12	-0.04722125
102	0xbeb9e10e	-0.36304516
103	0xbdd70a23	-0.1049998
104	0xbe15ffcf	-0.14648364
105	0xbdb04ef0	-0.08608806
106	0x3beb71f9	0.0071852175
107	0xbea44cfc	-0.32089984
108	0x3e976b69	0.29574135
109	0xbe3e9022	-0.1860967
110	0x3e2a6a49	0.16642107
111	0xbed2d903	-0.41181192
112	0xbe76a4e9	-0.24086346
113	0xbe963b40	-0.2934208
114	0x3e85701e	0.260621
115	0xbe6dcbf3	-0.23222332
116	0x3e0b6f41	0.13616659
117	0xbebe9182	-0.3722039
118	0x3dab533d	0.08365486
119	0xbe664fd7	-0.22491394
120	0xbe3fe16f	-0.1873834
121	0xbc9e897d	-0.019352669
122	0x3e921e28	0.28538632
123	0xbecc195c	-0.39863098
124	0x3e817b7d	0.25289527
125	0xbdee68cb	-0.116410814
126	0x3ed4af03	0.41539773
127	0x3dfb847e	0.1228113
128	0xbed32ec7	-0.41246626
129	0x3e9e1e8d	0.30882683
130	0x3e73286e	0.23745891
131	0x3ea4e512	0.32206017
132	0xbead0495	-0.33792558
133	0x3e83cc09	0.25741604
134	0xbea3809d	-0.31934062
135	0xbe1c101f	-0.15240525
136	0x3e7fbe51	0.24974944
137	0xbe7718a8	-0.241305
138	0xbec9af2a	-0.39391452
139	0xbea8f2d6	-0.3299777
140	0xbd8c4828	-0.068497
141	0xbe47668b	-0.19472711
142	0x3ed3e6a3	0.413869
143	0xbecd891c	-0.4014367
144	0x3ea60140	0.3242283
145	0x3d25763b	0.040395956
146	0xbe9ffaa6	-0.31245917
147	0x3d9ee7bf	0.07759046
148	0xbe730add	-0.23734613
149	0x3d87820c	0.06616601
150	0x3ed0cace	0.40779728
151	0x3ebcc5f2	0.3686977
152	0xbecb3244	-0.39686787
153	0x3ed3ba6f	0.41353175
154	0xbd394261	-0.04522932
155	0x3d34121c	0.043962583
156	0xbe881369	-0.2657731
157	0xbebd03a6	-0.36916846
158	0x3ebd3ca2	0.36960322
159	0xbd5ce216	-0.05392655
160	0x3dd33f5b	0.103148185
161	0xbe582e92	-0.21111515
162	0xbbfe065d	-0.0077522234
163	0xbec52e22	-0.3851176
164	0x3e911b8c	0.2834133
165	0x3e85e902	0.26154333
166	0x3edaf14d	0.42762223
167	0x3db5aa70	0.08870399
168	0xbdbfbf6f	-0.09362685
169	0xbed44390	-0.41457796
170	0x3d562f0e	0.05229097
171	0x3d87ff30	0.0664047
172	0xbeccf3bf	-0.40029714
173	0x3df84bff	0.1212387
174	0xbe624d48	-0.22099793
175	0xbedcc14c	-0.43116224
176	0xbd942847	-0.07234245
177	0xbd41f18d	-0.0473495
178	0x3e8f384c	0.2797264
179	0x3e1029bf	0.14078425
180	0xbc77b2c4	-0.015118305
181	0xbe5ec3c6	-0.21754369
182	0xbe7da626	-0.24770412
183	0x3e3d0fa1	0.18462993
184	0xbe46f9b1	-0.19431187
185	0xbc27aac2	-0.010233583
186	0xbe9d3032	-0.30700833
187	0xbc994519	-0.018709706
188	0xbe1e2316	-0.15443072
189	0xbc6f5e7d	-0.01460993
190	0x3e92eb51	0.28695157
191	0x3da021e7	0.07818966
192	0x3d0d18bf	0.034447428
193	0xbec87b20	-0.39156437
194	0x3dcbaacb	0.099446855
195	0xbd8fcb4a	-0.07021196
196	0x3e8a4b69	0.27010658
197	0xbe1c34d5	-0.15254529
198	0xbdf1a916	-0.11799829
199	0x3ec41141	0.38294414
200	0x3dc5b7c1	0.09654189
201	0x3dc9ed99	0.09859771
202	0xbe1dc269	-0.15406193
203	0xbecfd6da	-0.40593606
204	0x3e6816ef	0.22664998
205	0x3ea0f246	0.3143484
206	0x3e87ed58	0.26548266
207	0xbe2c5b59	-0.16831721
208	0xbe4da5a8	-0.20082724
209	0xbe4dd516	-0.20100817
210	0xbeb992e8	-0.36244893
211	0x3edb1365	0.42788234
212	0xbd95b22c	-0.07309374
213	0x3ecf88cd	0.40534058
214	0xbcc48031	-0.023986908
215	0x3e133963	0.1437736
216	0xbe30ec0c	-0.17277545
217	0x3da18834	0.07887307
218	0xbe2a7af5	-0.16648467
219	0xbe269a74	-0.16269857
220	0x3e855a39	0.26045397
221	0x3e6d5133	0.23175506
222	0xbd0dabe4	-0.034587756
223	0x3ec0ecec	0.37680757
224	0x3ea4c9c4	0.32185185
225	0x3e82f624	0.25578415
226	0xbead065e	-0.3379392
227	0xbeb3d040	-0.3511982
228	0x3e2cb782	0.16866878
229	0x3d86320f	0.06552517
230	0xbed9e331	-0.42556146
231	0xbc99874a	-0.018741269
232	0xbe6d0294	-0.23145515
233	0x3cfb7fd4	0.030700602
234	0xbdce9826	-0.10087614
235	0x3e80ffc9	0.2519515
236	0x3e798848	0.24368393
237	0x3eaf8fe0	0.34289455
238	0xbdda55e1	-0.10660911
239	0x3e82863f	0.25493047
240	0xbe94eee6	-0.29088515
241	0xbe54fe2a	-0.20800081
242	0x3cdbcc76	0.026830893
243	0x3e84e7ff	0.2595825
244	0x3e0ded5d	0.13860078
245	0x3ea85c14	0.3288275
246	0xbeb3d4ba	-0.35123235
247	0x3e83c64e	0.25737232
248	0x3e3488d3	0.1763032
249	0x3e05ffcb	0.13085859
250	0x3e8b45db	0.27201733
251	0xbe84c895	-0.25934282
252	0xbcf0c0fe	-0.0293889
253	0x3ec1ed27	0.37876245
254	0xbc5a2bab	-0.013316075
255	0x3e464cfa	0.19365302

model.gcn3.bias f4 [16]
0	0x399d494c	0.00029999984
1	0x399d494e	0.0002999999
2	0x399d494f	0.00029999993
3	0x399d4943	0.00029999958
4	0x399d494e	0.0002999999
5	0xb99d494f	-0.00029999993
6	0x399d494a	0.00029999978
7	0xb99d4946	-0.00029999967
8	0x399d494c	0.00029999984
9	0x399d4940	0.0002999995
10	0xb99d494c	-0.00029999984
11	0x399d494e	0.0002999999
12	0x399d4947	0.0002999997
13	0xb99d494d	-0.00029999987
14	0xb99d494a	-0.00029999978
15	0xb99d4949	-0.00029999975

model.fc1.weight f4 [16, 16]
0	0x3e04595c	0.12924713
1	0xbe7a4cf6	-0.24443421
2	0x3e0bb89c	0.13644642
3	0x3e3ad6ec	0.18246049
4	0xbd8b6059	-0.06805486
5	0xbd99abf5	-0.07503501
6	0xbe0d3b70	-0.13792205
7	0x3ca0ff8d	0.019653106
8	0x3e21b3cb	0.15791242
9	0xbc73565b	-0.014852132
10	0x3e37a996	0.17935786
11	0x3d410eee	0.04713338
12	0xbe43a132	-0.1910446
13	0xbe28e4d8	-0.16493547
14	0xbbd98d3c	-0.006639151
15	0xbe15f99a	-0.14645997
16	0x3bff63d4	0.007793883
17	0x3e23565d	0.15950914
18	0xbe2ab9ab	-0.16672389
19	0xbdf9199c	-0.12163088
20	0xbe377f09	-0.17919554
21	0xbe459adf	-0.1929736
22	0xbe409f9b	-0.18810885
23	0xbda0fc2d	-0.07860599
24	0xbdeeae55	-0.11654345
25	0x3e56f565	0.20992048
26	0x3e40573d	0.18783279
27	0x3c108a09	0.008821973
28	0x3e3f8e1e	0.18706557
29	0x3b6673d9	0.0035164265
30	0x3d812a79	0.06306929
31	0xbcd0b9bb	-0.025479188
32	0x3e40565d	0.18782945
33	0xbbb6d0dd	-0.0055790977
34	0xbe747ed3	-0.23876505
35	0xbda44570	-0.08021057
36	0x3d939093	0.0720531
37	0xbd6d78e4	-0.05797662
38	0xbe6dc2fa	-0.23218909
39	0x3b4980df	0.003074698
40	0x3e1dfc91	0.15428378
41	0x3d1a7089	0.03770498
42	0xbe2a9cfd	-0.16661449
43	0xbd66bf6b	-0.056334894
44	0x3e397e30	0.18114543
45	0xbd833b2a	-0.06407769
46	0xbd9782b3	-0.07397976
47	0xbdfc8248	-0.12329537
48	0xbd9eea5b	-0.077595435
49	0xbe2a1989	-0.16611303
50	0x3db1ffcd	0.08691368
51	0xbe7115d9	-0.2354349
52	0x3df9b98d	0.12193594
53	0x3dc84687	0.09779077
54	0xbddbb435	-0.10727731
55	0x3e64232f	0.22279046
56	0x3dfe405b	0.124146186
57	0x3dba4191	0.09094537
58	0x3e4d52bb	0.2005109
59	0xbd83c0bf	-0.06433248
60	0xbe01f6eb	-0.12691848
61	0xbe6524f9	-0.22377385
62	0x3dfae1a1	0.122500665
63	0x3cc2d505	0.023783216
64	0xbddca21d	-0.10773108
65	0x3cc6b29c	0.02425509
66	0x3e7168ef	0.23575185
67	0x3e20a3d2	0.15687492
68	0x3e45c9d0	0.19315267
69	0x3dd46235	0.10370294
70	0x3d34f34a	0.04417733
71	0xbe193d99	-0.14964904
72	0x3de41c1c	0.11138174
73	0x3d49aae6	0.049235247
74	0x3db7ce45	0.0897489
75	0xbe517cd4	-0.20457774
76	0x3e6f483f	0.23367403
77	0xbe75b605	-0.23995216
78	0xbe3a1064	-0.18170315
79	0x3e1d86a6	0.15383396
80	0xbbc72354	-0.0060772095
81	0xbe0e2a13	-0.13883238
82	0x3e55919f	0.20856331
83	0xbd2b9f69	-0.041900072
84	0xbd699de7	-0.057035353
85	0xbe78593d	-0.24252792
86	0x3e6c2fef	0.2306516
87	0xbe05c57d	-0.13063617
88	0xbded723f	-0.11594056
89	0xbe429a8b	-0.19004266
90	0x3d86c4ed	0.06580529
91	0xbcc9bc24	-0.024625845
92	0xbd733920	-0.05938065
93	0xbe5ed4e7	-0.21760903
94	0xbbc64e12	-0.006051787
95	0xbdf688e9	-0.12037832
96	0xbe4bfd6b	-0.1992089
97	0xbe55949f	-0.20857476
98	0xbe79007d	-0.24316593
99	0x3e0b842f	0.13624643
100	0xbe16e159	-0.14734401
101	0xbe3097e5	-0.17245443
102	0xbe4b957f	-0.19881247
103	0xbe5a72cf	-0.21332859
104	0xbd864dad	-0.06557784
105	0xbe4a1ee5	-0.19738348
106	0xbdf38395	-0.11890332
107	0x3dc04af5	0.09389297
108	0x3d2d7373	0.04234643
109	0x3e5337cf	0.20626758
110	0x3e4b1797	0.19833218
111	0xbe6f1353	-0.23347215
112	0xbe7b8c17	-0.24565159
113	0xbd02335a	-0.031787254
114	0xbc747f68	-0.014922954
115	0x3e586826	0.2113348
116	0x3e7ed766	0.24886855
117	0xbd459bf6	-0.04824444
118	0x3e673bbc	0.2258138
119	0xbde6d25f	-0.11270594
120	0x3dc7e78f	0.09760963
121	0x3d2ee6fe	0.04270076
122	0xbe5cc4fc	-0.21559519
123	0xbda35741	-0.07975627
124	0x3e67ddd3	0.22643213
125	0xbe226f30	-0.15862727
126	0x3e3fd89a	0.1873497
127	0x3d894687	0.06702905
128	0xbd40b58d	-0.04704814
129	0x3e546be9	0.2074429
130	0x3e3cfe33	0.18456344
131	0x3c8eb7e5	0.017421672
132	0xbe76ebbb	-0.24113362
133	0x3e33b915	0.17551072
134	0xbe327483	-0.17427258
135	0x3d9998ff	0.07499885
136	0x3e799cab	0.2437617
137	0xbb8773ab	-0.0041336617
138	0x3e212bd5	0.15739377
139	0xbd0a914d	-0.033829976
140	0xbd629be5	-0.055324454
141	0x3d60c79d	0.054877866
142	0x3dd43261	0.103611715
143	0xbdfc560b	-0.12321099
144	0xbe6a971f	-0.2290921
145	0x3bfac9eb	0.007653465
146	0x3ca73ddb	0.020415237
147	0xbe732e57	-0.23748146
148	0xbda4a32f	-0.08038937
149	0x3e67a8f5	0.22623046
150	0x3c0ec3ea	0.008713702
151	0x3d841d85	0.06450943
152	0xbe3be797	-0.18350063
153	0xbe0435f5	-0.12911208
154	0xba19a158	-0.0005860529
155	0x3e3d82cb	0.18506925
156	0x3e5440cf	0.20727848
157	0x3b2bceaa	0.002621571
158	0x3de1e33b	0.11029669
159	0x3e2d1053	0.16900758
160	0x3e08e46b	0.13368385
161	0x3e1197d1	0.1421807
162	0x3b88b22c	0.0041716304
163	0xbc2f7af6	-0.0107104685
164	0x3dfe6267	0.124211125
165	0xbd8b8ddf	-0.06814169
166	0x3ae7bf4f	0.0017680916
167	0x3db0c025	0.08630399
168	0x3dc90815	0.09815995
169	0xbd163c03	-0.036678325
170	0x3dfa2af1	0.12215222
171	0x3d3594e6	0.044331454
172	0xbe6707fc	-0.2256164
173	0xbe50829f	-0.20362328
174	0x3e69df71	0.22839142
175	0x3e16a6c7	0.14712058
176	0x3dc07481	0.09397221
177	0xbe5f03f7	-0.21778856
178	0xbb0f8a56	-0.0021902523
179	0x3d996ae7	0.07491093
180	0xbe791724	-0.24325234
181	0x3e79088f	0.24319671
182	0x3e72b529	0.2370192
183	0xbe62933b	-0.22126476
184	0xbe422dc9	-0.18962778
185	0x3e0632a3	0.13105254
186	0x3ded3523	0.11582401
187	0xbe74d5bb	-0.23909657
188	0xbb557c56	-0.003257533
189	0xbd4991eb	-0.049211424
190	0xbe1c5fc7	-0.15270911
191	0x3e09abb9	0.13444413
192	0x3d0bb9f3	0.034112882
193	0xbdaca057	-0.0842902
194	0xbdae7fc3	-0.08520462
195	0xbe53193d	-0.20615096
196	0xbcd4088b	-0.02588298
197	0x3e44c229	0.19214691
198	0x3e15340d	0.14570637
199	0x3db721a3	0.089419626
200	0x3e7ba661	0.24575187
201	0x39213aa2	0.00015375999
202	0xbddd5061	-0.10806347
203	0x3d1f49a3	0.038888585
204	0xbe4c8eab	-0.19976299
205	0xbdda0571	-0.10645569
206	0x3d903a35	0.07042352
207	0x3e68a1d7	0.22717987
208	0x3d236773	0.03989358
209	0xbe65cf8b	-0.22442453
210	0xbe665559	-0.22493495
211	0xbc96b75c	-0.01839798
212	0xbda0c61f	-0.078502886
213	0x3d244c65	0.040111918
214	0x3e110373	0.14161472
215	0xbe4623a3	-0.19349532
216	0xba86e654	-0.0010292032
217	0xbda36d7f	-0.07979869
218	0x3e0e3fa7	0.13891469
219	0xbe4c1abb	-0.19932072
220	0x3d103cc3	0.035214197
221	0x3e1ea55f	0.15492772
222	0x3d1bbd73	0.03802247
223	0x3e67ff43	0.22655968
224	0x3e6018e3	0.21884494
225	0x3d71e97e	0.059060566
226	0x3e280f83	0.16412167
227	0x3e776a3f	0.24161623
228	0x3db5f6f4	0.08884993
229	0x3e50f825	0.2040716
230	0x3dbcf3c1	0.0922618
231	0x3e503271	0.20331742
232	0xbdd1f7b3	-0.10252323
233	0x3e1d9659	0.15389384
234	0x3d3eaa92	0.046549387
235	0x3d270ff6	0.040786706
236	0xbe7bdf6c	-0.24596947
237	0xbdbe8897	-0.09303396
238	0x3e3225ef	0.17397283
239	0x3d019cfe	0.03164386
240	0xbe064f9f	-0.1311631
241	0xbd84a1bb	-0.0647616
242	0xbe166479	-0.14686765
243	0xbce6bbbb	-0.028165689
244	0xbdd0265f	-0.10163569
245	0x3e64ac01	0.2233124
246	0xbe0c784f	-0.13717769
247	0x3e369a57	0.17832313
248	0xbe7914d5	-0.24324353
249	0xbd771285	-0.060320396
250	0x3dd4f33f	0.10397958
251	0xbe434dbf	-0.19072627
252	0x3d65c47b	0.05609558
253	0x3e5cc545	0.21559627
254	0x3ceebb15	0.029141942
255	0x3d9f0d51	0.07766212

model.fc1.bias f4 [16]
0	0xbe2ccd4e	-0.16875193
1	0x3e19d858	0.15023935
2	0x3e0276cf	0.12740634
3	0xbe177bb1	-0.14793278
4	0xbd9895bb	-0.07450434
5	0x3e4d42b0	0.2004497
6	0x3dee69b3	0.11641254
7	0xbe5f378a	-0.2179853
8	0xbe20d783	-0.15707211
9	0x3daa9675	0.08329479
10	0x3e257e10	0.1616137
11	0xbe247ef5	-0.16064055
12	0x3ddcf813	0.10789504
13	0xbdf2620d	-0.11835108
14	0x3dd3e6e9	0.10346777
15	0x3de8038b	0.11328801

model.fc2.weight f4 [6, 16]
0	0x3d57e326	0.05270686
1	0xbe755945	-0.23959835
2	0xbe00bf5d	-0.12573
3	0xbe2fd1b3	-0.17169838
4	0x3e534951	0.20633437
5	0x3e6ebb4b	0.23313634
6	0x3e5fa52f	0.21840356
7	0x3b81fbf0	0.003966801
8	0x3e609945	0.21933468
9	0x3d812075	0.06305019
10	0x3e7759e5	0.24155386
11	0x3ca3afc5	0.019981274
12	0xbd3ba825	-0.045814652
13	0xbddaf657	-0.10691517
14	0x3da7a177	0.08185094
15	0x3dc95959	0.09831495
16	0xbd5d890a	-0.05408577
17	0x3e265175	0.16242011
18	0x3e022b7b	0.12711899
19	0xbe1c67e3	-0.15274005
20	0xbd7264b2	-0.05917806
21	0xbd0356ca	-0.03206519
22	0xbdc21a67	-0.09477692
23	0xbe5dd2d3	-0.21662454
24	0x3b918c55	0.0044417777
25	0xbe380dc5	-0.17974003
26	0x3d9a4597	0.075328045
27	0x3b110d2a	0.002213309
28	0xbe2c575f	-0.16830204
29	0xbe7f3a69	-0.24924625
30	0x3e57337a	0.2101573
31	0xbe3f04dd	-0.18654199
32	0xbd955880	-0.07292271
33	0x3dff2c89	0.12459666
34	0xbe577508	-0.21040738
35	0xbb4a562a	-0.0030874112
36	0xbcb94da0	-0.022620022
37	0x3a6f9460	0.0009139236
38	0x3cd911db	0.026497772
39	0x3dbf8e57	0.09353321
40	0xbc2f43ca	-0.0106973145
41	0xbb2497aa	-0.0025114813
42	0xbc2506f9	-0.010072463
43	0xbd6750bb	-0.056473475
44	0xbe0268e5	-0.12735327
45	0xbdc96979	-0.098345704
46	0xbd84823a	-0.06470151
47	0x3ca48ebb	0.02008759
48	0xbdb8d425	-0.09024838
49	0x3df27cc3	0.11840203
50	0x3dae5837	0.085129194
51	0xbe4bf689	-0.19918264
52	0xbe5fac0d	-0.21842976
53	0xbe07f175	-0.13275702
54	0xbe756be1	-0.23966934
55	0x3e4a4859	0.19754161
56	0x3d1fe02b	0.039032143
57	0xbb6fa056	-0.0036564074
58	0x3cb3a25b	0.021928003
59	0xbe4a0359	-0.1972784
60	0x3db01e05	0.08599476
61	0x3e286409	0.1644441
62	0xbd2896da	-0.04115949
63	0xbe4860b5	-0.19568141
64	0x3d77dc92	0.060513087
65	0x3e4a4781	0.19753839
66	0x3d4e0052	0.050293274
67	0x3e061beb	0.13096587
68	0xbda6c293	-0.08142581
69	0xbde1cdeb	-0.11025604
70	0xbdd82d59	-0.105555244
71	0x3e1a8177	0.1508845
72	0x3e2e027d	0.16993137
73	0xbe7e4d87	-0.24834262
74	0xbc31af56	-0.010845026
75	0x3df75893	0.12077441
76	0xbc3410ab	-0.010990302
77	0x3dd41a0f	0.10356533
78	0xbd22f046	-0.039779924
79	0x3e521915	0.2051738
80	0xbdd1e2b3	-0.102483176
81	0x3e1e8d65	0.15483625
82	0x3cf31dc5	0.029677281
83	0xbe7b9ebd	-0.24572273
84	0xbe19419b	-0.14966433
85	0xbe0cf5a5	-0.13765581
86	0x3e68e2eb	0.22742812
87	0xbe501375	-0.20319922
88	0x3e02095f	0.12698887
89	0x3d417f6d	0.047240663
90	0xbe40b519	-0.18819083
91	0x3c42e2b5	0.0118948715
92	0x3e0cad01	0.13737871
93	0xbdca4605	-0.098766364
94	0xbd9bb6af	-0.076032035
95	0x3e35ed01	0.17766191

model.fc2.bias f4 [6]
0	0xbe467837	-0.19381796
1	0x3d769f73	0.060210656
2	0xbe25202f	-0.16125558
3	0x3dae8135	0.08520738
4	0xbe1d50b9	-0.15362824
5	0x3e5216d5	0.20516522

exp_avg f4 [21, 16]
0	0x3d095a22	0.033533223
1	0x38b09d67	8.4216525e-05
2	0x3916cfcf	0.0001438253
3	0xb90626e5	-0.00012793725
4	0x3d118e58	0.03553614
5	0xb9a5ae13	-0.00031600948
6	0xbcd5fb6d	-0.026120866
7	0x3c9764ef	0.018480746
8	0x3c7d91ff	0.015476703
9	0xba7867cf	-0.0009475918
10	0x3c90d623	0.017680233
11	0x3ceac3b2	0.028657768
12	0xba212b40	-0.00061481073
13	0x37a682ba	1.9849616e-05
14	0x390155be	0.0001233434
15	0xb938c68d	-0.00017621573
16	0x3d8d690e	0.06904803
17	0x3936b61e	0.00017424716
18	0x399b8b4f	0.00029667697
19	0xb95d3cda	-0.00021098871
20	0x3d911298	0.070836246
21	0xb9e287a2	-0.00043207133
22	0xbd5c1137	-0.053727355
23	0x3d12681f	0.03574383
24	0x3cd8e392	0.026475701
25	0xbb0b68a1	-0.002127208
26	0x3d0ac1e0	0.0338763
27	0x3d6e356b	0.058156412
28	0xbab3e983	-0.0013726208
29	0xb8373e53	-4.3688644e-05
30	0x397ed008	0.00024300825
31	0xb99a0928	-0.0002937999
32	0x3df58aff	0.11989402
33	0x3911e5b5	0.0001391385
34	0x3a080415	0.00051885966
35	0xb9e186d2	-0.00043015793
36	0x3e037f2b	0.1284148
37	0x3b0c011e	0.002136297
38	0xbdc13739	-0.09434361
39	0x3d889f9a	0.066710666
40	0x3d61b9ba	0.055108763
41	0xbb58609f	-0.0033016575
42	0x3d7da348	0.061923295
43	0x3dd3b945	0.10338072
44	0xb92ae7e3	-0.00016298848
45	0x3a45d8be	0.0007547251
46	0x39f7a19b	0.00047231917
47	0xba1d1957	-0.00059928506
48	0x3b6fdbbd	0.003659948
49	0x36937cd1	4.395472e-06
50	0x3781a1d7	1.545336e-05
51	0xb75c2308	-1.3121178e-05
52	0x3b8138bf	0.0039435322
53	0x38d0c5c7	9.955052e-05
54	0xbb3ab9e0	-0.0028492138
55	0x3b0254c3	0.0019886948
56	0x3aa47b7f	0.0012549012
57	0xb8d5ef8d	-0.00010201251
58	0x3af71ead	0.0018853747
59	0x3b4ec9c7	0.0031553374
60	0xb6a518e4	-4.920281e-06
61	0x37bafb23	2.2289873e-05
62	0x376c19fd	1.4072747e-05
63	0xb792b49f	-1.7488665e-05
64	0x3bb4a578	0.0055128895
65	0x36d82f82	6.4428323e-06
66	0x37c836c0	2.3867353e-05
67	0xb7a542fb	-1.9700723e-05
68	0x3bc1588b	0.0059004477
69	0x38cd915d	9.802238e-05
70	0xbb8e180f	-0.004336364
71	0x3b4889ab	0.0030599635
72	0x3b258e5a	0.002526185
73	0xb922d1f7	-0.00015527742
74	0x3b3a5f94	0.0028438317
75	0x3b9bd199	0.0047552106
76	0xb6f89fd5	-7.409583e-06
77	0x381134ab	3.4619745e-05
78	0x37b5c485	2.1668393e-05
79	0xb7e5dd13	-2.7401873e-05
80	0x3e8b6cab	0.27231345
81	0x39a0439d	0.00030567954
82	0x3a9b971f	0.0011870599
83	0xba8323fc	-0.0010005231
84	0x3e958a60	0.29207134
85	0x3b95794f	0.0045615803
86	0xbe5bff3b	-0.21484081
87	0x3e1c4bc2	0.15263274
88	0x3e03e950	0.1288197
89	0xbbfa82e3	-0.0076449974
90	0x3e11415b	0.14185087
91	0x3e7106cb	0.23537748
92	0xb9c74762	-0.00038009422
93	0x3ae4fdcb	0.0017470656
94	0x3a8db7e2	0.0010812248
95	0xbab83af0	-0.0014055651
96	0x3c2e712f	0.010647102
97	0x374dcdf0	1.2266901e-05
98	0x3846be30	4.7384005e-05
99	0xb8260387	-3.958077e-05
100	0x3c3a1ee6	0.011359906
101	0x39144a0b	0.00014141963
102	0xbc094b8b	-0.008379827
103	0x3bbef4d7	0.005827527
104	0x3ba89793	0.005145022
105	0xb9e2f14b	-0.00043285856
106	0x3bb6fc8b	0.0055843047
107	0x3c18da27	0.009329355
108	0xb75f011d	-1.3292095e-05
109	0x38909e7b	6.8959744e-05
110	0x382d71f3	4.1352538e-05
111	0xb8656fc5	-5.4701948e-05
112	0x3c3f7897	0.011686466
113	0x374ad6e7	1.2090174e-05
114	0x3853d5f0	5.0505565e-05
115	0xb83ada5d	-4.4549222e-05
116	0x3c4f1b30	0.012640759
117	0x3955be32	0.00020384116
118	0xbc17ae73	-0.0092579005
119	0x3bdc1535	0.0067163953
120	0x3bb4bc5a	0.0055156173
121	0xb96d1c3b	-0.00022612598
122	0x3bc9ac5d	0.0061545805
123	0x3c2481aa	0.01004068
124	0xb79ae4e8	-1.8464823e-05
125	0x38a09ce4	7.658618e-05
126	0x3847c221	4.7626094e-05
127	0xb88577a8	-6.364222e-05
128	0x3c26b0de	0.010174004
129	0x37504868	1.24146245e-05
130	0x3837c993	4.381833e-05
131	0xb812ba3d	-3.498256e-05
132	0x3c31bdc8	0.01084847
133	0x394dbe78	0.00019621279
134	0xbc02e721	-0.007989676
135	0x3bb84631	0.005623602
136	0x3b969b38	0.0045961402
137	0xb99368eb	-0.00028116195
138	0x3ba9bf45	0.005180272
139	0x3c0f4c08	0.008746155
140	0xb75b6873	-1.3077736e-05
141	0x3882f406	6.244336e-05
142	0x38266d25	3.9679133e-05
143	0xb84b402f	-4.8458747e-05
144	0x3c2e6e46	0.010646408
145	0x37422273	1.1571322e-05
146	0x3841fde4	4.625124e-05
147	0xb8223877	-3.8676397e-05
148	0x3c3b2cd2	0.01142426
149	0x395e6362	0.00021208593
150	0xbc0a8d57	-0.00845655
151	0x3bc7bed2	0.0060957456
152	0x3ba619cb	0.0050689927
153	0xb955950d	-0.00020368789
154	0x3bb4b9b5	0.005515302
155	0x3c154d97	0.009112737
156	0xb785fec6	-1.5973474e-05
157	0x38902d09	6.8748435e-05
158	0x3835d6c1	4.3353768e-05
159	0xb86b2577	-5.6063258e-05
160	0x3c34ef0a	0.0110433195
161	0x375c8e4d	1.3146154e-05
162	0x384af72b	4.8390746e-05
163	0xb829f200	-4.051812e-05
164	0x3c4175af	0.011807843
165	0x3902aa30	0.00012461166
166	0xbc0d7c8b	-0.00863565
167	0x3bc4a233	0.006000781
168	0x3bade26b	0.005306532
169	0xb9e7f30d	-0.0004424084
170	0x3bbcd2b2	0.0057624215
171	0x3c1e3e1b	0.009658362
172	0xb7635613	-1.3550295e-05
173	0x3892502c	6.976756e-05
174	0x38315637	4.2280382e-05
175	0xb8653ba5	-5.4653403e-05
176	0x3c313d52	0.010817843
177	0x374a3c79	1.2054218e-05
178	0x384568a3	4.706591e-05
179	0xb8276da7	-3.9918024e-05
180	0x3c3e555f	0.011617034
181	0x3956b925	0.00020477602
182	0xbc0bd73f	-0.008535205
183	0x3bc6ef3b	0.006070999
184	0x3b9ff2ef	0.004881255
185	0xb99a2ab9	-0.00029405
186	0x3bb8dbc8	0.0056414343
187	0x3c191c27	0.009345091
188	0xb7806fe0	-1.5310885e-05
189	0x3891b231	6.9473295e-05
190	0x38347442	4.3023618e-05
191	0xb86b3e25	-5.6086243e-05
192	0x3c4d3c30	0.012526557
193	0x376c0f57	1.4070268e-05
194	0x3862e31a	5.4094104e-05
195	0xb840ab35	-4.5935816e-05
196	0x3c5ca967	0.013468123
197	0x39784ad0	0.00023678993
198	0xbc21a860	-0.009866804
199	0x3be6721a	0.007032645
200	0x3bb981d1	0.0056612273
201	0xb9a6eff8	-0.00031840778
202	0x3bd57638	0.006514337
203	0x3c30dfe4	0.010795567
204	0xb795d890	-1.7863029e-05
205	0x38a72cdf	7.9715384e-05
206	0x3850a043	4.974032e-05
207	0xb886ab79	-6.421557e-05
208	0x3c0dd20d	0.008656037
209	0x372c4176	1.026724e-05
210	0x38217bcf	3.8500697e-05
211	0xb8051e8a	-3.1738113e-05
212	0x3c16fe57	0.009215913
213	0x38b94c92	8.83575e-05
214	0xbbdeac50	-0.0067954436
215	0x3b9a1d19	0.0047031757
216	0x3b8a33d3	0.0042176037
217	0xb9c3c55b	-0.0003734034
218	0x3b941fe5	0.0045204037
219	0x3bf8e157	0.007595222
220	0xb72caf6b	-1.0292842e-05
221	0x38687faf	5.5432025e-05
222	0x380b79d1	3.3253633e-05
223	0xb836119f	-4.3408592e-05
224	0x3c398c65	0.011324977
225	0x37509c6d	1.2434187e-05
226	0x384dfec7	4.911309e-05
227	0xb82dce61	-4.143862e-05
228	0x3c475022	0.012165101
229	0x3962d59d	0.00021632617
230	0xbc12e297	-0.008965156
231	0x3bd2c10b	0.006431704
232	0x3bb03983	0.0053779497
233	0xb98232f7	-0.00024833504
234	0x3bc0d213	0.005884418
235	0x3c1f574a	0.009725401
236	0xb78be96b	-1.6678785e-05
237	0x3898c2b2	7.2841896e-05
238	0x383f8727	4.566382e-05
239	0xb87836b2	-5.9178747e-05
240	0x3c174d41	0.009234727
241	0x372f5071	1.0449542e-05
242	0x382a95f8	4.0670828e-05
243	0xb811fa6f	-3.480393e-05
244	0x3c223e00	0.009902477
245	0x39025f80	0.00012433343
246	0xbbedbc38	-0.0072551034
247	0x3ba636f3	0.0050724684
248	0x3b92eafb	0.0044835783
249	0xb9b56b6d	-0.0003460305
250	0x3b9f5cc3	0.004863353
251	0x3c044599	0.008073234
252	0xb74b6eb7	-1.2125521e-05
253	0x387a7aa2	5.9718855e-05
254	0x3816dec7	3.5970264e-05
255	0xb848859d	-4.7808153e-05

exp_avg_sq f4 [21, 16]
0	0x38ebd1e7	0.000112447706
1	0x3042f47d	7.092423e-10
2	0x310e26b2	2.0685715e-09
3	0x30e0f592	1.636794e-09
4	0x39046a7e	0.00012628172
5	0x322b8fc6	9.9862e-09
6	0x388f16ae	6.822996e-05
7	0x380f405d	3.41538e-05
8	0x37c8ee50	2.395283e-05
9	0x33c0d43c	8.979302e-08
10	0x38031c2b	3.1259067e-05
11	0x38ac3b78	8.212676e-05
12	0x332258b0	3.7799225e-08
13	0x2e2d4946	3.9400726e-11
14	0x30d11813	1.5213594e-09
15	0x3155633b	3.1051985e-09
16	0x39f9f60e	0.00047676306
17	0x3150a587	3.0362075e-09
18	0x32173663	8.801723e-09
19	0x3198f4e5	4.4516235e-09
20	0x3a0389b6	0.0005017774
21	0x32a05c9b	1.8668564e-08
22	0x399757ac	0.00028866285
23	0x3905f7e4	0.00012776215
24	0x389300a7	7.009628e-05
25	0x34f2ef52	4.525014e-07
26	0x38f0ab82	0.000114760376
27	0x39b152b2	0.00033821684
28	0x344a4d6b	1.884088e-07
29	0x2f51dd11	1.9086978e-10
30	0x31cae795	5.9053016e-09
31	0x32144b3b	8.631839e-09
32	0x3abc6912	0.0014374575
33	0x310509a2	1.9359523e-09
34	0x32e74115	2.6921535e-08
35	0x329ef1d0	1.8503584e-08
36	0x3ad82479	0.0016490362
37	0x34f503e8	4.5637648e-07
38	0x3a6953b3	0.0008900717
39	0x39e95316	0.00044503127
40	0x399f399a	0.0003036976
41	0x35924f5a	1.0900942e-06
42	0x39c909b8	0.0003834495
43	0x3a8c158b	0.0010687573
44	0x31368e12	2.6565243e-09
45	0x3374a546	5.6960992e-08
46	0x32bfa100	2.230854e-08
47	0x331a4025	3.591426e-08
48	0x35b3c9a0	1.339522e-06
49	0x2c07f422	1.9320175e-12
50	0x2dd20e6b	2.3880639e-11
51	0x2d977030	1.7216534e-11
52	0x35d0ba5f	1.5551449e-06
53	0x308834c9	9.910305e-10
54	0x3559ea9b	8.1180195e-07
55	0x34d453d2	3.9549064e-07
56	0x34291723	1.5747769e-07
57	0x308f06ce	1.0406553e-09
58	0x34bed691	3.5546375e-07
59	0x3585a115	9.956153e-07
60	0x2c2a5b5b	2.4209165e-12
61	0x2e5a8307	4.9683837e-11
62	0x2dae3325	1.9804222e-11
63	0x2e068407	3.0585336e-11
64	0x364bf4fa	3.0391952e-06
65	0x2c920cf6	4.1510085e-12
66	0x2e7a88f4	5.6965058e-11
67	0x2e2ab241	3.8811846e-11
68	0x3669a435	3.4815287e-06
69	0x30840e82	9.608387e-10
70	0x35fc623c	1.8804053e-06
71	0x357b58a2	9.3633764e-07
72	0x352b4e18	6.3816105e-07
73	0x3125b0a7	2.4111075e-09
74	0x3559180c	8.087379e-07
75	0x3617bf2b	2.2612028e-06
76	0x2cc12b40	5.4901916e-12
77	0x2f03c788	1.1985268e-10
78	0x2e4e7f2b	4.6951925e-11
79	0x2ea51dd0	7.508627e-11
80	0x3bf2fd67	0.007415462
81	0x32208757	9.3439985e-09
82	0x34174d5a	1.4091111e-07
83	0x33d6f91d	1.0010465e-07
84	0x3c0bc3cb	0.008530567
85	0x360ba3e5	2.0808013e-06
86	0x3b973ef2	0.004615658
87	0x3b18ad78	0.0023296755
88	0x3ad981f6	0.0016594518
89	0x36c41cb9	5.844599e-06
90	0x3b03de8f	0.002012167
91	0x3bb58b09	0.005540256
92	0x3278334a	1.4447162e-08
93	0x34a3dda5	3.0522384e-07
94	0x33fb0d09	1.16904694e-07
95	0x3454213e	1.9756132e-07
96	0x373e3016	1.1336078e-05
97	0x2d845c60	1.5047685e-11
98	0x2f76de00	2.245244e-10
99	0x2f2c40eb	1.5666372e-10
100	0x37588176	1.2904746e-05
101	0x31096f84	1.9999513e-09
102	0x36eb9fd2	7.0221513e-06
103	0x3663e6f4	3.3960068e-06
104	0x3631a543	2.647125e-06
105	0x32a0f257	1.8736655e-08
106	0x3651467d	3.1184456e-06
107	0x3712060e	8.703688e-06
108	0x2d9b68c1	1.766798e-11
109	0x3002b77a	4.755446e-10
110	0x2f3c0521	1.7100323e-10
111	0x2fa480ed	2.9923033e-10
112	0x376521de	1.3657349e-05
113	0x2d809314	1.4617231e-11
114	0x2f8c3b7d	2.550812e-10
115	0x2f5a3676	1.9846333e-10
116	0x37860a62	1.597888e-05
117	0x318ec4d6	4.1551216e-09
118	0x370fcb9d	8.570872e-06
119	0x36975d2b	4.510997e-06
120	0x364c28a8	3.0422034e-06
121	0x31afb107	5.113296e-09
122	0x367e3363	3.787886e-06
123	0x372923d2	1.0081525e-05
124	0x2e15f387	3.4094973e-11
125	0x30213a62	5.8654426e-10
126	0x2f79656b	2.2682449e-10
127	0x2fdeab5c	4.0503323e-10
128	0x372da95c	1.0351036e-05
129	0x2d879165	1.5412291e-11
130	0x2f531c7f	1.9200462e-10
131	0x2f068e55	1.2237795e-10
132	0x3745732c	1.1768931e-05
133	0x3184487c	3.849946e-09
134	0x36d631c7	6.383492e-06
135	0x36543b2a	3.16249e-06
136	0x360dc3a0	2.1124506e-06
137	0x3207cf74	7.905204e-09
138	0x3634168d	2.6835216e-06
139	0x37005673	7.649523e-06
140	0x2d966fe6	1.7102719e-11
141	0x2fd65bfb	3.899173e-10
142	0x2f2d1c5e	1.5744336e-10
143	0x2f8118af	2.3482502e-10
144	0x373e29be	1.1334601e-05
145	0x2d6b8d2c	1.338955e-11
146	0x2f6b347d	2.1391773e-10
147	0x2f2478d2	1.4958637e-10
148	0x375af737	1.3051372e-05
149	0x319a8d37	4.498044e-09
150	0x36eff564	7.1513223e-06
151	0x36795d27	3.7158113e-06
152	0x362c6f24	2.569469e-06
153	0x318e8de5	4.1488755e-09
154	0x364c22af	3.0418557e-06
155	0x370b5241	8.304197e-06
156	0x2de06f17	2.5515185e-11
157	0x3001eab7	4.7263476e-10
158	0x2f4ea89c	1.8795493e-10
159	0x2faccb0b	3.1430888e-10
160	0x374c9b3b	1.219549e-05
161	0x2d9803ea	1.7282138e-11
162	0x2f80bbfe	2.341664e-10
163	0x2f348242	1.6417182e-10
164	0x3769eaa6	1.3942516e-05
165	0x30d56a87	1.5528067e-09
166	0x36fa3afa	7.4574464e-06
167	0x3671a7a1	3.6009371e-06
168	0x363cf948	2.8159284e-06
169	0x32a8206d	1.957252e-08
170	0x365ed69e	3.3205501e-06
171	0x371c8126	9.328394e-06
172	0x2da18169	1.836105e-11
173	0x3005cc13	4.8675125e-10
174	0x2f448d54	1.7876306e-10
175	0x2fa43636	2.9869945e-10
176	0x3744562a	1.1702572e-05
177	0x2d7f9f2f	1.4530418e-11
178	0x2f739057	2.2152001e-10
179	0x2f2f3399	1.5934488e-10
180	0x37626af1	1.3495549e-05
181	0x319014da	4.193322e-09
182	0x36f47170	7.2849725e-06
183	0x367757e4	3.6857027e-06
184	0x361fe5e0	2.3826651e-06
185	0x32148be3	8.64654e-09
186	0x36559447	3.1825782e-06
187	0x37128442	8.733072e-06
188	0x2dce336a	2.3442321e-11
189	0x3004abc0	4.826539e-10
190	0x2f4b85e9	1.8510317e-10
191	0x2facef53	3.1456668e-10
192	0x3783a12a	1.5691465e-05
193	0x2dae236e	1.9797244e-11
194	0x2fa0de36	2.926172e-10
195	0x2f680203	2.1100992e-10
196	0x37982947	1.8139033e-05
197	0x31c0a73b	5.6069474e-09
198	0x37235526	9.735382e-06
199	0x36a5f42e	4.9458095e-06
200	0x3657149d	3.2049495e-06
201	0x322e2cf2	1.0138352e-08
202	0x368e64c0	4.2436586e-06
203	0x37438762	1.1654427e-05
204	0x2e0c5618	3.190878e-11
205	0x302eac1e	6.3545424e-10
206	0x2f8803db	2.4740995e-10
207	0x2fe2b312	4.1236398e-10
208	0x36fb69c9	7.492698e-06
209	0x2d39733e	1.0541621e-11
210	0x2f22fb24	1.4823037e-10
211	0x2edd8263	1.0073078e-10
212	0x370e7e77	8.493304e-06
213	0x30569936	7.807047e-10
214	0x369af2a6	4.6178056e-06
215	0x361471a2	2.2119862e-06
216	0x35eebfbb	1.7788183e-06
217	0x326f8a00	1.39430085e-08
218	0x3609216e	2.043405e-06
219	0x36c19119	5.76874e-06
220	0x2d3a604c	1.0594258e-11
221	0x2fa8ec8a	3.0727093e-10
222	0x2ef32b3c	1.10580406e-10
223	0x2f4f2e7f	1.8843059e-10
224	0x37572d25	1.282551e-05
225	0x2d87feda	1.54609e-11
226	0x2f849b3a	2.4120955e-10
227	0x2f3ccdbd	1.7171593e-10
228	0x37784916	1.4798969e-05
229	0x31a0cb16	4.679701e-09
230	0x3706d860	8.037401e-06
231	0x368acdd3	4.1366816e-06
232	0x36421834	2.892234e-06
233	0x31d3e5c4	6.1670296e-09
234	0x36685fa7	3.462637e-06
235	0x371eaf46	9.458343e-06
236	0x2df4b0fb	2.7818184e-11
237	0x3011d93f	5.305942e-10
238	0x2f6544b8	2.0851842e-10
239	0x2fc08803	3.502124e-10
240	0x370f1390	8.528019e-06
241	0x2d40181f	1.0919292e-11
242	0x2f35df3c	1.6541163e-10
243	0x2f052f72	1.2113135e-10
244	0x3724840c	9.805906e-06
245	0x30d476d2	1.5458801e-09
246	0x36b09e6f	5.263653e-06
247	0x362cabb2	2.5729937e-06
248	0x3606e7ca	2.0102475e-06
249	0x324db4ef	1.197371e-08
250	0x361eba2c	2.36522e-06
251	0x36dab2b6	6.517711e-06
252	0x2d8153d2	1.4702826e-11
253	0x2fc40fcc	3.5663417e-10
254	0x2f0e42ec	1.29386e-10
255	0x2f7b4e77	2.2856193e-10

exp_avg f4 [16]
0	0x3b880445	0.0041508996
1	0x376b53bb	1.40265865e-05
2	0x378dfd2d	1.6926404e-05
3	0xb78e69db	-1.6977012e-05
4	0x3b91866b	0.0044410727
5	0xb8dd1473	-0.0001054191
6	0xbb4be813	-0.0031113669
7	0x3b092242	0.002092496
8	0x3af2b60d	0.001851739
9	0xb9361568	-0.00017364847
10	0x3b1386d7	0.002251079
11	0x3b6af393	0.0035850748
12	0xb8f07a9a	-0.00011466928
13	0xb73f3093	-1.1395797e-05
14	0x37618333	1.3441592e-05
15	0xb7ac1975	-2.0515852e-05

exp_avg_sq f4 [16]
0	0x35e741b7	1.7229967e-06
1	0x2dad0f11	1.9674514e-11
2	0x2dfc02c6	2.8650315e-11
3	0x2dfd8524	2.8821896e-11
4	0x36045c14	1.972313e-06
5	0x3098bd0e	1.1113188e-09
6	0x3581ee4e	9.680605e-07
7	0x34eb1231	4.3785397e-07
8	0x34b816f5	3.4289374e-07
9	0x314f371d	3.0153793e-09
10	0x3508069c	5.0673566e-07
11	0x35ac81c1	1.2852762e-06
12	0x30b4b816	1.3149044e-09
13	0x2d6475a0	1.29864175e-11
14	0x2d9eecb6	1.8067641e-11
15	0x2e391d26	4.209002e-11
