models/model.pth (torch, 79049 bytes, 10 tensors)

gcn1.weight f4 [21, 64]
0.17366715 0.25279704 -0.22613764 0.20501253 0.13053803 0.12777884 -0.079755366 0.06214856
0.25054747 -0.12844117 0.15613158 0.0436255 0.22170842 0.0071218465 0.02786969 -0.10125814
0.3037013 -0.082345985 -0.12831774 0.032417834 -0.1768544 0.009644071 -0.18366718 0.30413172
-0.06506948 -0.15330558 -0.22960578 -0.16185054 -0.06544479 -0.3184993 0.27890772 -0.25383896
0.04268327 -0.011088316 -0.05131836 0.1776337 -0.01529044 0.30445102 0.0044490225 -0.2004756
0.046122435 0.057141565 0.20442466 0.20306979 0.087646075 -0.15452512 0.114849634 0.025530118
0.18005827 -0.19444159 -0.36637372 -0.108161435 -0.16105217 0.25829688 0.08886992 0.21405508
0.006563529 -0.08675298 0.050641645 -0.08453345 -0.045316353 -0.053583022 0.07360499 -0.11511083
-0.024210956 -0.04459205 0.06577683 -0.16179852 -0.061745938 -0.07314672 0.23268898 0.017748078
0.08760284 -0.064812176 -0.33118352 -0.20716414 -0.12516963 0.090002924 -0.031793825 0.21501923
-0.16669135 -0.22448961 0.069922894 -0.0893767 0.120297015 -0.010865906 0.18518758 -0.12742415
-0.019053003 0.13494709 -0.056588877 0.090430595 0.17276971 0.13597669 -0.22864343 -0.1267741
0.08278311 -0.1392199 -0.017307734 -0.17550072 -0.18296789 -0.0072127273 -0.017946016 -0.3377727
-0.0045628767 -0.05773185 -0.14486909 -0.18790646 -0.26495135 -0.2782986 0.23154896 0.041217864
0.09938249 -0.29897705 -0.24702796 -0.07208412 0.08294867 -0.25635698 -0.08683733 -0.1115092
-0.08162267 -0.17321537 -0.0926065 -0.052805446 -0.17880425 -0.061229125 -0.056296546 -0.22568907
0.31166497 -0.022015732 0.09607057 0.0036248246 -0.08539281 0.28132755 -0.027417423 0.022450656
-0.08945309 -0.18153916 -0.025930457 -0.10099298 0.18376713 -0.051863424 0.102153085 -0.10177049
-0.008696215 -0.0067360634 0.15955372 0.22269002 0.275374 -0.1786343 0.12870447 0.012697591
0.09987767 -0.11087133 0.08707073 -0.09470916 0.23364638 0.026007935 0.051774886 -0.20174524
0.116818376 0.01121205 0.15930904 -0.23677476 0.071086764 -0.018705871 -0.016422873 0.09271173
0.10184994 -0.04364235 0.039276134 0.028098892 0.08759809 -0.051237483 -0.21466784 0.044756558
-0.055383246 0.122990645 0.09959329 -0.3110757 0.16571464 0.1625954 0.15483959 0.009660149
0.14161271 0.036936328 -0.01961176 0.13094725 -0.13517989 0.13872896 -0.11703957 -0.15451081
0.39478225 0.6709592 -0.2211631 -0.08583807 0.06537161 -0.012837295 0.12522045 0.34325355
-0.19167465 0.1363043 0.5008085 -0.18501717 -0.04863973 -0.04219622 -0.42235246 -0.13966633
-0.32421994 -0.33864698 -0.045137778 0.4639022 -0.7004137 -0.31870192 -0.26233196 0.47721907
0.20134796 0.0510507 0.21788125 -0.05973467 0.122954965 0.22911339 -0.1863731 0.05400599
-0.37329334 0.1296006 0.028370054 0.48782656 -0.22074082 -0.5052422 -0.17512554 0.3102794
0.50519 0.59598106 0.007765205 0.09969184 -0.19760405 -0.07609154 -0.3553129 0.04200198
0.17927036 -0.22236319 -0.06308082 -0.6085335 0.040920727 -0.18518533 -0.052233383 -0.24304736
-0.2478535 -0.016973158 0.057766683 -0.15811771 0.17519811 -0.38790292 -0.1606066 -0.33168924
00000000: cdd5 313e 9d6e 813e a090 67be ceee 513e
00000010: c3ab 053e 75d8 023e c856 a3bd 7d8f 7e3d
00000020: c247 803e 1586 03be f5e0 1f3e a7b0 323d
00000030: 8807 633e 615e e93b fa4e e43c 6d60 cfbd
00000040: bd7e 9b3e 03a5 a8bd ba65 03be 90c8 043d
00000050: 5219 35be 2a02 1e3c 4013 3cbe 27b7 9b3e
00000060: 2643 85bd 23fc 1cbe c71d 6bbe 26bc 25be
00000070: eb07 86bd 5712 a3be fecc 8e3e 2ef7 81be
00000080: a7d4 2e3d c5ab 35bc 3333 52bd 9ce5 353e
00000090: c184 7abc 01e1 9b3e 1bc9 913b 7a49 4dbe
000000a0: e1ea 3c3d 460d 6a3d b354 513e 87f1 4f3e
000000b0: c97f b33d d53b 1ebe 4936 eb3d 8a24 d13c
000000c0: 3261 383e b21b 47be 5695 bbbe be83 ddbd
000000d0: dcea 24be 7d3f 843e 6f01 b63d 4131 5b3e
000000e0: df12 d73b 8cab b1bd 9d6d 4f3d e01f adbd
000000f0: a49d 39bd df79 5bbd 37be 963d 3abf ebbd
00000100: 0e56 c6bc 27a6 36bd 01b6 863d 83ae 25be
00000110: 4fe9 7cbd f3cd 95bd 0546 6e3e 6b64 913c
00000120: 1e69 b33d 3fbc 84bd e390 a9be d622 54be
00000130: 782c 00be 7453 b83d 3e3a 02bd 002e 5c3e
00000140: 23b1 2abe 9be0 65be bc33 8f3d 220b b7bd
00000150: 485e f63d ea06 32bc d0a1 3d3e 7a7b 02be
00000160: 0b15 9cbc 922f 0a3e bdc9 67bd ad33 b93d
00000170: 8bea 303e 793d 0b3e 8121 6abe 12d1 01be
00000180: 318a a93d a98f 0ebe f3c8 8dbc 76b6 33be
00000190: ef5b 3bbe be58 ecbb 8603 93bc 8bf0 acbe
000001a0: 2f84 95bb 3b78 6cbd 9058 14be 8d6a 40be
000001b0: b4a7 87be 277d 8ebe 2c1b 6d3e 10d4 283d
000001c0: 0c89 cb3d 8513 99be e6f4 7cbe d7a0 93bd
000001d0: fee0 a93d 3941 83be c5d7 b1bd ef5e e4bd
000001e0: c929 a7bd 5f5f 31be 7aa8 bdbd 864a 58bd
000001f0: 7618 37be 64cb 7abd 3597 66bd 091b 67be
00000200: 8d92 9f3e 565a b4bc a6c0 c43d 778e 6d3b
00000210: 6de2 aebd 2a0a 903e 819a e0bc 70ea b73c
00000220: 2f33 b7bd 67e5 39be 1c6c d4bc 68d5 cebd
00000230: 732d 3c3e be6e 54bd a335 d13d 0c6d d0bd
00000240: 927a 0ebc 32ba dcbb 0d62 233e da08 643e
00000250: d2fd 8c3e e9eb 36be 1bcb 033e 8f09 503c
00000260: aa8c cc3d 8210 e3bd 2452 b23d e0f6 c1bd
00000270: ff40 6f3e 980e d53c e711 543d 4e96 4ebe
00000280: 793e ef3d bfb2 373c e921 233e 1575 72be
00000290: f095 913d 0e3d 99bc 4389 86bc a6df bd3d
000002a0: b496 d03d 52c2 32bd 03e0 203d a62f e63c
000002b0: a166 b33d 65de 51bd e3d1 5bbe a752 373d
000002c0: 8bd9 62bd 85e2 fb3d 91f7 cb3d 5045 9fbe
000002d0: 19b1 293e 697f 263e 458e 1e3e 9a45 1e3c
000002e0: ec02 113e 8c4a 173d d7a8 a0bc 0917 063e
000002f0: 996c 0abe f70e 0e3e 71b2 efbd 1538 1ebe
00000300: e620 ca3e fbc3 2b3f 9478 62be dfcb afbd
00000310: 8de1 853d 8553 52bc ca39 003e eebe af3e
00000320: 5c46 44be 5b93 0b3e fc34 003f 2475 3dbe
00000330: 743a 47bd f2d5 2cbd 953e d8be b104 0fbe
00000340: 2800 a6be 2363 adbe 64e2 38bd 9784 ed3e
00000350: 504e 33bf e62c a3be 6050 86be 0f56 f43e
00000360: 292e 4e3e 8a1a 513d 431c 5f3e 57ac 74bd
00000370: d0cf fb3d b39c 6a3e 97d8 3ebe 6335 5d3d
00000380: 4e20 bfbe 05b6 043e 5168 e83c 67c4 f93e
00000390: e209 62be 8e57 01bf 1c54 33be f1dc 9e3e
000003a0: 2254 013f 3792 183f 4373 fe3b 3c2b cc3d
000003b0: b758 4abe e2d5 9bbd 93eb b5be 450a 2c3d
000003c0: a692 373e 2db3 63be 8430 81bd dac8 1bbf
000003d0: 7e9c 273d 39a1 3dbe acf2 55bd 68e1 78be
000003e0: 4fcd 7dbe 4b0b 8bbc c29c 6c3d 9ce9 21be
000003f0: 2267 333e 369b c6be 0e76 24be 2cd3 a9be

gcn1.bias f4 [64]
0.04612733 0.020577295 -0.21243228 -0.12692459 0.088327415 -0.14320968 -0.38717106 -0.19766963
-0.05180075 0.39786786 -0.101031445 0.07567057 0.10795972 0.42647505 -0.077203795 0.30056363
-0.03904039 -0.09049112 0.17095359 0.014761097 0.07384558 -0.11914438 0.034712493 0.19197036
0.125458 0.32188216 -0.18830812 0.13045993 -0.08737785 0.0065407064 -0.17151211 0.00050192047
-0.40114927 -0.08278453 0.16340573 0.11496028 -0.12417376 -0.36258498 0.21115175 -0.21766947
-0.12187864 -0.08092434 0.07978131 -0.040656075 -0.25378573 0.03400475 -0.16438194 0.15268907
-0.14545238 0.1408062 -0.25359637 0.19684507 -0.13029553 -0.16316485 0.14170071 0.13035484
0.13084482 0.0048156343 0.1123437 0.14155263 -0.07240666 0.03346496 -0.07986919 -0.06262936
00000000: 03f0 3c3d b791 a83c d987 59be 85f8 01be
00000010: 01e5 b43d 8fa5 12be 493b c6be e869 4abe
00000020: 062d 54bd 56b5 cb3e 93e9 cebd 2cf9 9a3d
00000030: fc19 dd3d f05a da3e 061d 9ebd 7ae3 993e
00000040: d1e8 1fbd 6953 b9bd 750e 2f3e 87d8 713c
00000050: 5a3c 973d f801 f4bd b02e 0e3d e193 443e
00000060: 1078 003e bdcd a43e d8d3 40be 4a97 053e
00000070: 29f3 b2bd 6c53 d63b dfa0 2fbe 5093 033a
00000080: 7063 cdbe f08a a9bd d553 273e 4c70 eb3d
00000090: d04e febd bda4 b9be 2a38 583e bfe4 5ebe
000000a0: 829b f9bd a9bb a5bd 6264 a33d fc86 26bd
000000b0: 34f0 81be 9148 0b3d bd53 28be 865a 1c3e
000000c0: 78f1 14be 802f 103e 62d7 81be c191 493e
000000d0: 316c 05be b014 27be fe19 113e bd7b 053e
000000e0: 2ffc 053e 78cc 9d3b 7414 e63d 2cf3 103e
000000f0: f149 94bd 8e12 093d 7592 a3bd d243 80bd

gcn2.weight f4 [64, 64]
-0.00397873 -0.046819508 -0.107031375 -0.02765523 -0.30812484 0.021418678 -0.030518495 -0.15560178
-0.07857805 0.021239031 0.1512181 0.22565515 -0.17215253 0.18357524 -0.06422272 -0.12296721
-0.33200303 0.030329008 -0.4349428 0.04550857 -0.07831812 -0.105115645 -0.04087882 -0.28661776
0.18008627 0.10592477 0.060040396 0.16677527 -0.009054985 -0.19575413 0.049426865 0.036836702
0.18682194 -0.06819604 0.0973038 0.043331794 0.19913518 -0.30632392 0.18030119 -0.21975134
0.12917887 -0.09037858 -0.3171132 0.24243788 -0.17916435 -0.038799554 -0.06223059 0.19230898
0.115993306 -0.07307158 0.1592976 0.060294133 -0.12779066 -0.0011683764 -0.34450924 -0.23133992
-0.016574673 -0.28195554 0.01812746 0.012305534 -0.13188338 -0.16010983 -0.14304228 -0.19102724
-0.13452475 -0.34459865 -0.085148625 0.174458 0.1501648 -0.07802638 -0.17332135 -0.024699707
-0.13321313 -0.08657437 0.1813031 0.27335718 0.13524956 0.36177585 0.03242483 -0.20443079
0.3723411 -0.23198831 -0.091441765 -0.2101377 -0.0061750915 0.07543648 0.29735392 0.11904256
0.008259571 0.28729075 -0.17434096 0.080497995 0.21912545 0.05990434 -0.101447865 0.057165988
0.022876794 -0.0252333 -0.15765819 -0.4892104 -0.33109626 0.14438161 -0.08021066 0.1269409
-0.18656628 -0.1581365 -0.31797224 -0.12917519 0.2127975 0.21996205 0.122718215 -0.25411353
0.073736295 0.2231262 0.0210301 -0.1666013 -0.22596471 0.18157893 -0.019247347 -0.061230447
-0.12178954 0.08203951 0.24279237 0.07517768 0.13794637 0.19372444 0.039714895 -0.19433352
-0.061030053 0.1365496 -0.23575784 0.09100168 -0.034967452 0.026994865 -0.0018465433 -0.11127744
-0.028608084 0.115414046 -0.14551944 -0.15603372 -0.10995896 -0.123626314 0.10389979 0.11171555
0.00074297166 0.21910003 -0.16391337 -0.05357997 -0.14058828 -0.1671123 -0.1706412 -0.24360423
-0.22399306 0.002684692 0.117070675 0.13786004 0.06952252 0.0482356 0.063264035 -0.1466331
0.06908323 -0.1892436 0.0746926 0.035863563 0.028071012 0.076418065 -0.16415307 0.14632984
0.07373641 0.121930696 0.049825337 0.08851872 0.11231437 0.09220845 0.1468908 -0.021753479
0.12763709 0.035683885 0.116420396 0.20612767 0.03926159 -0.13129005 -0.06763748 0.073987775
0.027569668 -0.04897295 0.21761775 0.14403227 -0.14612825 -0.004817932 0.043985374 -0.12881114
0.01995847 -0.10432715 -0.09319654 -0.07340232 -0.030609325 0.21049665 0.09457911 0.22661746
0.025599243 0.0632549 0.06601407 -0.002708729 -0.30164126 -0.15516017 -0.1535645 0.007789245
-0.016029611 0.10516911 0.15508464 0.09717123 -0.058295522 -0.1640596 -0.22289121 -0.06137856
0.006840197 0.016515652 0.17713183 -0.11565002 0.0017152874 -0.10128146 -0.034260713 0.03958984
-0.091617934 -0.047484465 -0.020737534 0.08978254 -0.05685958 -0.13100213 0.1022684 -0.0162359
-0.1981993 0.047088083 -0.020989265 -0.0658765 -0.19817866 -0.052361105 -0.21573636 -0.012038699
-0.001609449 0.16961634 0.09470297 0.05552213 -0.020179963 0.09310322 -0.10919928 0.06562065
0.056268435 -0.14268695 -0.017937457 -0.16115895 -0.10573489 -0.08947452 -0.13289163 0.15934128
00000000: 0260 82bb d0c5 3fbd 4433 dbbd 398d e2bc
00000010: 8ac2 9dbe 3976 af3c ec01 fabc 1356 1fbe
00000020: 87ed a0bd 7afd ad3c ebd8 1a3e 2512 673e
00000030: c148 30be 26fb 3b3e 3487 83bd 3cd6 fbbd
00000040: 4dfc a9be 8a74 f83c d3b0 debe 3267 3a3d
00000050: 4065 a0bd df46 d7bd 8d70 27bd 90bf 92be
00000060: 8968 383e 16ef d83d ebec 753d 23c7 2a3e
00000070: 5c5b 14bc c573 48be d373 4a3d 15e2 163d
00000080: 404e 3f3e 5eaa 8bbd 3747 c73d ae7c 313d
00000090: 18ea 4b3e 7dd6 9cbe e0a0 383e 7f06 61be
000000a0: 7747 043e 6818 b9bd a95c a2be a341 783e
000000b0: dc76 37be 48ec 1ebd 81e5 7ebd a5ec 443e
000000c0: e68d ed3d 8da6 95bd e91e 233e fbf6 763d
000000d0: 8edb 02be 3524 99ba 8463 b0be 5fe4 6cbe
000000e0: 9cc7 87bc 7a5c 90be 0a80 943c 279d 493c
000000f0: 700c 07be d5f3 23be ad79 12be a59c 43be
00000100: dbc0 09be 3c6f b0be 6762 aebd 1ea5 323e
00000110: cdc4 193e 4bcc 9fbd 277b 31be 0a57 cabc
00000120: 0669 08be e74d b1bd 85a7 393e 79f5 8b3e
00000130: dc7e 0a3e af3a b93e e6cf 043d 4e56 51be
00000140: 7ea3 be3e 588e 6dbe d245 bbbd 562e 57be
00000150: 6c58 cabb 717e 9a3d c63e 983e 96cc f33d
00000160: 2753 073c c617 933e 7086 32be 22dc a43d
00000170: 6c62 603e 415e 753d e6c3 cfbd e226 6a3d
00000180: 1d68 bb3c 11b6 cebc 2671 21be c979 fabe
00000190: 7385 a9be c6d8 133e 7d45 a4bd ccfc 013e
000001a0: 3b0b 3fbe 89ee 21be 42cd a2be 8046 04be
000001b0: 96e7 593e bb3d 613e b053 fb3d 2b1b 82be
000001c0: 0e03 973d 327b 643e 5147 ac3c 8899 2abe
000001d0: 4b63 67be d4ef 393e 9dac 9dbc c7cc 7abd
000001e0: cb6c f9bd 5504 a83d 909e 783e c1f6 993d
000001f0: d041 0d3e b35f 463e 16ac 223d 5eff 46be
00000200: a6fa 79bd a9d3 0b3e 816a 71be 175f ba3d
00000210: 083a 0fbd 5624 dd3c b607 f2ba 6de5 e3bd
00000220: 805b eabc 335e ec3d 0c03 15be 4ec7 1fbe
00000230: 2a32 e1bd cb2f fdbd 6ac9 d43d 1fcb e43d
00000240: fcc3 423a c25b 603e e8d8 27be ac76 5bbd
00000250: 60f6 0fbe 7d1f 2bbe 91bc 2ebe 6373 79be
00000260: 705e 65be a8f1 2f3b c0c2 ef3d 2f2b 0d3e
00000270: d361 8e3d b192 453d 9390 813d fd26 16be
00000280: 827b 8d3d 13c9 41be 6ff8 983d ace5 123d
00000290: 2ef5 e53c 1381 9c3d be17 28be 7dd7 153e
000002a0: 1d03 973d cdb6 f93d a715 4c3d 4d49 b53d
000002b0: 1405 e63d c9d7 bc3d 8b6a 163e 5a34 b2bc
000002c0: 4cb3 023e 4429 123d d16d ee3d 2213 533e
000002d0: c3d0 203d e670 06be 8585 8abd e786 973d
000002e0: c9d9 e13c dc97 48bd 30d7 5e3e 327d 133e
000002f0: a5a2 15be bedf 9dbb 022a 343d 11e7 03be
00000300: f27f a33c 79a9 d5bd d4dd bebd f553 96bd
00000310: 68c0 fabc 6f8c 573e b1b2 c13d 680e 683e
00000320: 81b5 d13c c98b 813d 6232 873d ee84 31bb
00000330: b970 9abe 4fe2 1ebe 0340 1dbe ec3c ff3b
00000340: 8850 83bc e762 d73d 82ce 1e3e b601 c73d
00000350: 49c7 6ebd 3dff 27be 983d 64be 1668 7bbd
00000360: bb23 e03b d54b 873c 0c62 353e ebd9 ecbd
00000370: 7fd3 e03a a76c cfbd f654 0cbd f528 223d
00000380: 2fa2 bbbd 127f 42bd c3e1 a9bc e9df b73d
00000390: 97e5 68bd 6c25 06be 1872 d13d 2601 85bc
000003a0: c2f4 4abe 6fdf 403d aef1 abbc 42ea 86bd
000003b0: 59ef 4abe 9978 56bd fee9 5cbe f73d 45bc
000003c0: 26f4 d2ba e8af 2d3e a1f3 c13d 2c6b 633d
000003d0: 7350 a5bc e7ac be3d dfa3 dfbd 1f64 863d
000003e0: bb79 663d 871c 12be 93f1 92bc da06 25be
000003f0: 898b d8bd 6b3e b7bd be14 08be 5c2a 233e

gcn2.bias f4 [64]
0.044865616 -0.14348176 -0.18840559 -0.03279246 0.122543 -0.012484091 0.11830288 -0.17145118
-0.1389711 0.31168947 -0.030763473 0.10193258 0.076576054 -0.09713712 -0.024813715 -0.17475559
-0.019325318 -0.17888667 0.11500299 -0.25696972 0.08465585 -0.06572729 0.09139784 -0.005440444
0.2069034 -0.12744308 -0.16183476 0.13855143 -0.01638423 -0.18629025 0.014587056 0.17931117
-0.021140104 0.06435174 -0.17344281 -0.088957265 0.10699646 -0.05496486 -0.30839676 0.17472103
-0.027761187 -0.008433699 0.038036298 0.046643693 -0.11565533 -0.0005424917 -0.12123788 0.08662246
-0.13641393 -0.04939718 0.12162294 0.15346226 -0.21839732 -0.065302916 -0.12342577 0.11411357
0.17445707 0.115518555 -0.115164235 -0.20878415 0.1372931 0.027209567 0.2937166 0.06366026
00000000: 02c5 373d e2ec 12be 65ed 40be 6351 06bd
00000010: d3f7 fa3d 138a 4cbc c848 f23d e690 2fbe
00000020: 714e 0ebe c395 9f3e ae03 fcbc 07c2 d03d
00000030: e8d3 9c3d d4ef c6bd 2246 cbbc 21f3 32be
00000040: 2150 9ebc 112e 37be b086 eb3d 8991 83be
00000050: 0c60 ad3d 089c 86bd ca2e bb3d c145 b2bb
00000060: 7cde 533e 7080 02be 03b8 25be 6de0 0d3e
00000070: 3938 86bc dfc2 3ebe 8cfe 6e3c 599d 373e
00000080: 032e adbc d8ca 833d fe9a 31be 3a2f b6bd
00000090: f620 db3d d522 61bd 2ee6 9dbe 12ea 323e
000000a0: 6e6b e3bc 7f2d 0abc f3cb 1b3d 750d 3f3d
000000b0: b4dc ecbd 0036 0eba 914b f8bd 1e67 b13d
000000c0: 18b0 0bbe b354 4abd 7315 f93d 3625 1d3e
000000d0: 8ca3 5fbe 89bd 85bd a6c6 fcbd 60b4 e93d
000000e0: e0a4 323e fe94 ec3d 3adb ebbd 83cb 55be
000000f0: 9096 0c3e 99e6 de3c 0662 963e 4f60 823d

gcn3.weight f4 [64, 64]
-0.19346423 0.024604287 -0.0014363609 -0.11505795 0.0033335632 0.011198351 -0.01793308 -0.19047041
0.17605458 0.19223799 -0.043604948 -0.04754905 0.04949819 0.07189523 -0.037292365 0.21348776
-0.07025693 0.05745173 0.101666495 -0.21533346 -0.037930097 -0.12090562 -0.112046964 0.17993255
0.06608719 -0.066898175 -0.113796614 -0.027263915 -0.06983037 -0.12963183 -0.18008026 0.162388
0.049031366 0.108389154 -0.07822359 -0.22302401 -0.04965908 0.07659488 -0.10453094 0.14238891
0.02278377 0.018774927 0.025178624 0.052647542 -0.15898 0.046451375 -0.12806928 -0.0060258275
-0.076294236 0.081021085 -0.15799181 0.06819335 -0.21384753 0.036800932 0.012525031 0.02868465
0.15680157 0.06683127 0.1023769 -0.14017081 -0.07339792 0.2134078 0.08012639 0.11222983
-0.071378 -0.067968026 -0.07074233 0.059267703 0.14557399 -0.02248164 -0.027616324 -0.109605476
0.03951718 0.14099438 0.11830068 0.047961246 -0.17433678 0.123252384 0.21528469 -0.06305469
0.115728475 -0.13890812 -0.33567703 0.0013079119 0.024129039 0.27646643 0.031897433 -0.02648074
-0.026800867 -0.075553834 -0.06800123 -0.16724648 0.049932055 0.15915689 0.23352076 0.090394996
-0.20188713 0.22451855 0.25532228 -0.065251134 -0.011601006 0.16933084 -0.119602956 0.071903795
-0.0044775256 -0.018514046 0.09016454 0.25902176 0.25908214 -0.09202469 0.012097093 -0.04629812
0.034319777 0.0018223803 -0.054168656 -0.123788536 -0.25240996 -0.19872463 0.046784736 0.15651163
0.11341551 -0.019057758 0.25756368 -0.35219893 -0.13259926 0.07570056 -0.19574462 0.23899037
0.076860696 0.059454568 0.13429382 0.008606593 0.19352087 0.11824534 -0.04868699 0.21487041
0.04321108 0.03263886 0.08144857 -0.19832212 -0.10380743 0.3345578 -0.11120542 0.03033193
0.09556546 -0.15430222 0.009887941 -0.0018213146 0.14823493 -0.12068307 0.18674277 -0.13817553
0.010886862 0.011424199 -0.026167972 0.079251565 -0.041317802 0.07215981 0.095289856 -0.07696984
0.108665094 -0.16448615 -0.00041231097 0.12875262 0.08242004 0.049088303 0.11236808 -0.07503729
0.055724055 0.16183995 -0.08001842 0.048533868 0.15431806 0.09460085 -0.070305295 0.059678607
-0.23054545 0.24290851 0.14812364 -0.17377347 0.035236027 -0.031924102 0.16035387 -0.041000433
0.07195925 -0.13459073 0.012417935 0.16735794 0.1392002 -0.012506452 0.003377447 -0.0031629128
0.12393634 -0.03222559 0.025686128 0.09003382 -0.024712553 0.16153212 -0.00559534 0.06971426
-0.10466926 0.011639941 0.1405615 -0.27367097 -0.0026502062 0.14116654 0.050753906 0.034897912
-0.08933703 0.0939591 -0.06848077 0.18055815 0.07894414 0.09290564 -0.020317843 0.18910694
0.025107572 0.1682561 0.038781077 -0.010995043 -0.20628904 -0.19061774 -0.044601534 -0.10442885
-0.018637719 0.0350827 0.15256366 -0.06384841 0.14793615 -0.079601124 -0.033936936 -0.018671257
0.09093342 0.061105054 -0.065332346 -0.108059056 0.077985674 -0.060396608 -0.025352025 0.22970465
-0.09811888 -0.004668548 -0.14574917 -0.045568183 -0.044475406 0.106251694 -0.017288074 -0.029606914
0.08764654 -0.04262918 -0.111795895 -0.022739736 0.11651656 -0.13137725 -0.07001057 0.123091936
00000000: 7d1b 46be ee8e c93c 4644 bcba 81a3 ebbd
00000010: e977 5a3b 4a79 373c 65e8 92bc ad0a 43be
00000020: a747 343e 09da 443e 1a9b 32bd cbc2 42bd
00000030: 9dbe 4a3d ce3d 933d e1bf 18bd 899c 5a3e
00000040: dee2 8fbd 8152 6b3d 8636 d03d 6080 5cbe
00000050: 975c 1bbd 5e9d f7bd e178 e5bd 3d40 383e
00000060: b858 873d e901 89bd 330e e9bd 9358 dfbc
00000070: 3a03 8fbd 35be 04be f666 38be 0a49 263e
00000080: 1dd5 483d 22fb dd3d b133 a0bd 6860 64be
00000090: 5267 4bbd c7dd 9c3d 5114 d6bd 66ce 113e
000000a0: 07a5 ba3c e0cd 993c 6743 ce3c f3a4 573d
000000b0: a7cb 22be cc43 3e3d 9824 03be 4e74 c5bb
000000c0: 2740 9cbd 62ee a53d 9bc8 21be f5a8 8b3d
000000d0: d9fa 5abe 93bc 163d ca35 4d3c 12fc ea3c
000000e0: 9790 203e d5de 883d fbaa d13d f088 0fbe
000000f0: a651 96bd 9387 5a3e 4e19 a43d c1d8 e53d
00000100: a12e 92bd d232 8bbd 5be1 90bd b1c2 723d
00000110: 5911 153e 6b2b b8bc a13b e2bc d678 e0bd
00000120: c4dc 213d d560 103e a047 f23d 0373 443d
00000130: 5785 32be bf6b fc3d 9773 5c3e d122 81bd
00000140: 0d03 ed3d ee3d 0ebe dcdd abbe 3e6e ab3a
00000150: 43aa c53c 028d 8d3e e2a6 023d 23ee d8bc
00000160: 7e8d dbbc f8bb 9abd 3b44 8bbd a942 2bbe
00000170: 8e85 4c3d 06fa 223e 1120 6f3e 0321 b93d
00000180: 80bb 4ebe 31e8 653e 9ab9 823e 63a2 85bd
00000190: 2512 3ebc 1065 2d3e 65f2 f4bd 4c42 933d
000001a0: 35b8 92bb c5aa 97bc 30a8 b83d 809e 843e
000001b0: 6aa6 843e 7177 bcbd e332 463c 19a3 3dbd
000001c0: e592 0c3d f0dc ee3a f4df 5dbd d884 fdbd
000001d0: e13b 81be 787e 4bbe 5aa1 3f3d 9644 203e
000001e0: 6446 e83d 041f 9cbc 63df 833e 6b53 b4be
000001f0: 1ac8 07be e508 9b3d 4771 48be e4b9 743e
00000200: 2469 9d3d a286 733d 5284 093e ab02 0d3c
00000210: 562a 463e 9d2a f23d 026c 47bd fd06 5c3e
00000220: 1afe 303d 53b0 053d 82ce a63d f414 4bbe
00000230: fd98 d4bd 294b ab3e abbf e3bd ab7a f83c
00000240: d3b7 c33d 6701 1ebe 0801 223c 2db9 eeba
00000250: e6ca 173e af28 f7bd 7f39 3f3e e37d 0dbe
00000260: cf5e 323c 902c 3b3c 375e d6bc a54e a23d
00000270: db3c 29bd 86c8 933d 5427 c33d 5da2 9dbd
00000280: ce8b de3d 0f6f 28be 712b d8b9 bad7 033e
00000290: d7cb a83d d110 493d 3c21 e63d 27ad 99bd
000002a0: e83e 643d 5fb9 253e b3e0 a3bd 73cb 463d
000002b0: 8e05 1e3e 17be c13d 39fc 8fbd 8e71 743d
000002c0: 1b14 6cbe 02bd 783e b9ad 173e acf1 31be
000002d0: a753 103d d9c2 02bd ce33 243e 12f0 27bd
000002e0: 5f5f 933d 27d2 09be 9874 4b3c e15f 2b3e
000002f0: 7f8a 0e3e dde7 4cbc 2858 5d3b df48 4fbb
00000300: 56d2 fd3d fbfe 03bd b76b d23c a763 b83d
00000310: fb71 cabc ad68 253e 1d59 b7bb 5ac6 8e3d
00000320: d65c d6bd 73b5 3e3c 5bef 0f3e 9a1e 8cbe
00000330: 15af 2dbb f68d 103e 54e3 4f3d 1df1 0e3d
00000340: 55f6 b6bd a16d c03d a53f 8cbd 3ce4 383e
00000350: 77ad a13d 5045 be3d 9b71 a6bc 40a5 413e
00000360: 65ae cd3c 544b 2c3e e8d8 1e3d 8e24 34bc
00000370: 6f3d 53be 4c31 43be 19b0 36bd cbde d5bd
00000380: 21ae 98bc e1b2 0f3d a639 1c3e f5c2 82bd
00000390: 937c 173e ea05 a3bd 7501 0bbd 77f4 98bc
000003a0: 4d3b ba3d 4b49 7a3d f7cc 85bd 114e ddbd
000003b0: f4b6 9f3d 6f62 77bd 0daf cfbc b237 6b3e
000003c0: 8df2 c8bd 9efa 98bb 453f 15be b4a5 3abd
000003d0: d82b 36bd 7d9a d93d b89f 8dbc 338a f2bc
000003e0: 0780 b33d ef9b 2ebd 3ff5 e4bd af48 babc
000003f0: 3ca0 ee3d c287 06be b461 8fbd a017 fc3d

gcn3.bias f4 [64]
-0.03238452 -0.0675267 -0.055512454 0.068309754 -0.06938399 -0.10695713 0.034964215 -0.1793347
-0.20239204 -0.024029167 -0.18495066 0.054499988 -0.12888919 0.058569387 -0.05756528 0.10527581
-0.010830377 -0.015329903 0.17732841 0.05055551 -0.07869566 0.036781684 0.1256116 -0.13335873
-0.09918066 -0.02069745 0.13047822 0.06790273 0.11900952 -0.079844974 -0.0127307 -0.28909355
0.034323335 -0.021473622 -0.11568134 -0.12455392 0.0011581843 -0.12353157 -0.07168617 0.17611101
0.07618826 0.12475231 -0.031272855 0.06352355 -0.036954764 -0.10839394 -0.10740649 0.1762713
0.013121201 0.1264225 -0.048018664 -0.11201738 -0.10838327 0.21478947 -0.007891501 0.017088236
0.11435396 0.079976395 0.06708807 -0.019252399 0.034576613 -0.06443697 0.030928295 -0.05592921
00000000: a1a5 04bd 704b 8abd 0761 63bd fce5 8b3d
00000010: 3119 8ebd 570c dbbd a336 0f3d 84a3 37be
00000020: dc3f 4fbe d1d8 c4bc b563 3dbe 613b 5f3d
00000030: 87fb 03be 74e6 6f3d 92c9 6bbd d89a d73d
00000040: e571 31bc 462a 7bbc 9495 353e 4b13 4f3d
00000050: 312b a1bd 64a8 163d 54a0 003e 318f 08be
00000060: 3b1f cbbd b38d a9bc 159c 053e 9610 8b3d
00000070: 43bb f33d c385 a3bd 6d94 50bc 1204 94be
00000080: a096 0c3d 73e9 afbc 57ea ecbd 2016 ffbd
00000090: 37ce 973a 1ffe fcbd 33d0 92bd 7256 343e
000000a0: 9708 9c3d 247e ff3d f717 00bd a318 823d
000000b0: e15d 17bd a4fd ddbd eff7 dbbd 7780 343e
000000c0: 4efa 563c e674 013e 38af 44bd 5e69 e5bd
000000d0: 0cf8 ddbd c5f1 5b3e 5b4b 01bc a1fc 8b3c
000000e0: 6932 ea3d aaca a33d 7865 893d 35b7 9dbc
000000f0: 35a0 0d3d 88f7 83bd 565d fd3c 0716 65bd

fc1.weight f4 [128, 64]
0.05236477 -0.038439732 -0.06471868 0.08438035 0.06901271 -0.034697022 -0.16218175 -0.05482855
0.035530783 -0.08904128 0.011588951 -0.040144425 -0.12389768 0.013962447 0.09111759 -0.007015744
-0.1124598 0.08883957 0.08112969 0.078921944 0.09899571 0.040161736 0.08290521 0.042984072
-0.036367904 -0.10291115 0.11124122 0.08190652 -0.077660754 0.0906456 -0.05402219 -0.064042225
0.030078886 0.12912764 -0.027891092 -0.05917007 -0.01769001 -0.08856355 -0.043161333 0.1031674
0.04398881 0.025129732 0.0867023 0.1471878 -0.014109927 -0.020214206 -0.06270209 0.063702494
0.03473744 0.014123536 -0.08698154 -0.030459587 0.018913312 -0.011783321 -0.07302643 -0.023085134
-0.061961517 -0.15545437 0.029329564 -0.050569393 -0.0055808267 0.0384785 -0.025335992 -0.0064090737
-0.030082472 -0.06528779 -0.24422626 -0.02064646 -0.0068227863 0.039220516 -0.034881927 0.10112613
-0.06422676 0.01873942 0.017577095 0.019320203 -0.009625176 -0.19026169 0.059124663 0.09669043
-0.09492425 0.110956885 -0.1371782 0.016104324 -0.042155582 0.036528695 -0.017171538 0.093323246
-0.06860766 -0.0807607 -0.20845954 -0.04561877 0.1652753 -0.029342713 0.017809236 0.044475667
0.07705455 0.031920716 0.21276222 0.15017061 0.0076110284 -0.15474504 -0.088015646 -0.017173603
-0.07295231 0.05409018 0.13286264 0.14805461 -0.025727563 0.13127337 0.11676083 -0.09819856
-0.0024265687 -0.19314991 0.0031159178 0.049418494 0.17230877 0.032503307 0.00046850464 0.026898159
0.0019928433 -0.05001066 -0.00403125 -0.16345973 0.0058870097 -0.058098823 -0.11705601 0.097117074
-0.04089805 0.007771522 0.1521899 -0.10453248 -0.101021096 0.042552754 -0.08752859 -0.1718256
0.093573 -0.10563782 0.059041418 0.05249625 -0.03539116 -0.07919151 0.039629985 -0.06189728
0.054472916 0.08436665 -0.16618232 -0.09923054 -0.043595687 -0.021833442 -0.06392896 -0.03663835
0.12169415 -0.009212226 0.00072048977 0.069184564 -0.118244275 0.12330106 -0.0434879 0.051837347
-0.05618523 -0.05398887 0.06820298 -0.111332685 -0.17167196 0.06452619 -0.10824429 -0.07452572
-0.015546168 -0.022797024 0.068277076 0.086697996 0.026990572 0.06737757 -0.0207197 -0.020753581
0.008294487 -0.0916722 -0.07137655 0.15657888 0.011277498 0.039347876 -0.06616881 -0.008886943
-0.058568455 -0.088268146 0.11647025 -0.022480763 0.035478856 -0.22994308 0.05615956 0.01862939
-0.019657297 0.073244676 0.052578144 0.10427953 0.0021147511 -0.09545153 -0.042615384 -0.06336317
-0.06633598 -0.030196993 -0.029845597 -0.097679585 0.042529922 0.047872208 0.11599187 -0.036253333
0.04868378 0.103768535 0.042161845 -0.051946927 0.083423026 -0.021591948 -0.032076493 -0.066767186
0.067912735 -0.066654295 -0.11357481 0.0057242974 0.057904523 0.05753779 0.15186702 -0.09017886
-0.098526485 -0.067554265 0.061541237 -0.10304034 -0.053700358 0.12204201 -0.05593893 0.15328878
-0.10761743 -0.08864002 0.052843906 0.23445195 0.059699904 -0.093323074 -0.14302911 0.0069235913
0.039000202 0.05083235 0.014595364 -0.0983148 0.14526698 -0.063262664 -0.13268557 0.078772336
-0.023467965 -0.06613949 -0.070817165 -0.09641059 0.002360077 0.0628803 -0.040272012 -0.019414809
00000000: 717c 563d fb72 1dbd 3a8b 84bd 9bcf ac3d
00000010: 8956 8d3d 771e 0ebd f912 26be e793 60bd
00000020: ba88 113d 465b b6bd 95df 3d3c 7b6e 24bd
00000030: 11be fdbd bfc2 643c dc9b ba3d 54e4 e5bb
00000040: 5351 e6bd 85f1 b53d 5327 a63d d4a1 a13d
00000050: 43be ca3d a280 243d 35ca a93d 1110 303d
00000060: 83f6 14bd 15c3 d2bd 70d2 e33d 9bbe a73d
00000070: 9a0c 9fbd 66a4 b93d 5f46 5dbd 9228 83bd
00000080: ff67 f63c 093a 043e dc7b e4bc 515c 72bd
00000090: a4ea 90bc ce60 b5bd f0c9 30bd 6e49 d33d
000000a0: 9c2d 343d dedc cd3c fa90 b13d 66b8 163e
000000b0: 532d 67bc 4398 a5bc f469 80bd 7476 823d
000000c0: d948 0e3d 6766 673c 6123 b2bd 6286 f9bc
000000d0: 17f0 9a3c d50e 41bc e28e 95bd 091d bdbc
000000e0: 5ccb 7dbd 6e2f 1fbe 8e44 f03c da21 4fbd
000000f0: 5edf b6bb a29b 1d3d 6d8d cfbc 3503 d2bb
00000100: 846f f6bc 9bb5 85bd 7316 7abe c422 a9bc
00000110: ae91 dfbb b1a5 203d 5ae0 0ebd 371b cf3d
00000120: 5289 83bd 6a83 993c d7fd 8f3c 6745 9e3c
00000130: eab2 1dbc f6d3 42be b42c 723d a205 c63d
00000140: a567 c2bd 5d3d e33d 7178 0cbe 37ed 833c
00000150: 55ab 2cbd 1d9f 153d 53ab 8cbc 4220 bf3d
00000160: 2c82 8cbd de65 a5bd 6b76 55be bfda 3abd
00000170: ee3d 293e 2160 f0bc ade4 913c 1e2c 363d
00000180: c7ce 9d3d 4cbf 023d 57de 593e 53c6 193e
00000190: ef65 f93b 7c75 1ebe 8c41 b4bd a8af 8cbc
000001a0: 0568 95bd aa8d 5d3d 250d 083e a19b 173e
000001b0: 9cc2 d2bc 876c 063e 4d20 ef3d 541c c9bd
000001c0: 1107 1fbb 17c9 45be 6d34 4c3b 0c6b 4a3d
000001d0: b671 303e 3022 053d a1a1 f539 8759 dc3c
000001e0: 5d9a 023b fad7 4cbd 9318 84bb fd61 27be
000001f0: d1e7 c03b 08f9 6dbd 10bb efbd 51e5 c63d
00000200: b784 27bd 40a8 fe3b abd7 1b3e 2015 d6bd
00000210: 26e4 cebd cc4b 2e3d 3042 b3bd 0df3 2fbe
00000220: 33a3 bf3d a458 d8bd 6ad5 713d 4f06 573d
00000230: 52f6 10bd 292f a2bd 0d53 223d 0188 7dbd
00000240: fe1e 5f3d 6cc8 ac3d b32b 2abe 6239 cbbd
00000250: 6491 32bd 0cdc b2bc 30ed 82bd 1812 16bd
00000260: c83a f93d e0ee 16bc 40df 3c3a a3b0 8d3d
00000270: 0e2a f2bd 4485 fc3d 5e20 32bd 6653 543d
00000280: 7c22 66bd 6f23 5dbd 01ae 8b3d 6402 e4bd
00000290: c6ca 2fbe 4f26 843d 2faf ddbd f1a0 98bd
000002a0: 5bb5 7ebc d3c0 babc dad4 8b3d b88e b13d
000002b0: 551b dd3c 40fd 893d 5cbc a9bc 6a03 aabc
000002c0: 9ae5 073c a2be bbbd de2d 92bd 3756 203e
000002d0: 41c5 383c 3d2b 213d 8383 87bd 8a9a 11bc
000002e0: 7ae5 6fbd eec5 b4bd f487 ee3d 9429 b8bc
000002f0: 4752 113d 3376 6bbe 9107 663d aa9c 983c
00000300: 5708 a1bc 4e01 963d 2e5c 573d 8290 d53d
00000310: a397 0a3b 177c c3bd 788d 2ebd 8dc4 81bd
00000320: 29db 87bd af5f f7bc c17e f4bc 3c0c c8bd
00000330: db33 2e3d a615 443d 258d ed3d 607e 14bd
00000340: a568 473d 9984 d43d e6b1 2c3d 4dc6 54bd
00000350: b1d9 aa3d 99e1 b0bc a462 03bd 3cbd 88bd
00000360: d515 8b3d 0c82 88bd e999 e8bd e392 bb3b
00000370: 4b2d 6d3d bfac 6b3d 0783 1b3e b2af b8bd
00000380: 41c8 c9bd e459 8abd aa12 7c3d d006 d3bd
00000390: e8f4 5bbd 29f1 f93d 3820 65bd bcf7 1c3e
000003a0: 8766 dcbd e688 b5bd da72 583d 2c14 703e
000003b0: e387 743d 2b20 bfbd 3976 12be 4bdf e23b
000003c0: adbe 1f3d 9535 503d 6521 6f3c 4559 c9bd
000003d0: dec0 143e db8f 81bd bade 07be 6453 a13d
000003e0: e43f c0bc 2474 87bd 9708 91bd ea72 c5bd
000003f0: 86ab 1a3b 63c7 803d 44f4 24bd ce0b 9fbc

fc1.bias f4 [128]
-0.5528866 -0.15209647 -0.16192116 -0.47121975 0.12101346 0.10211916 0.25444013 -0.09538165
-0.13367894 -0.0027534028 0.4327383 -0.24022998 0.63060904 -0.046962183 -0.019766072 0.5170579
-0.29858267 0.343193 -0.35920084 -0.25247854 -0.000564093 -0.73408824 0.9230732 -0.77184623
0.21957588 -0.78019655 0.15733208 -0.78103554 0.15224269 -0.22776666 -1.0142523 -0.15448104
0.020798573 0.40517628 -0.2718698 0.21416824 0.8481462 -0.12182337 0.7850722 -0.17785002
-0.88638073 -0.11094552 -0.47170448 -0.008029817 0.34115094 0.43295544 0.038724173 -0.32425338
-0.042367753 0.20012096 0.8093822 0.16250283 -0.24555016 0.38778502 -0.0057416633 0.6376538
-0.21906956 -0.27492952 0.23482108 -0.33778325 -0.66718054 -0.6544905 0.15455249 -0.052715193
0.1606692 0.49928433 -0.25473347 0.2962851 0.70796055 0.82791287 -0.6385044 -0.64749295
-0.04679404 -0.72268933 0.08729816 -0.36881167 -0.4022029 0.5161622 -0.45627114 -0.37579522
-0.008771646 -0.07786533 0.66681904 -0.3758471 -0.31423315 -0.41035107 0.37794337 0.7698136
-0.17891406 0.4795176 0.215742 0.017379329 -0.06545311 -0.36808136 0.5979814 -0.118712254
0.11628703 -0.15713108 0.45796886 -0.45293587 0.39407372 0.5058807 -0.17456219 0.6528391
0.25514904 0.28600982 0.79680985 0.13735308 0.5884477 -0.6213088 -0.17407717 -0.72750676
0.5422239 0.8170595 0.05421239 0.7572682 0.5978825 0.17277142 0.64855766 0.636033
-0.36098948 0.3918224 0.1654223 0.18512596 0.47902697 0.22688226 0.64847517 0.21401177
00000000: fa89 0dbf 2dbf 1bbe a9ce 25be b743 f1be
00000010: e8d5 f73d da23 d13d fa45 823e 7457 c3bd
00000020: 22e3 08be 6f72 34bb e08f dd3e d9fe 75be
00000030: 986f 213f 6b5b 40bd 75ec a1bc e85d 043f
00000040: d4df 98be feb6 af3e 2ce9 b7be de44 81be
00000050: a4df 13ba 35ed 3bbf 864e 6c3f b797 45bf
00000060: 80d8 603e f6ba 47bf a91b 213e f2f1 47bf
00000070: 82e5 1b3e aa3b 69be 05d3 81bf 4730 1ebe
00000080: c561 aa3c 4473 cf3e 8532 8bbe eb4e 5b3e
00000090: 1c20 593f 887e f9bd 7efa 483f 511e 36be
000000a0: d9e9 62bf 6837 e3bd 4083 f1be 7e8f 03bc
000000b0: 56ab ae3e 56ac dd3e 3d9d 1e3d 8a04 a6be
000000c0: cf89 2dbd 82ec 4c3e ac33 4f3f 2467 263e
000000d0: 8071 7bbe c28b c63e 9024 bcbb 483d 233f
000000e0: c553 60be 90c3 8cbe f074 703e edf1 acbe
000000f0: 58cc 2abf b08c 27bf 0243 1e3e e3eb 57bd
00000100: 7786 243e 32a2 ff3e 6d6c 82be aeb2 973e
00000110: e73c 353f 19f2 533f 0675 23bf 19c2 25bf
00000120: 1bab 3fbd 2b02 39bf 61c9 b23d e2d4 bcbe
00000130: 8aed cdbe 3523 043f 5f9c e9be 3b68 c0be
00000140: f3b6 0fbc dc77 9fbd a7b4 2a3f 086f c0be
00000150: 2be3 a0be 8919 d2be cb81 c13e 8112 453f
00000160: 3f35 37be 5583 f53e 79eb 5c3e 185f 8e3c
00000170: 480c 86bd 2975 bcbe 4f15 193f 691f f3bd
00000180: e527 ee3d f8e6 20be e57a ea3e 36e7 e7be
00000190: 08c4 c93e 6681 013f 6ec0 32be 7720 273f
000001a0: e5a2 823e e16f 923e bbfb 4b3f 49a6 0c3e
000001b0: 82a4 163f 180e 1fbf 4941 32be e23d 3abf
000001c0: 2fcf 0a3f d02a 513f d00d 5e3d 54dc 413f
000001d0: d40e 193f feea 303e e007 263f 0fd3 223f
000001e0: 9dd3 b8be f29c c83e 7764 293e a991 3d3e
000001f0: 0643 f53e d353 683e 7802 263f e725 5b3e

fc2.weight f4 [6, 128]
0.034982443 -0.048514925 0.018319469 0.04910549 0.007293162 0.01371025 -0.011009042 0.0434446
-0.03558325 0.023148865 -0.00972476 -0.015525975 -0.11739798 -0.051244743 0.059519153 -0.06946523
-0.04132201 -0.091667086 0.07914142 0.014030334 0.0398059 0.096232325 -0.047062334 0.042646863
0.03331363 0.059569925 -0.05957926 0.057441678 -0.041932568 0.037769586 0.049382865 0.016850878
0.054659788 -0.08614207 -0.10946164 -0.029848214 -0.06168876 -0.038000017 0.023216434 0.027702728
0.06664022 0.02162536 0.037348937 -0.047442272 0.049702577 -0.043316696 0.02880416 -0.027900413
0.06612992 -0.05969168 -0.025575265 -0.051666204 0.06400476 -0.046818227 0.017225906 0.090887465
0.021493312 -0.045806482 0.037588947 0.0778095 0.0547606 0.015828714 -0.016665773 0.0739066
0.031076355 -0.0705683 0.084858626 0.024096617 -0.047253583 0.03848992 0.06069051 -0.030491473
-0.06361269 0.029335512 -0.044257343 0.077648826 0.0060285446 -0.1005632 0.042264707 0.05055966
0.010418306 0.056742158 -0.08842111 0.03752055 0.052146062 0.03684727 -0.0023999223 0.054724034
-0.067402646 0.07210058 0.02151838 0.04916116 0.0541055 0.0078168595 0.0045590955 -0.019169293
-0.090660945 -0.037725613 -0.04585686 0.058926307 0.081422225 -0.0070395735 -0.04912571 -0.011669674
0.036434986 -0.06563545 0.020954024 -0.047473796 0.006003068 -0.05613009 -0.037573062 0.05547017
0.059140656 -0.05325664 0.002207292 0.05141339 -0.094392836 0.042426724 0.031829197 0.015288629
-0.07275388 -0.0053385594 0.03194994 -0.058300324 0.023770584 0.015115554 -0.014808679 -0.08284036
0.028789269 0.021643884 -0.05559906 -0.017939966 0.003655241 0.03987875 -0.015020888 -0.01574684
-0.027770782 -0.06001472 -0.054697644 0.03624262 0.048190188 -0.1096229 0.018848345 -0.023569047
0.06772111 -0.026039235 -0.022349516 0.009528366 0.0466505 -0.060641438 0.035422757 -0.07928211
-0.08488108 -0.06303696 0.0201476 -0.048381604 -0.0025740038 0.040854014 -0.04461005 0.013802472
-0.021791615 0.00069662026 0.04287465 0.021308018 0.08458407 0.008042905 0.109591424 -0.01710871
0.007160602 0.051837895 -0.02013052 -0.093479395 0.05403598 0.04350619 -0.062042423 0.031796984
0.059714988 0.003214687 0.047848355 -0.0823469 0.06147593 -0.090050675 0.005481806 -0.037788987
-0.0027679848 0.029004792 -0.10443152 0.027754933 -0.022670453 0.019592984 0.01753198 -0.016757287
0.0024455863 -0.020830698 -0.08739574 -0.030058105 0.1014705 0.028637031 -0.033384763 -0.0785249
0.021874972 -0.0395552 0.1021107 0.04712747 -0.06035707 0.08688007 0.04039009 0.056346208
-0.093871586 0.01229384 -0.019226853 0.096995406 -0.065685675 -0.0034207888 -0.10531003 0.043004274
-3.1259548e-05 0.040948305 0.024727412 0.052497797 0.03236564 -0.046588697 -0.045097105 -0.070173256
-0.16618685 -0.0018811318 0.12478604 -0.024150783 0.04656113 0.09026162 0.09516081 0.006892427
0.078012526 0.002748162 -0.03879488 -0.05523347 0.011814786 0.09469284 0.024245873 -0.004880076
0.0801146 0.063705884 -0.11766149 0.051605906 -0.0171069 0.059400257 -0.11008838 0.071139276
0.047137927 0.082378685 -0.0011263555 0.02677697 -0.016752938 0.044847127 -0.036245044 -0.037125055
00000000: c049 0f3d 96b7 46bd b612 963c d722 493d
00000010: 7afb ee3b f5a0 603c 455f 34bc f7f2 313d
00000020: bebf 11bd b0a2 bd3c 9a54 1fbc a960 7ebc
00000030: 5a6e f0bd 02e6 51bd 5bca 733d c943 8ebd
00000040: 4541 29bd f4bb bbbd e614 a23d 7cdf 653c
00000050: 830b 233d 7415 c53d 6fc4 40bd 7aae 2e3d
00000060: df73 083d 98ff 733d 6209 74bd f747 6b3d
00000070: 7cc1 2bbd 48b4 1a3d b045 4a3d da0a 8a3c
00000080: f1e2 5f3d 416b b0bd 6d2d e0bd 3e84 f4bc
00000090: 5aad 7cbd e8a5 1bbd 6430 be3c d5f0 e23c
000000a0: ab7a 883d ab27 b13c 33fb 183d d452 42bd
000000b0: ee94 4b3d d96c 31bd b4f6 eb3c 688f e4bc
000000c0: 206f 873d 437f 74bd 3883 d1bc f19f 53bd
000000d0: ed14 833d 78c4 3fbd 581d 8d3c 3523 ba3d
000000e0: be12 b03c 949f 3bbd def6 193d 965a 9f3d
000000f0: a74c 603d 38ab 813c a986 88bc 585c 973d
00000100: d793 fe3c 1d86 90bd 5cca ad3d 4566 c53c
00000110: f98c 41bd 9ba7 1d3d 9d96 783d 41c9 f9bc
00000120: 5f47 82bd 0751 f03c 3047 35bd 5906 9f3d
00000130: 198b c53b 14f4 cdbd c21d 2d3d a517 4f3d
00000140: 8bb1 2a3c 776a 683d 2016 b5bd 26af 193d
00000150: 1c97 553d 2aed 163d 0448 1dbb 4f26 603d
00000160: 660a 8abd 78a9 933d 5047 b03c 365d 493d
00000170: bb9d 5d3d 4912 003c 7764 953b ec08 9dbc
00000180: 72ac b9bd 2c86 1abd 67d4 3bbd b65c 713d
00000190: b2c0 a63d 39ac e6bb 0a38 49bd 2932 3fbc
000001a0: da3c 153d e16b 86bd c6a7 ab3c e273 42bd
000001b0: 62b5 c43b aae8 65bd 36e6 19bd b034 633d
000001c0: 793d 723d a223 5abd 37a8 103b d996 523d
000001d0: 0851 c1bd a5c7 2d3d 555f 023d 287d 7a3c
000001e0: fcff 94bd 15ef aebb f1dd 023d 52cc 6ebd
000001f0: 87ba c23c 3ba7 773c 1aa0 72bc 35a8 a9bd
00000200: 79d7 eb3c 844e b13c d7bb 63bd d6f6 92bc
00000210: c58c 6f3b e657 233d 2c1a 76bc 84ff 80bc
00000220: 8d7f e3bc ffd1 75bd a30a 60bd 2473 143d
00000230: 1363 453d f981 e0bd d867 9a3c e013 c1bc
00000240: 5eb1 8a3d 3c50 d5bc 5516 b7bc dd1c 1c3c
00000250: 9814 3f3d 2863 78bd 7417 113d a95e a2bd
00000260: 22d6 adbd 8619 81bd 940c a53c ca2b 46bd
00000270: 9eb0 28bb 8a56 273d 07b9 36bd c323 623c
00000280: 5484 b2bc 659d 363a 549d 2f3d 278e ae3c
00000290: 6a3a ad3d 63c6 033c 7871 e03d 9127 8cbc
000002a0: 7ca3 ea3b f953 543d c3e8 a4bc 2072 bfbd
000002b0: d554 5d3d 8c33 323d 3220 7ebd 8e3d 023d
000002c0: b497 743d 80ad 523b a3fc 433d 7ea5 a8bd
000002d0: 2fce 7b3d 7d6c b8bd b9a0 b33b a0c8 1abd
000002e0: 1467 35bb 759b ed3c 31e0 d5bd 505e e33c
000002f0: 63b7 b9bc 7781 a03c 3a9f 8f3c 9446 89bc
00000300: 2146 203b 24a5 aabc 8afc b2bd 6a3c f6bc
00000310: c4cf cf3d 3598 ea3c 76be 08bd aad1 a0bd
00000320: 2433 b33c a204 22bd 6a1f d13d bc08 413d
00000330: fa38 77bd 2eee b13d 1470 253d 48cb 663d
00000340: bf3f c0bd 1a6c 493c a281 9dbc 87a5 c63d
00000350: 3686 86bd 502f 60bb c9ac d7bd 4025 303d
00000360: af1c 03b8 69b9 273d 2491 ca3c ee07 573d
00000370: d591 043d cad3 3ebd beb7 38bd ffb6 8fbd
00000380: e32c 2abe 4f90 f6ba d38f ff3d ddd7 c5bc
00000390: e2b6 3e3d 16db b83d ace3 c23d ded9 e13b
000003a0: 08c5 9f3d 821a 343b 61e7 1ebd 7e3c 62bd
000003b0: ce92 413c 52ee c13d 489f c63c 0be9 9fbb
000003c0: 2013 a43d 3b78 823d 82f8 f0bd b760 533d
000003d0: c523 8cbc af4d 733d 0476 e1bd 78b1 913d
000003e0: b313 413d 28b6 a83d 38a2 93ba 605b db3c
000003f0: 753d 89bc 9fb1 373d af75 14bd 7110 18bd

fc2.bias f4 [6]
-0.3661656 0.1845606 0.00570877 -0.4516993 -0.109900445 0.500288
00000000: 0f7a bbbe 74fd 3c3e a210 bb3b 2145 e7be
00000010: 7c13 e1bd e012 003f
