models/model.pth (torch, 648390 bytes, 30 tensors)

model.gcn1.weight f4 [21, 128]
00000000: 6b83 f1bd 3409 953e 77e1 023d 790a 223c
00000010: 9e3b 6bbe d835 c7bd 9078 283e be58 323c
00000020: 2d0f 7abe e32f debd 9bd9 24bb 208f c5bd
00000030: f694 d8bd a99a 053e 349e 663d 6c5f 6f3e
00000040: f7b1 9b3e 8f1c 6d3e e591 4ebe 31d6 b2bd
00000050: cad9 30be 7d09 9bbd aea3 b1bc 1ec2 623e
00000060: 2e45 fa3c 5e84 4c3e 6d56 553e b4ca 1fbe
00000070: bb09 0dbd 02f0 d8bd 4a9b 603e 82ad bb3d
00000080: 6b98 10be 685e 4c3e aaa4 003e a7fb 713e
00000090: 4a02 503e c2c4 53bd 1d10 2bbd 9c90 3c3e
000000a0: 7c9e c53c f2a5 063e da45 9fbd 23a7 973c
000000b0: cc37 d4bd f07c 43bc 3e8e 87bd 7cd4 0abe
000000c0: fd63 073c dbb5 77be 14fb 8e3d cac6 b8bd
000000d0: 1f93 97bc 3aef 783e 58e5 fa3d 67f0 ca3c
000000e0: 9a76 c6bd 21bd 313e 453f bebd 10c1 a9bc
000000f0: afa5 cb3b a5f4 0ebe 61f6 ebbd 9b1d b3bd
00000100: 6dfd 84be 9a73 23be d009 773c c883 48be
00000110: 9092 be3e f119 79be 099a 70be 0366 093e
00000120: a3a1 4ebe e03d 17be 613e a23d f47e 50be
00000130: 0fff 5a3d 884f 2ebe 84e1 c63c 751c 003e
00000140: c8a7 323e 49e6 553e 1f73 24bd ddfc b83d
00000150: cf53 89ba e9b5 bc3d 26c3 bebd 2eb8 38be
00000160: 66fa e9bd d9cb 25be 6a04 be3c b2bc 2fbe
00000170: 5722 2ebe 4917 ca3d 1500 26bd 7ba6 0ebe
00000180: eb0d 983d b3a6 31be 92ea 01be 70fb 783d
00000190: 9e53 b6bc 20e1 4abd f2c9 2b3e d9bf 29be
000001a0: 46bc 313e 78b2 923c 7a2c 1ebe 9414 ca3d
000001b0: 4d0c d9bd 5be2 5a3d a4df 4cbe e4b4 913c
000001c0: 0053 263e cd18 823e 0c6e 27be 4978 2abe
000001d0: f766 b5bd defb bb3d b792 ce3d 83db 0fbe
000001e0: 0134 043e fb33 e83d 22e0 053e e56a 31be
000001f0: 0b29 55be 0500 34be 6ea1 3dbd 9d19 ae3d
00000200: 0f83 643e 556b 5ebe b50e 5a3c 5163 3d3e
00000210: 7274 23be 67a7 9e3d 73e9 eabd b51c 1dbe
00000220: 069b 663d c831 9abd 83b9 26bc 5a34 33be
00000230: 9e92 763e b315 123e bc52 e63d 66be c73d
00000240: 0da0 fcbd db36 afbd 0826 1f3e aef9 043e
00000250: 42d8 293e c483 31be bdb3 c93d 1f0d fbbd
00000260: 25a9 f63d b000 9638 46ec 163e 8318 9abe
00000270: 4d87 7fbe 729b bfbd ed77 543c 0324 47be
00000280: be55 c83d 4dd3 9ebd b633 7bbe 5f9f 183c
00000290: 69a9 193e ac75 f43c a2dd 69bc be5d bbbc
000002a0: c961 383e 6ad3 02bd c027 bfbd 32d9 2c3d
000002b0: 953a 42be 48c3 653e 33a6 02bd 2ae1 18bc
000002c0: d766 10be ab58 6dbe 9501 7a3d 7601 b9bc
000002d0: dc65 e03d 2185 81bd b236 2bbe e2c7 a73d
000002e0: 3228 74bd afa1 b33c 7f24 5dbd 54ca 463e
000002f0: bef0 393e f69f 0c3d 02b8 be3d 7e80 1ebe
00000300: bd76 97bc 271a e63d 347d 12be 43b1 df3c
00000310: b1b1 13be 6267 c03d fb1f 01be 739d dc3d
00000320: 20de ee3d 44e1 233e 7089 15be c0f8 933d
00000330: b385 2e3e 678f 53bc c41a 5dbd 4bad 9fbd
00000340: 9a52 8ebd 8e36 0d3e ed21 5b3e c3ca dcbc
00000350: cd2e e13d 8fd6 6cbd 6936 b43d 77d5 143e
00000360: 93d9 d6bd f182 253d f1ad 0c3e 470e 7a3e
00000370: 2c34 913a 3127 04be 3d57 2dbe 9acd 74be
00000380: 2dee 783e 6616 52bd e808 2a3e 3519 0b3d
00000390: 3de7 8e3d 0ff3 1d3e a31d 48bd 547e b2bd
000003a0: 4135 203e f0df b4bc a8e2 82be efa6 c33c
000003b0: 6b91 85be 6140 b63d c54f 41be a032 75be
000003c0: cc26 2abc bfa9 833e ff50 ee3d fd60 c1bd
000003d0: 420d ff3d 81a0 fdbd 7f25 043d a1e8 823d
000003e0: 81c8 943d bf66 2e3e 3a50 debd 05c5 f7bd
000003f0: 35aa 80be d102 cdbd 8a41 4fbe 78f9 80bd
-0.11792644 0.29108584 0.0319533 0.009890192 -0.22971961 -0.09727067 0.16452241 0.010885416
-0.24419852 -0.108489774 -0.0025154117 -0.096464396 -0.10575287 0.1304728 0.056303218 0.23376244
0.30409214 0.23155425 -0.20172842 -0.0873226 -0.1727058 -0.07570169 -0.021684494 0.22144362
0.030550566 0.19972369 0.2083375 -0.15604669 -0.034433108 -0.10592653 0.21934238 0.09163953
-0.14120643 0.19957888 0.12562814 0.23631154 0.20313373 -0.051701315 -0.041763414 0.18414539
0.024123423 0.1314924 -0.07776995 0.018512314 -0.10362205 -0.011931643 -0.066189274 -0.13557619
0.008263585 -0.24190466 0.06981483 -0.09022291 -0.01850277 0.24310008 0.12250775 0.024772836
-0.0969059 0.17357303 -0.092894115 -0.020721942 0.0062148194 -0.13960512 -0.115216024 -0.08745881
-0.259746 -0.15962067 0.015078023 -0.1958152 0.37221193 -0.24326302 -0.2349626 0.1341782
-0.20178847 -0.14769697 0.07922054 -0.20360929 0.0534659 -0.17022526 0.024277456 0.12510855
0.17446816 0.20888628 -0.04014885 0.09032605 -0.0010477247 0.09214384 -0.09314565 -0.18039009
-0.11424713 -0.16191043 0.023195464 -0.17161825 -0.17005287 0.098677225 -0.040527422 -0.13930695
0.0742453 -0.17348747 -0.12687138 0.060786664 -0.022256669 -0.049531102 0.16776255 -0.1657709
0.17356977 0.017907366 -0.15446654 0.09867206 -0.10598049 0.053438526 -0.20007187 0.01778645
0.162426 0.25409546 -0.16350573 -0.16647448 -0.088575296 0.09178899 0.100865774 -0.14048581
0.12910463 0.113380395 0.13073781 -0.17325933 -0.20816438 -0.17578132 -0.04629653 0.08500979
0.2231562 -0.21720631 0.0133091705 0.18494917 -0.15962389 0.07746773 -0.11470308 -0.15342982
0.056300186 -0.07529026 -0.010176065 -0.1750044 0.24079368 0.1426609 0.11246249 0.097531125
-0.12335215 -0.08555385 0.15541852 0.1298587 0.16586402 -0.17335421 0.098487355 -0.12258362
0.120439805 7.1526854e-05 0.14738569 -0.30096826 -0.24953957 -0.09355821 0.012968046 -0.19447331
0.09781979 -0.07755146 -0.24531445 0.009315341 0.15006031 0.029841267 -0.014274033 -0.022871848
0.18006052 -0.0319399 -0.093337536 0.04219932 -0.1896766 0.22437775 -0.03189678 -0.009331027
-0.1410173 -0.23178355 0.061036665 -0.022583704 0.10956928 -0.063242204 -0.16720083 0.081924215
-0.059608646 0.021927683 -0.053989884 0.1941312 0.18158242 0.03433224 0.093124405 -0.15478703
-0.018489236 0.11235457 -0.14305574 0.027306205 -0.14423253 0.09394719 -0.12609856 0.107722186
0.11663461 0.16003901 -0.1460321 0.0722518 0.1704319 -0.012912608 -0.053980604 -0.07796725
-0.06949349 0.13790342 0.2139966 -0.026952153 0.10995255 -0.057821807 0.087994404 0.14534555
-0.10490718 0.04040808 0.13738228 0.24419509 0.001107817 -0.12905575 -0.1692781 -0.23906556
0.24309607 -0.051290892 0.1660496 0.033959586 0.06977699 0.15424751 -0.04885639 -0.087155014
0.15645315 -0.022079438 -0.2556355 0.023883311 -0.26087508 0.08898998 -0.18878086 -0.23945093
-0.010385226 0.25715443 0.116365425 -0.09442327 0.124537006 -0.12384129 0.03226232 0.06392027
0.072648056 0.17031382 -0.10855146 -0.12098125 -0.25129858 -0.10010303 -0.20239845 -0.062975824

model.gcn1.bias f4 [128]
00000000: 916d 693d 85b4 173d 3a31 133e 7436 20bd
00000010: 37d2 c7bc 5524 f53c ebfa 833e 0dff 97bd
00000020: bc86 be3c 2638 353b b72e 583e 2990 3f3d
00000030: be85 113e 425d fb3c d01c 09be f7e1 c3bc
00000040: c0ec 843d 8b66 513d 6300 313e 68c0 c63d
00000050: 5e2d b23d a206 40be f2a5 e3bd f10d 943d
00000060: 4286 8d3c 4d29 f6bd f59c 363d 3d3b e93d
00000070: 6adc f7bb 7213 de3d 7c44 4ebd af1c 38be
00000080: 8095 e13d d096 55bd b0a9 19bd 3a80 753d
00000090: 372b 08be 4f2f c6bd 1f21 6f3d aec1 f2bd
000000a0: 8789 d63c 3f56 8fbc 6616 05be 93dc 49be
000000b0: f277 0f3e 7c3c bb3d 4a57 97bd aad6 a53b
000000c0: 203d 933d c9be 043d 798f ec3d dbce a2bd
000000d0: 88bb cc3d 07d4 2cbe 9c04 cbbd f568 b3bd
000000e0: 98ff c6bd 55be a5bd 1878 183e c15c 89bc
000000f0: 642b 0b3c 1ecf a63d dc59 653e 834f 26be
00000100: aa8e 4a3e 5f75 20bd 2a58 e0bc fd6f 033d
00000110: 68fc 5b3e 00fe 0b3c c8ba dd3b 600e 35bc
00000120: 2eec cc3d 3420 643d 0b61 38be 0234 b73c
00000130: 3bd7 8bbd c306 dd3d 23bf c13c 1bf8 673e
00000140: 8dbf 093e 30d9 2c3d f4e4 043e 1a49 e9bd
00000150: 0d77 77bc 737d c83d 6c30 0bbb d39a 5e3d
00000160: 41c1 42bd 1f86 883d a73c 203d c801 18ba
00000170: 0c20 5f3d 4312 9fbd 7aeb f3bc 2f5e 883d
00000180: 1c7a 943d e209 8bbd ba7f ffbc 1c30 89bd
00000190: 94a8 503e e9c7 143d cc10 ec3d 98d1 d9bd
000001a0: e811 12bc f1c0 57bd 5f59 8e3d 1252 2ebd
000001b0: 003c a2bd 0930 063d 3a4e e6bd 4354 9dbd
000001c0: 4ba4 a4bc 1c25 fb3d 5909 593e f05f 88bd
000001d0: e1b3 8b3e 3e40 fdbd b043 75be 1a61 fd3d
000001e0: 53c4 4e3d 271c 963d 6922 20be ed70 a03d
000001f0: df5a aa3d 93c3 3ebd bda8 f8bb 8072 9abd
0.056989256 0.03703739 0.14374247 -0.03911443 -0.02439223 0.029924551 0.25777373 -0.07421694
0.023257606 0.0027651875 0.2111157 0.04676834 0.14211175 0.030684117 -0.13389897 -0.02391146
0.06490469 0.051123183 0.17285304 0.09704667 0.08700059 -0.1875253 -0.11115636 0.072292216
0.017275933 -0.12019596 0.04458328 0.11388252 -0.007564117 0.10843553 -0.05035828 -0.17979692
0.11014843 -0.05214578 -0.037515342 0.05993674 -0.13297735 -0.09676992 0.058381196 -0.11853348
0.026188625 -0.01749718 -0.12996826 -0.19713049 0.140106 0.09142396 -0.07389696 0.0050609903
0.07189393 0.03240851 0.11550803 -0.07949611 0.09996706 -0.16877757 -0.099129885 -0.08760253
-0.097167194 -0.080929436 0.14889562 -0.016767861 0.008494232 0.08144973 0.2239756 -0.16241269
0.19780985 -0.039174434 -0.02738579 0.032089222 0.21483004 0.008544445 0.006766651 -0.011050791
0.10005985 0.055694774 -0.18005769 0.022363666 -0.06828161 0.10792305 0.023650711 0.22653238
0.13451977 0.042199314 0.12977964 -0.11390896 -0.0151040675 0.097895525 -0.0021238578 0.05434687
-0.047547583 0.066662066 0.039120343 -0.0005798605 0.05447392 -0.07767155 -0.02977537 0.06658589
0.07249853 -0.06788994 -0.031188834 -0.06698629 0.20376807 0.03632346 0.11526641 -0.1063568
-0.008915402 -0.052674238 0.0695064 -0.042558737 -0.079216 0.032760654 -0.11245389 -0.07682087
-0.020097872 0.122629374 0.21194972 -0.066589236 0.27285674 -0.12365769 -0.23951602 0.12372036
0.050480198 0.073295884 -0.15638126 0.07834039 0.083181135 -0.046573233 -0.0075884745 -0.075413704

model.gcn2.weight f4 [128, 128]
00000000: 1107 05bd bb15 1c3c 16fa bdbd 26c4 2dbe
00000010: 2f8c 063e 3b9d 033e 2e01 9ebd 0dc3 763c
00000020: 1b4b 5e3e e1c1 323e 8637 82bd 6f3f 9dbe
00000030: 426e 39be 8eb1 0e3e d6cc 22be 5997 40be
00000040: 2ef7 e43d 5583 00be 90f6 2bbd 342b 3b3d
00000050: f529 c9bb 3e0e 15be 73c5 93be 43aa 393d
00000060: 1f7c 2c3e 48f8 5d3e d83e 18bd a4a6 173e
00000070: f3b3 03bd 551f 10bb fe4f dc3d c5d7 083e
00000080: 8050 04ba 6926 ddbd d402 643e f56f 4dbe
00000090: ea79 21be ba57 29be 7865 413e b330 353e
000000a0: 253b 87be 38f7 2e3e 46fd ac3d 95ac 193e
000000b0: 10c7 323e 9ea6 43bd ec3d 71be 1033 4ebe
000000c0: 7824 883e 9863 503d 1fd8 3abd 681e 14bb
000000d0: 14a3 613d b71b 0ebe 5d1c 07be 10b7 84be
000000e0: 705b 7fbd a9e3 64bd cc7e c4bc 5dce 92be
000000f0: c440 b8bd 867e d4bd 6ac6 413e a4c0 0d3d
00000100: 4470 c8bc f705 453e 6ec9 03bd 2922 2f3e
00000110: 269b 62bb 2691 71bd d85d 153e 6a7d 4d3e
00000120: d4e7 7c3e 6c79 043d 764e 1cbc 86a7 233e
00000130: ea68 213d 1f67 4f3e 4d1b 19be c776 f0bd
00000140: 03cd cbbd b9eb 953e 6795 13be 4f75 0fbe
00000150: 9c76 073e fe18 a7be 3b33 f33d bcbd f6bd
00000160: 9a9e 6abd 7da8 a9bd 7ac6 303e 62d3 5a3b
00000170: bd68 233d aeca d73d b7d5 37ba 6888 063e
00000180: b198 ba3d d86d ef3b 8f90 833e d657 343c
00000190: 999d 103e 0606 4dbd ce79 c2bd e8a6 30be
000001a0: abd9 50be 3894 57be 8498 cfbc 595d c13d
000001b0: f191 79bd be82 37bd 60e7 10be 9b20 643e
000001c0: 0e85 a73d 91e4 eabc 65b4 343e 0404 e8bd
000001d0: edbe 2dbd 930c ad3c 374f 8e3e 94dd 393e
000001e0: 2460 3b3e 4315 d03d 80de 8fbe 8655 d63d
000001f0: 251e 51bd 7eaa b2bc a43f 91bd 4648 093e
00000200: 1c88 dfbd 9b54 44bd 1aea a63c f687 113e
00000210: c7af 3abd cb87 b73d ce64 923e 39a4 ea3d
00000220: 41c8 ac3d 87ff 66be 4dbd 8c3e 5cd9 bc3d
00000230: ad4b 28be f4fc b8bd e52c b1bc 527d ce3d
00000240: 6a49 743d 1fe9 7ebe df7d a23d afe1 c0bd
00000250: 7018 d6bd 9390 eabd adb8 67be f848 76be
00000260: cf91 373c 7070 d33d fd83 8c3b fd2f 8d3a
00000270: 2f64 1abe 3b27 1f3e 6504 d5bd 5969 913d
00000280: 3a12 b63d c6dc 39be e754 243e 686a bf3e
00000290: 98be 21be c614 c0bd 1258 593e 3acf 29be
000002a0: 5a38 fd3d bf74 503e 67de 9b3c e6b5 eabe
000002b0: 1904 f83d 8383 ad3d c818 1b3e 64ee 79be
000002c0: 9c65 32be 3ba9 a2be 1a39 02bc 2961 1cbe
000002d0: 58e0 793e e3c8 8f3e 3144 cd3c f1c6 82bd
000002e0: b73a 35be 011d bbbd cce1 abbe 4d66 82be
000002f0: 2e27 3c3d c254 84be 289e 86be 54f9 043e
00000300: ef2c b73d a428 20be 6864 22be 909a 14bd
00000310: ef7e 493e 8ef2 f83d 13a4 853e e414 48be
00000320: e946 8abe 8d35 eb3d 0e56 8abc b743 583e
00000330: a301 c2be f1cc f4be 9d3e 5fbe 827b c7bd
00000340: 7fda 873e e6c8 223d f722 efbc 201c 673e
00000350: dcda c53c c007 36bd 5eaf b3bc 6e3f 9dbd
00000360: 26ab 75be 70b1 8c3e f52f cabe 9850 3dbd
00000370: 6700 e73d cfd4 f53e da5e b4bd b58b 7b3e
00000380: 6704 273e 4bb2 12be 12c1 17be 23ec 153d
00000390: 310c 303e 51ef 6d3d 4d64 4a3e 051d aabe
000003a0: 7da3 81bd 3db8 993e 66d2 2bbe fa25 4cbe
000003b0: 7505 393d b09e 653e 5791 553e a5c5 303e
000003c0: c791 d93d d676 0ebd ff69 193e 81d8 8fbd
000003d0: 7485 8cbe 3ec5 81bd 77e8 463e e3c6 fabe
000003e0: 250f 81be 0bca 263d ea67 b2bd dd65 f8bd
000003f0: c3fa 83bd daf8 073e f3a0 0f3e 818f 87be
-0.032477442 0.009526665 -0.09276216 -0.16969356 0.13139413 0.12852947 -0.07715069 0.015061152
0.21708338 0.17456771 -0.063582465 -0.30712458 -0.18108466 0.13934919 -0.15898451 -0.18807735
0.11179958 -0.12550099 -0.041983187 0.0456955 -0.006139035 -0.14556214 -0.2886158 0.04532839
0.16844223 0.21676743 -0.037169307 0.14809662 -0.032154035 -0.0021991332 0.10757445 0.1336356
-0.0005047396 -0.10798342 0.22266704 -0.2006224 -0.15769163 -0.16537371 0.18886364 0.17694359
-0.2641231 0.17086494 0.084467456 0.15007241 0.17458749 -0.04776632 -0.23558778 -0.20136666
0.26590323 0.05087623 -0.045616265 -0.0022601131 0.055087164 -0.1387776 -0.13194413 -0.25920916
-0.06234306 -0.055881176 -0.023986243 -0.28673068 -0.08996728 -0.10375695 0.18923345 0.034607545
-0.024467595 0.19240557 -0.03217452 0.17102875 -0.003457734 -0.058976315 0.1458658 0.20067373
0.2469781 0.03234236 -0.009540191 0.15981874 0.039406694 0.20254181 -0.1495182 -0.11741405
-0.09951212 0.29281405 -0.14412461 -0.14009593 0.1322884 -0.32636255 0.11875006 -0.12047908
-0.05728016 -0.0828409 0.17263213 0.0033390154 0.039894808 0.10536705 -0.0007012742 0.13137972
0.09111155 0.0073067956 0.25696227 0.01100727 0.14122619 -0.050054573 -0.09495889 -0.1725117
-0.20395534 -0.21052635 -0.02534128 0.09441633 -0.060930196 -0.04480242 -0.14150763 0.22278063
0.08179675 -0.028673442 0.1764694 -0.11328891 -0.04241841 0.02112416 0.2779481 0.18150932
0.18298393 0.10160305 -0.28099442 0.10465531 -0.05105414 -0.021809813 -0.070922166 0.13406476
-0.10914633 -0.04793225 0.0203753 0.14212021 -0.04557779 0.08961447 0.28592533 0.11457104
0.08436633 -0.22558413 0.27488175 0.092211455 -0.16435118 -0.09032622 -0.021627853 0.10082497
0.059640326 -0.24893616 0.07934164 -0.09418046 -0.1045388 -0.114533566 -0.22629042 -0.24051273
0.011204197 0.1032418 0.004288195 0.0010771748 -0.1507728 0.15542309 -0.10401229 0.071001716
0.08890195 -0.18150625 0.16048013 0.3738587 -0.15795362 -0.09378962 0.21225002 -0.16582957
0.12364264 0.20357035 0.019026948 -0.45841902 0.121101566 0.084723495 0.15146172 -0.24407345
-0.17421573 -0.31769738 -0.007948184 -0.15271439 0.24401987 0.28082952 0.02505693 -0.06385601
-0.17698179 -0.091363914 -0.33570707 -0.25468674 0.045935802 -0.25845915 -0.2629254 0.12985736
0.08944117 -0.15640503 -0.15858614 -0.036280215 0.19677328 0.12155639 0.2610174 -0.19539219
-0.27007225 0.114848234 -0.016886737 0.21119581 -0.37891874 -0.47812608 -0.21801229 -0.09740354
0.26533887 0.039742373 -0.029191477 0.22569323 0.024152212 -0.044440985 -0.021934208 -0.07678114
-0.23991069 0.27479124 -0.39489713 -0.04621944 0.112793736 0.48013923 -0.08807154 0.24565013
0.16310273 -0.14325826 -0.14819744 0.03660215 0.1719215 0.058089558 0.19764824 -0.33225265
-0.06330011 0.30023375 -0.1677948 -0.19936362 0.04517122 0.22423816 0.20856224 0.17262895
0.10623508 -0.0347813 0.1498184 -0.07023717 -0.27445567 -0.06336449 0.19424616 -0.48979864
-0.25206867 0.040720027 -0.08711226 -0.12128804 -0.064443134 0.13278523 0.14026241 -0.26476672

model.gcn2.bias f4 [128]
00000000: 673d d3bd 2862 d63d 4fde 82bd 31e2 9bbd
00000010: fed9 f63c fc95 e93d 0857 f9bc a51e d23d
00000020: c419 103e 08f7 9b3d 6cae 3a3d 5427 943b
00000030: a638 a53d bfb1 0fbe d31a 9a3d a338 e4bc
00000040: 9dad 71bd a21d d8bc 073c a2bd fabe 0a3d
00000050: 942c 7c3e 0bc1 babd 72e1 af3d a217 3a3e
00000060: bab2 d7bc ec09 85bd 4e07 c23d 9288 bdba
00000070: 0b46 033e d969 85bd 10c9 093e 8200 103c
00000080: b6c7 153d 26f8 803d ba1e 313d 4362 60bd
00000090: b875 28bd 00b7 093e 6b19 11be a37d 5c3c
000000a0: c0b2 c7bd 17ae 8bbb 5161 173e ac17 3bbd
000000b0: e9cc c43c 8be4 59bd 2ccf 20be d1c5 f8bd
000000c0: ceee 453e 11a9 3fbd 3201 773d f572 70bd
000000d0: 0647 d93d 0847 ef3d 13c3 02be c5cd 563d
000000e0: d788 483d 0686 70bd bc3c 1bbe b254 b6bb
000000f0: 49ea 363d 234c 5a3d 9a01 ae3d a827 d6bc
00000100: abbf b23c 8463 9a3d 05d5 7cbc d682 543c
00000110: f037 a63d 6222 3b3c 3adc 393c 6db3 d83d
00000120: 3696 1c3d 2c1a ba3d 5536 ba3c 61e6 1dbd
00000130: ba4e 2e3e 4e7b 9e3d 7b79 88bd 2966 3abd
00000140: 46da 1abd 6174 bd3d 78b5 223e af28 d03d
00000150: 866e 1f3d dd67 a63c 14c7 ca3d 03b3 633d
00000160: 0992 313d 28a4 c23d e4fe 183e a933 013e
00000170: 1411 0cbe 65a2 533c a6e0 853d d1da 163d
00000180: c4bb 3c3e 1e83 f23c e713 493d c6ae 543d
00000190: 476c 643d 6eb5 07bd ea53 993d 6d0d 043d
000001a0: 5c2c 1cbd 2ab8 ea3c 6a9e 15be 0933 7b3e
000001b0: 78dc 353b 91e5 25bc 5f3d c23d d065 21be
000001c0: bc18 063e f9fd 1c3c c1c2 62bc 2523 d5bc
000001d0: f7dd 00be 7ad3 ed3d b20c 2c3c 58a2 41be
000001e0: cec7 243c 3d67 363e 6906 8e3d d9a0 08be
000001f0: 2c3d ea3d 8aed cbbc 35b2 abbb b59f b1bd
-0.10314446 0.104679406 -0.06390058 -0.07611502 0.030133244 0.114055604 -0.030437008 0.10259751
0.14072329 0.07615477 0.045576498 0.00452129 0.080674455 -0.14032649 0.075246476 -0.027859038
-0.05900346 -0.026381318 -0.079216056 0.033873536 0.2462638 -0.09118851 0.08587922 0.18173078
-0.02633034 -0.06496033 0.094740495 -0.0014460257 0.12819688 -0.065143295 0.13455606 0.008789184
0.036567412 0.062973306 0.043242194 -0.05478121 -0.04112789 0.13448715 -0.14169852 0.0134576885
-0.09750891 -0.0042626965 0.14783217 -0.045676872 0.02402349 -0.05319647 -0.1570403 -0.121471055
0.19329378 -0.046792094 0.060303874 -0.05870338 0.1060925 0.1168347 -0.12769727 0.05244233
0.048958626 -0.058721565 -0.15159887 -0.0055642957 0.044657025 0.053295266 0.08496399 -0.026141956
0.02181991 0.07538512 -0.015431647 0.012970647 0.08116138 0.011421772 0.01134401 0.10581098
0.03822919 0.09087023 0.022730986 -0.038549785 0.1702222 0.07738362 -0.066637956 -0.045507584
-0.037805818 0.09250713 0.15889537 0.1016401 0.038923763 0.020313198 0.099012524 0.05559064
0.04335216 0.095039666 0.14940983 0.12617363 -0.1367839 0.012917136 0.06536989 0.036829773
0.18431002 0.029603537 0.049091246 0.05192449 0.055767324 -0.03313201 0.074867085 0.032239366
-0.038128242 0.02865227 -0.14611211 0.24531187 0.0027749818 -0.010125534 0.09484362 -0.15761495
0.13095373 0.009582036 -0.013840378 -0.026017735 -0.12584673 0.116126016 0.010501074 -0.18909585
0.010057403 0.1781282 0.069348164 -0.13342609 0.11437449 -0.02489354 -0.00523975 -0.0867304

model.gcn3.weight f4 [128, 128]
00000000: 92ea b73d 3c7e 75bc 94cf 8d3d 16f8 4cbe
00000010: c5b1 cbbd 81ea 263e bf7b c13d 9609 93be
00000020: 871c b4bd 9b3e 84ba f840 c43c d055 95bb
00000030: 51d4 e5bd 331c b33d 92b5 2b3e 2706 58bd
00000040: 02eb 70bd 22f3 d93c fc98 503c c29c 093c
00000050: 961f 433d 4d77 f4bd 9326 54bc 9a57 01be
00000060: 9ecf a7bd 7e9e 5dbd b206 643e e6c4 72be
00000070: ab92 db3d 5fcd aa3d 11b3 cbbc 75b2 96bd
00000080: 5c13 f93d 88c5 bb3d 9e9d 65bd e24a e13c
00000090: 4b82 5a3e 0edb c93d 1dec 273d bc38 a2bd
000000a0: 8884 803c cb81 103e 3032 b13d 71ee fbbd
000000b0: 68cc 4a3e 6f8e 3cbe b4c8 bc3d a1d4 de3c
000000c0: 4262 1ebe f856 d43d 44ea 3cbe 6267 243e
000000d0: 27e7 3ebe 495d f43b 11e4 cc3d b04d e73d
000000e0: f411 da3d 91c2 1d3d 76b9 0fbe bf5c b23d
000000f0: cec8 113e c843 d03d a6a7 9c3d 6b10 0f3c
00000100: 4bbf 07be 7a14 563d f13c cc3d 7b48 543e
00000110: 5f98 0cbe fd26 48be 58c9 cd3b db5d 21be
00000120: 8958 a1bb 45b7 d63d 9318 013e 8149 2ebe
00000130: e885 9bbc 71f2 cb3d ab32 d43c a533 ecbd
00000140: 0905 51bd 857c c33d fe39 c3bd 9daf 25bb
00000150: d0fa 163e eb51 1bbe 5585 f43d dc77 dabd
00000160: 8a71 393e 65a0 9b3d b623 b7bd 412c 223d
00000170: cf26 d1bd 2321 84be ef93 1b3e 60d9 42bd
00000180: cf8e fdbd ee5d a3bd 8bdb b5bd d2af b13c
00000190: 880c 77bd 1cf9 973d e94f 823d 7e2b 193e
000001a0: ff48 8d3d bd4e 97bb c4e6 98bd 23ae f3bd
000001b0: 5d5b 9cbd 4ac0 7a3d 90dd 0bbe a575 46bc
000001c0: bc0e f03d c380 133e 7d99 233c c3bb 40bd
000001d0: bd68 943d 88c5 2d3e 2cdd 353e 0113 053e
000001e0: 413c debd c4fb 2bbe 7bc0 9bbc a8ed f2bc
000001f0: 36d2 8abd daef 703c 93ae 743d 519c 48be
00000200: ac75 523c f14b 78be 53ce 453e 519b a23b
00000210: 6ba5 5abd e976 863d d133 ba3e 35df 1b3e
00000220: db2d 4fbe 7192 3a3e 2ec0 16be 8c06 65bd
00000230: ac82 e73d 2a2b e0bd 19a0 fb3d b8d9 cbbd
00000240: 9e12 a33d edbc 3abd f2f1 063e 04aa 2ebe
00000250: e92b 6f3e e971 52be 9194 403d c7af debd
00000260: 8039 2f3e 8753 0f3d 2865 08be 8125 81bc
00000270: aad9 d6bd b0a4 463e 9abc 0f3d 0bf2 f83c
00000280: 5275 0abe 6faa 6ebd 7655 9fbd 5056 2cbe
00000290: de84 2dbc dac8 5cbe 0c7f b83d 3750 e23c
000002a0: 0204 383e 9ed4 053e 6337 13be 91c6 753e
000002b0: d04c 333d c3e7 373e b851 453e 35eb 0cbe
000002c0: 438a 16be 8dbc efbb 3e16 09bd 4cae 16be
000002d0: cd29 723e bef8 59bd c56c a3be ae02 0d3d
000002e0: 1d7a 5cbe 83a3 8f3c 7731 ecbd 5b84 09be
000002f0: 0cb0 11be 3f5b b73d ea2c b5bd 8ee0 a73d
00000300: 2ede 7ebd e271 fa3c 2768 93be 930c 153d
00000310: 3f8b 22be 1a54 083e a59a 473d 83d7 453c
00000320: 7691 64bd 8a4d b43d f6b6 89be ad7d 0f3e
00000330: a05a 47be aca6 683e 509c 42be b86c 0d3e
00000340: 373c 6cbd 82ae fa3d 7d05 363d b1a6 6d3d
00000350: d761 50bd d403 933d 0509 2ebe 4833 29bd
00000360: c755 9cbd 1ab1 593d 1095 87be cefa cf3e
00000370: 490c 4dbe 138e e93c 5649 d63d f7b9 c2be
00000380: cc62 04be b388 6d3e 2b96 59be b9c0 3f3e
00000390: 0756 44bd e921 eb3d 7ae1 2abd 88c6 c73c
000003a0: 77a4 493d 15b7 b6be 2275 e23d 0a45 0b3e
000003b0: 68c8 84bd a37c 383d fa9a 8cbe 40a1 e33b
000003c0: ac90 993e a9e6 11be 2f11 a6bd 7e23 e63d
000003d0: efa6 4c3e 9ca9 47be 2360 69be 5cc4 883c
000003e0: e952 af3c dd76 0c3e e8d1 b73d 3cf1 02bd
000003f0: c08c ce3e ea66 583e d6e7 3c3e 241b 393c
0.089802876 -0.01498371 0.06924358 -0.20016512 -0.09946016 0.16300394 0.09447431 -0.2871825
-0.08794504 -0.0010089459 0.02395676 -0.004557349 -0.11222137 0.08745613 0.16768482 -0.052740242
-0.05881787 0.026605193 0.012731787 0.00839919 0.047637545 -0.11936817 -0.01294865 -0.12631074
-0.08193897 -0.054106228 0.22268179 -0.23707923 0.10721334 0.08339953 -0.024865659 -0.07358257
0.12161896 0.091685355 -0.05605852 0.027501527 0.21338765 0.098562345 0.04099666 -0.079209775
0.015688196 0.14112012 0.08652151 -0.123013385 0.19804537 -0.18413709 0.092179686 0.027200999
-0.1546717 0.103681505 -0.1844874 0.16055062 -0.18642865 0.0074574095 0.10004438 0.112941146
0.106479555 0.03851563 -0.14035591 0.08709096 0.14236757 0.10169178 0.07649164 0.008731942
-0.13256566 0.05226562 0.09972561 0.20730774 -0.1373 -0.19546123 0.0062801056 -0.1575846
-0.0049238843 0.10484175 0.1260703 -0.17020227 -0.01898475 0.099583514 0.025903067 -0.11533288
-0.051030193 0.095452346 -0.095325455 -0.0025281676 0.14744115 -0.15167968 0.119394936 -0.106673926
0.18109718 0.07598952 -0.08942358 0.039592985 -0.1021248 -0.2580653 0.15193151 -0.047570586
-0.12380754 -0.079769 -0.08879765 0.021690283 -0.060314685 0.07420561 0.06362898 0.14957997
0.068986885 -0.0046175406 -0.0746589 -0.11898448 -0.07634614 0.061218537 -0.13658738 -0.01211301
0.1172156 0.14404587 0.009985325 -0.047054064 0.0724654 0.16969883 0.17760152 0.1299553
-0.10851336 -0.1679526 -0.01901268 -0.029654339 -0.06778376 0.014705623 0.0597368 -0.1959088
0.012845438 -0.2424772 0.19316988 0.004962363 -0.05338041 0.06565649 0.36367658 0.15221865
-0.20232336 0.18219925 -0.14721748 -0.055914447 0.113042206 -0.10945733 0.122863956 -0.09953636
0.07962535 -0.04559033 0.13178232 -0.17057043 0.23356594 -0.20551266 0.047016684 -0.108733706
0.17111778 0.034991767 -0.13319838 -0.015764954 -0.10490735 0.19398761 0.035091974 0.030388853
-0.13521317 -0.058268007 -0.07779972 -0.168298 -0.01059076 -0.21560994 0.09008607 0.02762614
0.17970279 0.13069388 -0.14376597 0.24001528 0.043774426 0.17959504 0.19269454 -0.137616
-0.1470118 -0.007316178 -0.033468477 -0.14714926 0.23648758 -0.053215735 -0.31918922 0.034426384
-0.21530958 0.017534023 -0.11532872 -0.13429396 -0.14227313 0.08952951 -0.08846457 0.08197127
-0.062223606 0.030571882 -0.287904 0.036388945 -0.1587343 0.13313332 0.048731465 0.012075308
-0.055802785 0.08803852 -0.268974 0.14012785 -0.19468164 0.2271983 -0.19004941 0.13811004
-0.057674613 0.12240316 0.044438828 0.058020297 -0.050874557 0.071784645 -0.16995628 -0.04130867
-0.07633548 0.053147413 -0.26480913 0.40621036 -0.20024218 0.02851013 0.104632065 -0.38032505
-0.12928313 0.23196678 -0.21248691 0.18725862 -0.047933605 0.11481077 -0.041718937 0.02438666
0.04922911 -0.35686556 0.110574976 0.13600555 -0.06483537 0.045040738 -0.27461988 0.0069467127
0.29993188 -0.14248146 -0.08108746 0.11237238 0.19985555 -0.19498295 -0.2279058 0.016695194
0.02140184 0.13717218 0.08975583 -0.03196834 0.4034176 0.21133009 0.18447813 0.011297975

model.gcn3.bias f4 [128]
00000000: d980 083e 1827 61bd 927a f23a cb7a 1bbc
00000010: db59 62bd 0720 bbbd 0df3 d43d 4ea7 c3bd
00000020: 2273 dc3c 1d99 2a3b d439 0d3d 2fd2 4dbc
00000030: 5029 1cbd 9600 a4bd 8f8d 733d e416 09bc
00000040: 9c3e c9bd 4565 283c 7c16 8c3d f37d b8ba
00000050: d472 c63d 9b66 c5bd 9a9f 903d 6f74 80bd
00000060: 7466 25bb 4f86 bcbc 01da eebb cd42 303d
00000070: be41 1a3e 5803 6e3d c2bd 7a3c 9a0f af3d
00000080: fb29 7fbc e70b 7d3c a705 ccbd 7ff7 8dbc
00000090: ab7d ccbb 403a b2bc 9f3f 523d 1ddf a53d
000000a0: 886d d43c 8c33 7a3d b177 70bd 791e ec3a
000000b0: add1 e93d 01b9 96bd 312a 1dbd 83cc 9abd
000000c0: 14d7 833c f5a8 06be 6af2 85bd 2418 b93c
000000d0: 8ba2 773d 28d0 ddbd 112f fdbd 5cb7 803b
000000e0: bc2b 083e 6cc2 90bd a15c c9bc 01d9 a4bc
000000f0: c2ce 61bc b132 163d 4ebb 3f3d c981 b93d
00000100: cb8a 32bd 5a21 bdba e618 a7bd 1cf2 383d
00000110: 40d9 8dbc 5a04 ccbc 1fd2 18bd d2cc 6fbd
00000120: e6ae a3bc e65e eebd 3b96 2c3d 13d1 8dbd
00000130: e822 f0bc ca2d 82bd 2046 53bd 478d a6bd
00000140: 510b 143d 977a 393e 943a c9bd cf23 83bd
00000150: 25d1 80bd e7ee bebd 8944 03bd a66c 3b3d
00000160: e0d5 a93d b230 cfbc c70c b9bd bf7c ae3d
00000170: 9a42 b9bd 0f8c 18bd ce3f db3d 0e53 2fbe
00000180: cc5a cfbd 3317 c23d 9cfc f7bd 44bd 56bc
00000190: 36ba 8d3d 80c6 b33d 292b 41bd 0da2 d1bd
000001a0: 4759 0dbe 2c92 78bd 052d c83d 69c1 b53c
000001b0: d34f 003d 4eac a2bd dc38 b7bd 0305 593d
000001c0: 6ac5 d0bb 27b7 d8bd 3456 383d 14f8 33bc
000001d0: b613 1cbd 6643 d1bc 5466 09be 1943 3dbe
000001e0: 3a78 173d a0bd 863d 8bd9 b43c 44a7 9b3d
000001f0: 16b0 c03c 3316 90bd 9d5b 1e3d f117 b6bd
0.13330401 -0.054968923 0.0018499664 -0.009489725 -0.055261474 -0.09136968 0.10397921 -0.09553395
0.026910368 0.0026031204 0.034478977 -0.012562319 -0.038125336 -0.08007924 0.059461173 -0.008367274
-0.09826395 0.010278051 0.06840226 -0.0014075622 0.096898705 -0.09638711 0.070616916 -0.06272208
-0.0025238069 -0.023013262 -0.0072891717 0.043032456 0.15064141 0.058108658 0.015304031 0.08547898
-0.015573974 0.015444732 -0.099620156 -0.01732993 -0.0062405667 -0.021756291 0.051330205 0.08099196
0.025931135 0.061084315 -0.058707897 0.0018014453 0.114169456 -0.073595054 -0.038370315 -0.07558539
0.016093768 -0.1315039 -0.065403774 0.022594519 0.060457747 -0.10830718 -0.12362493 0.003928108
0.13297933 -0.07068333 -0.024580302 -0.020123007 -0.013782205 0.036669437 0.046809487 0.09057958
-0.043589395 -0.0014429495 -0.08159046 0.04515277 -0.017315507 -0.024904419 -0.037309762 -0.05854494
-0.019980859 -0.11639194 0.04213546 -0.06924643 -0.02931352 -0.0635639 -0.05158055 -0.08132415
0.036143605 0.1811317 -0.09825626 -0.06403314 -0.06289891 -0.09322911 -0.032047782 0.045757912
0.082927465 -0.025291774 -0.0903564 0.08519887 -0.09045906 -0.037242945 0.10705529 -0.17121527
-0.1012474 0.09477081 -0.12108728 -0.013106648 0.069202825 0.08778095 -0.0471603 -0.10235987
-0.13803588 -0.060686275 0.09774212 0.022186952 0.031326126 -0.07943021 -0.08946392 0.052983295
-0.00637119 -0.105818085 0.045004085 -0.010984439 -0.038104735 -0.025544833 -0.13417941 -0.18482627
0.03697989 0.06579137 0.022076389 0.07600263 0.023521464 -0.07035484 0.038661588 -0.08891285

model.fc1.weight f4 [128, 128]
00000000: bbf0 0e3b 63f8 6fbb 4988 73bd 59fa ad3c
00000010: 7a45 28bd fc16 20bc 975d a13d f707 b83d
00000020: 44ac d23d 4405 013d 0dbd 343d 7ac3 a63d
00000030: 198b 2ebc fbea a83c a0fb e03d 2164 acbd
00000040: ba39 89bd 65b6 48bc d9e8 963d b101 49bd
00000050: 575e 80bd 7947 11bd 8d67 5cbd 15af 85bd
00000060: 7884 c7bd aa6e a8bd 5e24 703b 0c4b 8ebd
00000070: 220a 70bb 0116 2c3d 2b57 92bd 9ff4 923d
00000080: 6831 2dbd 3745 c03c 0513 6d3d b9fb fabc
00000090: c9f2 833c d12f e33c edcb 803d 894e cabd
000000a0: 5399 833c b29a 00be cb75 f6bd ddca d8bc
000000b0: a102 ba3d 0473 3abd f8e6 d2bd 0b71 9e3b
000000c0: 1f28 6fbd d8c2 adbd 13f7 90bd f18f 9e3d
000000d0: c596 80bd b77b 843d a688 ebbd 9981 313b
000000e0: 48b3 a63d 9535 a8bb def0 eabc 74f1 993d
000000f0: 2a9b 37bd ae29 29bd b7c4 0a3d 1331 123e
00000100: ce55 1cbe 7474 45ba ad2f c2bd 7130 36bd
00000110: 9516 513d f266 a8bc cbe1 2e3c e69f 5a3d
00000120: 6970 91bd ae9a 513c 3c2c 303d 8fe1 eebd
00000130: 31c0 aa3d 3a3f cabd fbdb dd3c 819e bd3d
00000140: 39fb 95bd 44be b3bd a303 2fbd 899c 4a3d
00000150: 09d0 a83d 7d5c 9dbd c313 3ebd 1775 243c
00000160: 242c 943d 17ad 073e 9109 4abd 8100 843b
00000170: d21c 1cbd fafa 913b aa36 5c3d 98a1 53bd
00000180: 11f0 adbd 29a8 3f3d ac41 f23c 81aa 17bc
00000190: 1897 393d 57ed 87bd 567f b8bd 67d1 803d
000001a0: 455e b3bb 4fe8 eebc 5fce bb3d 0b9c 51bd
000001b0: 99cb 0f3d f153 7dbd 94db ca3c e94e a43d
000001c0: 2e66 32bd e2a0 69bd c5b2 cabb ef7d 9ebd
000001d0: 3c3f 49bd a19f 8cbd bfa6 52bd 3220 b8bd
000001e0: d20f e9bc 7e67 143d a6d6 813d 3173 b73d
000001f0: 0293 873b c1e7 01be 1c73 afbd 03bd 2bbd
00000200: 961b 01bd a2ee 7d3c 6392 e13d d591 3dbe
00000210: 0c6e 33bd 114d 1bbd ef6f e33a 21c8 babd
00000220: fbcf a03d b775 c6bd 095c 953a 23f7 5ebe
00000230: 134b 6dbd 2a6b 03bd fd76 03bc 19eb 673d
00000240: 2eb9 29be 999d 0ebd 0ce7 683e 6116 9cbd
00000250: 9826 fcbc 83c3 ac3d f1a9 00be 1b43 9dbd
00000260: 58e9 ed3c 0c85 b6bd a787 7dbc 3b03 1ebc
00000270: 7b82 f93d fc55 9c3c 3799 ecbd 205a 2d3d
00000280: 8f29 9d3d e6ac d93d e1a6 8e3b d7a8 2abe
00000290: 77a7 833b 8a6d 0d3d c162 fe3c dacd 42bd
000002a0: 6905 49bc f754 ec3c a89d 4a3d 5791 513d
000002b0: bb78 423c 9ab5 27bc 8ddf 953d f8f7 43bd
000002c0: 72ee 36bd c9ed 8f3d 2bab 0d3d c97b 0ebc
000002d0: 164c 403d 8b60 17be ccb9 b4bd fe57 1e3e
000002e0: 7d6f b43c bd7a d23d de08 083d 40b0 b3bd
000002f0: 10ca 773d 0b0c 3c3e d4e6 213e 05f1 fcbd
00000300: 634c 9abc 2026 85bd f7c5 0cbe 4596 b83b
00000310: 464c a6bd 687e 2b3d eb27 aebc 6ce7 1bbe
00000320: c03d 69bd b360 f9bd 265a ed3d f9e1 1bbd
00000330: bf0d 18bd 93b3 773c 47ed 0bbd f9b2 e73c
00000340: 60cf 373d a7b1 b33d 67e8 433d 05aa e83d
00000350: 0635 373d 90f2 acbb 593e a93c 3831 6a3d
00000360: 9ef9 d73c 80d0 cb3d 49d2 07be 10df f73c
00000370: c33e 47be 4401 1fbe 52dd 403e 007f 2abe
00000380: ca1c 50be 16cc a7bd 0a6d f9bd 4700 97bd
00000390: 454e 0fbe afca a4bd 12f9 56be f44f 2c3e
000003a0: 30e3 3fba d074 d6bd 6a27 cc3c d23f d63d
000003b0: c228 123d d01f 813d 5fc1 2dbe 5613 7dbd
000003c0: 6eb7 19bd 3992 f6bc 3191 51bd 81e1 f4bd
000003d0: 7321 433c 9f6a f23d 3113 493d 0133 7d3d
000003e0: 4d01 59be 8f6e b53c f431 ff3c c611 c93d
000003f0: e1dd 573e 9ed3 023d 3ef4 803d b74a 53be
0.0021810967 -0.0036616556 -0.059456144 0.02123754 -0.041081883 -0.009771105 0.07879179 0.08985894
0.10286763 0.031499162 0.044125605 0.08142753 -0.010653281 0.02061986 0.10985494 -0.084175356
-0.067004636 -0.0122505175 0.07368631 -0.04907388 -0.06267994 -0.035468552 -0.05380969 -0.06527535
-0.09742063 -0.082242325 0.003664277 -0.06947908 -0.0036627133 0.042013172 -0.07145532 0.07175564
-0.042283446 0.023470504 0.057879467 -0.030637609 0.01610698 0.027732762 0.06288896 -0.09878261
0.016064322 -0.12559012 -0.12034186 -0.02646392 0.09082533 -0.045519844 -0.1029796 0.004835253
-0.05838787 -0.08484429 -0.07078376 0.077422984 -0.06278757 0.06468909 -0.11500673 0.0027085303
0.08139664 -0.0051333406 -0.028679308 0.07516757 -0.04482571 -0.041299514 0.03387901 0.14276533
-0.15267107 -0.00075323065 -0.0948175 -0.04447979 0.051046927 -0.0205569 0.01067395 0.053375147
-0.07101519 0.012793226 0.043010935 -0.11664116 0.08337439 -0.09875341 0.027082434 0.09258748
-0.073233075 -0.08776525 -0.042728078 0.04946569 0.082428046 -0.07683656 -0.046405565 0.010037682
0.07234982 0.13249622 -0.04932553 0.0040283804 -0.038113423 0.0044549676 0.05376307 -0.05166778
-0.08493055 0.04679123 0.02957233 -0.00925696 0.04531011 -0.06637066 -0.090086624 0.0628994
-0.0054738843 -0.029163508 0.091702215 -0.051174205 0.035106275 -0.06184763 0.024762906 0.080228634
-0.043554477 -0.057038195 -0.006185862 -0.07738864 -0.04913257 -0.06866384 -0.051428553 -0.08990516
-0.028449927 0.03623151 0.06339769 0.08957518 0.0041373977 -0.12686063 -0.08566877 -0.041928302
-0.03152045 0.015498789 0.11014249 -0.18512662 -0.04380612 -0.037915293 0.0017352084 -0.09120203
0.07852169 -0.09690421 0.0011395226 -0.21773963 -0.057932924 -0.03208462 -0.0080239745 0.05662069
-0.16574547 -0.034818266 0.22744387 -0.07621456 -0.030780122 0.084357284 -0.12564828 -0.07678815
0.029041931 -0.089120954 -0.015474237 -0.009644325 0.1218309 0.01908397 -0.11552661 0.042322278
0.07673942 0.10628681 0.0043533896 -0.1666597 0.004017766 0.034528293 0.031052949 -0.047559597
-0.012269356 0.028849108 0.04946676 0.051163998 0.011869605 -0.010236168 0.073180296 -0.047843903
-0.044660993 0.07027776 0.034587067 -0.008696505 0.04694756 -0.14782922 -0.088245004 0.15463254
0.022025818 0.10277317 0.03321158 -0.087738514 0.060495436 0.18363969 0.1581071 -0.12350658
-0.018835252 -0.065014124 -0.13747393 0.005633148 -0.08120017 0.041868597 -0.021259269 -0.15224999
-0.056943655 -0.12176647 0.1158946 -0.0380573 -0.037122484 0.015118497 -0.034161832 0.028283583
0.044875503 0.08774119 0.047829058 0.11360554 0.0447283 -0.005277939 0.020659612 0.057175845
0.026364144 0.099518776 -0.13263811 0.030257732 -0.19457535 -0.15527827 0.18834427 -0.16650009
-0.20323482 -0.08193223 -0.12179001 -0.073731 -0.13994701 -0.08046471 -0.2099345 0.16827375
-0.00073199254 -0.10471499 0.024921138 0.104613915 0.0356834 0.06304896 -0.16968296 -0.06178602
-0.037528448 -0.030099021 -0.051163856 -0.11957074 0.01190983 0.118367426 0.049090568 0.06181622
-0.21191902 0.022147445 0.03115175 0.09817843 0.21080734 0.031940095 0.062965855 -0.2063397

model.fc1.bias f4 [128]
00000000: 7434 453e 5a1d 2d3d a071 3fbc 608d ae3d
00000010: 0f55 edbd 6b70 073e 5b54 893d c547 223e
00000020: f1f9 efba 2406 7fbd 1fbb aabd 813d 743c
00000030: de23 da3d 81a4 47be fafd a83d 1ef3 743d
00000040: fab7 5ebd e8a4 17be e873 95bc 8a48 003e
00000050: e4f8 e63d 83ff 2dbc a4b0 c5bd 7dd8 4abe
00000060: 2e33 353e 98ea 483d 128c 20bc 07b1 0cbe
00000070: 6a8a 8dbd 4927 853c d334 d33d d434 13be
00000080: a80e 93bd 83f8 243e 7e60 c3bc 4b0a 48bd
00000090: fae0 8d3d 7d55 e13c b724 24be a7b3 a83d
000000a0: d340 75bd 784e 55bc 6b8d 37be ffb0 24be
000000b0: 4910 07bd 71b9 483d 1705 b2bc 5ff2 2abc
000000c0: 6c2b 633e 3a61 a7bd 1dd3 a43d f8e0 01bb
000000d0: 5903 81be 644a 3a3e a144 133e 945b 83bd
000000e0: badf 213c 2bcb 71bd d1aa 2abe e7ae b3bd
000000f0: 13c1 54be 9514 283d 9dea 1bbd 4dde 273e
00000100: 1253 58bd c195 e03d 89c6 0c3e 2d4a f83d
00000110: 79d3 8ebd f825 9dbd 1e98 a43d 0286 b63d
00000120: 438e edbc 56a1 c33d 47cf 83bd 813f 913d
00000130: 796a d33d e33c 993d 18da 5e3e fe20 8bbd
00000140: a571 08be 0c33 0abd 8e13 943c b675 92bd
00000150: 0288 cbbc c1d8 9d3c 9250 0a3d 1a9e 2a3d
00000160: 7740 5d3d 20b6 d0bc 02b3 9ebd 9493 8abd
00000170: 8487 633d f84d c0bb e814 65ba d7e6 673c
00000180: fcdb 2ebd fa8d 0fbe addc 93bd a41d 913d
00000190: 4aa0 0cbd 19c7 b83d dd72 96bb 0061 083b
000001a0: 30a0 cd3d 56d8 dc3d 7cd1 183d 2113 08be
000001b0: cc91 143e 25ed a3bb 5abc a839 c97f 823d
000001c0: 12c0 c4bd 4bad 80bd 5781 8abd 133d 4a3a
000001d0: ad01 43be 7c3c ff3c a965 00bd 548a 4cbc
000001e0: 817d bc3d 0d59 71be 52a4 323d 997b a63b
000001f0: b170 12bd b04b 89bd 2c5a 56be b7d4 b4bc
0.1925829 0.04226432 -0.011684805 0.08523059 -0.11588489 0.13226478 0.06705543 0.1584769
-0.0018308741 -0.062261716 -0.08336472 0.014907242 0.106513724 -0.19496347 0.08251567 0.059802167
-0.054374672 -0.14809 -0.018243745 0.12527671 0.11277941 -0.010620001 -0.09652832 -0.19809146
0.17695305 0.04905185 -0.00979902 -0.13739406 -0.06911166 0.016254084 0.1031281 -0.14375621
-0.0718053 0.16110425 -0.023849722 -0.04883794 0.069276765 0.027506584 -0.1602963 0.08237391
-0.059876274 -0.013019197 -0.1792504 -0.16083144 -0.032974515 0.049004976 -0.021730943 -0.010433762
0.22184533 -0.08172841 0.08048079 -0.001981793 -0.25197867 0.1819244 0.14381649 -0.064139515
0.009880001 -0.059031647 -0.16666724 -0.08773594 -0.20776777 0.041035254 -0.03806554 0.16393395
-0.052813597 0.10966063 0.1374761 0.12123523 -0.06973929 -0.076732576 0.080368266 0.08912279
-0.0289985 0.09552257 -0.064360194 0.070921905 0.103230424 0.07482316 0.21762884 -0.06793402
-0.13324602 -0.03374009 0.01807573 -0.07151358 -0.024845127 0.019268395 0.033768244 0.041654684
0.054016557 -0.025477469 -0.07748987 -0.067664295 0.05554916 -0.0058686696 -0.0008738772 0.014154158
-0.042690262 -0.14019004 -0.07219825 0.070857316 -0.03433255 0.0902235 -0.0045913295 0.002080977
0.10040319 0.1078345 0.037309155 -0.13288547 0.14508742 -0.005002635 0.0003218379 0.06372029
-0.09606947 -0.06283053 -0.06762951 0.0007714789 -0.19043608 0.03115677 -0.03134695 -0.012484152
0.092036255 -0.23569126 0.04361374 0.005080652 -0.035752002 -0.06703889 -0.20932835 -0.022074087

model.fc2.weight f4 [6, 128]
00000000: 4f54 ea3c da3d ccbd 999c dcbc 0694 8b3c
00000010: 4f67 05bd 4a8d 6fbd e1f1 663d 3ec7 2d3d
00000020: cce6 04bd 7baa 293d 5f62 763d 50ae d0bd
00000030: e616 843d 342d 2fbd 0900 da3d fa34 e0bc
00000040: c5e8 9a3c dacb bc3e 9260 603d 8cd2 533d
00000050: 99f1 233e 0c93 493d 8e2d 8abd 07d4 81bc
00000060: 49ee a13e d6d4 293d c671 9f3d 04d5 a4be
00000070: f1d5 0f3d 49a0 85bd cc67 9d3d 2e22 55be
00000080: 07f2 693d 174b e63c 2da1 3ebd 4b9f 0cbe
00000090: b2d7 48bd 0cc0 79bb 106e d6bd 7098 723b
000000a0: 1381 01be 27ec 62bd a2bf 3fbd f5a5 6cbd
000000b0: 45e2 da3d 04b2 79be 6cd6 af3d 1b0c c4bd
000000c0: 7c7e 7f3d 82c3 93bc ec0b 91bc 4e85 8e3d
000000d0: 09db 6fbe c1d4 6f3e a7b7 cb3d a218 1dbe
000000e0: 41c9 34bb 0157 923e ff12 1ebd df63 133c
000000f0: bdb1 8ebd b70d 8d3d 6905 153d 12b6 c93d
00000100: 910f c73c 06f0 563b bddd d13d fe6d 083e
00000110: fb5f 253d c4d4 8bbc 1823 2b3d cc4a 453e
00000120: 4840 303e 64e5 963d 3dce 4a3d 7bcd 833c
00000130: 2a10 c53d fb8f 23be c430 35bd 7eb7 eabc
00000140: 72d3 523b 6c7e d43c ece1 cbbe e77c 2cbd
00000150: 6b9e c53d 23aa 533d 40c5 0abd 65f2 8d3d
00000160: 5349 7abc f490 993d a67c d5be e083 7338
00000170: cabf 2bbd bd83 dfbd 4c56 40b8 502c 3e3e
00000180: 0ffc a5bc 8f4f 543c a4aa d7bd c3d9 ed3c
00000190: b9aa ae3d 2055 133e b6c3 c0bd 69b4 54bd
000001a0: 51da c13d b985 b63d ec92 b53d d651 933c
000001b0: 2d78 05be ccdd 363d 6bd2 143e 696e 503d
000001c0: 30c4 03bf a39c 923d c9e5 62be 7ef2 d1bd
000001d0: 4198 93be 3714 253d ed72 f6bc 3bab a1bd
000001e0: 8823 133c d93e 8dbe b3e7 0cbd dd0c 5abe
000001f0: e1e5 23bd 7871 d3bd fcff 80bc 6100 74bc
00000200: e5c0 cbbd 21fb aebd 5e9d 783d 2c19 25bd
00000210: 9a3f 6a3d a754 a53c b87a eabe 23ba 15be
00000220: bdc2 c7bd 503e c23d 29ae e33d 8fdb d8bd
00000230: 4b7a e63d dc14 353d 87aa 45bd 5675 e5bd
00000240: a4ff bb3d 03c5 17bd 6b57 85bc 3f35 c73b
00000250: dd01 2ebe eb6a 75bd 232e a73d 986b ce3e
00000260: b27a 41bd 5a6d 5d3d 8ad2 5ebd 6d00 523d
00000270: 11cf 9d3d bd23 c73d cb2a 903c 72d2 13bc
00000280: b7ea fb3d 57f0 e7bd f4cf d03d 6b58 ad3d
00000290: efb5 aebd 893a 2b3c 2009 6cbd 4a46 edbd
000002a0: 4439 f93d c9c5 863b 6c59 063e 5a5b be3d
000002b0: 1fad e03d 9b9d 9a3d fe98 f93d 9fb8 9b3c
000002c0: e7ae 38be 49fe 2dbc 6540 8abd 6599 bbbc
000002d0: 539a 673d 55f5 733d 7fce 02be 0e42 3d3e
000002e0: 8079 4bbd e4a9 2ebc bc32 d2bd c5e2 103e
000002f0: 72bd 7b3c 9906 ac3d dbb3 e5be eb13 e5bd
00000300: 328b a13d 45eb b5bd ba2a 11be 269d d33c
00000310: cd2f 1cbe 672b 22bd c318 d1bd b8cd cabc
00000320: 616a 813e d1d3 8bbd 15c0 fa3c f38b 163d
00000330: 8993 203d 7526 1d3e df79 8cbe 41d7 933d
00000340: 1e7f a43c 2c13 953d a08b eb3b 0f89 013d
00000350: 8bd5 133e d674 d83d 1d37 ca3c b064 d83d
00000360: 9ef4 db3c baf3 8dbd c7c4 793e f936 153e
00000370: df84 74bd 6458 ddbd 8260 253c 37f6 41be
00000380: 688e c13c 3deb 943d 28e9 5e3b 765e dfbd
00000390: 3dbc bf3c 8f0a a0bd d143 b83d 1a10 91bd
000003a0: 7d85 edbb 0804 eebc 850b 213e 99e3 0b3e
000003b0: 44e6 2fbc 4192 903d a8c0 67bd 2376 bdbd
000003c0: 9181 3cbe cc5f 41be ebc7 aa3a 943e 34bd
000003d0: 3946 853e e264 13bd aa8c 843d 1784 a9bd
000003e0: f079 0abe e430 a7bd 9079 463e 4a4e 88bd
000003f0: 7555 0bbe 36b1 8fbd 435d 143e 3d7c e33d
0.028604655 -0.09972735 -0.02693014 0.017038357 -0.032569226 -0.058484353 0.056383017 0.04242634
-0.032446668 0.04142235 0.060152408 -0.101894975 0.0644968 -0.04276772 0.10644538 -0.027369011
0.018909821 0.36874276 0.054779597 0.051714465 0.16010131 0.0492125 -0.0674697 -0.015848173
0.3162711 0.04146274 0.077853724 -0.32193768 0.03511614 -0.065247126 0.07685813 -0.2081382
0.05711558 0.028111978 -0.046540428 -0.1373264 -0.049033828 -0.0038108854 -0.104702115 0.003701713
-0.12646894 -0.055400994 -0.046813615 -0.057775456 0.10687689 -0.24384314 0.085858196 -0.095726214
0.062376484 -0.018037561 -0.01770588 0.069590196 -0.23423399 0.23421003 0.09947138 -0.15341428
-0.0027585777 0.28582004 -0.038592335 0.008995979 -0.06967495 0.068873815 0.036382113 0.0984918
0.024299415 0.0032796874 0.10247371 0.13323209 0.040374737 -0.017069228 0.041781515 0.19266814
0.17212021 0.073679715 0.04951309 0.016089192 0.09622224 -0.15972893 -0.04423596 -0.028651949
0.0032169488 0.025939189 -0.39820802 -0.042111304 0.096493565 0.051675927 -0.03387952 0.06930999
-0.015276271 0.07498351 -0.41696662 5.8058533e-05 -0.04193095 -0.10913799 -4.5856737e-05 0.18571591
-0.020261792 0.012958421 -0.10530594 0.029034501 0.085286565 0.14387941 -0.09412329 -0.051929865
0.09465469 0.08912224 0.08865914 0.017983358 -0.13034125 0.044645116 0.14533393 0.050886545
-0.51471233 0.07158782 -0.22157969 -0.1025133 -0.28827098 0.04030248 -0.030084098 -0.07893988
0.008980639 -0.2758701 -0.034400653 -0.2129397 -0.04001415 -0.10324377 -0.015747063 -0.014892668
-0.09948901 -0.08543993 0.060696952 -0.04030721 0.05718956 0.020181967 -0.45796752 -0.14621787
-0.0975394 0.094845414 0.11117203 -0.105887525 0.11253794 0.044209346 -0.04825833 -0.11204021
0.09179619 -0.03705312 -0.016277036 0.0060793455 -0.16992898 -0.059916418 0.08163097 0.40316463
-0.047236152 0.054059364 -0.054400004 0.051269937 0.077055104 0.097236134 0.01759853 -0.009022342
0.12300628 -0.11325138 0.10195914 0.0846413 -0.08530795 0.010450968 -0.05762589 -0.11585672
0.12169126 0.0041129333 0.13120049 0.09294768 0.1097052 0.07549592 0.12187384 0.019008933
-0.1803547 -0.010619708 -0.067505635 -0.022900293 0.05654366 0.05956014 -0.12774085 0.18482229
-0.04967642 -0.010660622 -0.10263583 0.14149006 0.0153649915 0.08399696 -0.4486378 -0.1118544
0.078878775 -0.08882765 -0.14176455 0.02583177 -0.1525261 -0.039592173 -0.10209801 -0.024756297
0.25276473 -0.0682751 0.03060917 0.03675456 0.0392032 0.15346701 -0.2743673 0.07218791
0.020080145 0.07279047 0.0071882755 0.03162485 0.14436929 0.1056916 0.024684483 0.105660796
0.026850041 -0.06931253 0.24391471 0.14571752 -0.05969703 -0.10807875 0.01009381 -0.1894158
0.023627475 0.07271431 0.0034013484 -0.10906689 0.023405189 -0.07814514 0.0899731 -0.07083149
-0.007248579 -0.029054657 0.1572705 0.1366104 -0.010736052 0.07059146 -0.056580216 -0.092510484
-0.184088 -0.188842 0.0013029551 -0.04400499 0.26030138 -0.03598488 0.06472142 -0.08277147
-0.13523078 -0.08163622 0.1938231 -0.066555575 -0.13606818 -0.07016222 0.14488702 0.11107681

model.fc2.bias f4 [6]
00000000: d402 363e 3411 45be 45b1 003e 07a7 cfbd
00000010: 65d7 cc3c 2ac5 cb3c
0.17774516 -0.19244844 0.12567623 -0.1013928 0.025005052 0.024874289
