models/model.pth (torch, 16247 bytes, 8 tensors)

model.gcn1.weight f4 [21, 32]
000000 b5 99 fd 3d f9 8d 8c 3d 76 6a 83 bd 35 9a 20 3e
       0.12382833 0.06863017 -0.0641679 0.15683825
000010 87 fb a2 be 8e fc 1c 3e 16 fe 1d 3c c6 fd 4e 3c
       -0.31832525 0.15330717 0.009643098 0.0126337465
000020 54 1b 8f 3e 52 e9 a1 3e ea dd 97 3d 3a 43 5b be
       0.27950537 0.31623322 0.074153736 -0.21412364
000030 74 65 50 be 00 b6 00 be 07 9d a3 3e df d1 79 be
       -0.20351201 -0.12569427 0.3195574 -0.24396466
000040 bf 8c 7d 3e b9 d0 99 3c 0b 6c 9b 3e f6 60 a0 3e
       0.24760722 0.018776285 0.30355868 0.31323975
000050 91 52 29 bd fa f2 33 be 43 1f a0 3d 95 62 a1 bc
       -0.041338507 -0.17573157 0.07818463 -0.019700328
000060 53 30 cb bd 51 b1 7a be 51 70 65 bd 71 a5 8c bc
       -0.099213265 -0.24481703 -0.056015316 -0.017168732
000070 7a 89 4d 3a de 3f 9c 3e 72 05 95 be 9f 53 8d be
       0.0007840615 0.30517477 -0.29105717 -0.2760286
000080 e6 6c 4a 3d 97 f6 95 bd df 19 82 bd 65 52 2a 3e
       0.04942026 -0.07322424 -0.06352591 0.16632994
000090 68 10 22 bd 0c 58 a9 be 88 ca 25 be a5 44 c9 ba
       -0.039566427 -0.33074987 -0.16190541 -0.0015355541
0000a0 82 67 20 be 6d fb 27 be 11 66 b0 3d f1 78 6c 3d
       -0.15664485 -0.16404505 0.086132176 0.057732526
0000b0 56 1e 84 be 89 10 94 be bb bb 12 be f4 70 63 be
       -0.25804394 -0.28918865 -0.14329426 -0.22211057
0000c0 ee 7e 19 be 83 76 a9 3e fa 7a 3b 3c 9b 35 79 3e
       -0.14989826 0.3309823 0.011442894 0.24336855
0000d0 29 53 f7 bc 54 dc 19 3e a1 0a 3b be aa 3b ac be
       -0.030191021 0.15025455 -0.18265773 -0.3363927
0000e0 2d 55 99 be 11 79 25 3d 5f 3a 8a 3d ae 28 1b 3e
       -0.29947796 0.04039866 0.06749415 0.15152237
0000f0 8f e9 8a be 05 4f a0 3c 08 6d 5e 3e 1e b7 bb 3c
       -0.27131316 0.01956893 0.2172128 0.022914466
000100 d9 40 a7 be 9b 0b e5 bd c7 37 48 3e 62 a5 5d 3d
       -0.32666662 -0.11183854 0.19552527 0.0541128
000110 d8 b1 88 3e 10 ee 2f be 1c 24 80 3e e3 33 48 3e
       0.26698184 -0.17180657 0.2502755 0.19551043
000120 3a 36 4f 3e bd 38 35 3c 46 bb 11 be eb 06 6d 3e
       0.2023553 0.011060891 -0.14231595 0.2314717
000130 ee 5d 8a bd 91 e5 88 3e 8c 88 8b 3e 7c e8 ea bd
       -0.06756197 0.26737645 0.27252614 -0.11470124
000140 74 ce 99 3e a3 ad d2 bd 8e b7 d7 bd d8 55 cc bd
       0.30040324 -0.10287025 -0.10533057 -0.09977311
000150 e7 58 67 3d 28 b4 a5 3d 22 02 d3 bd 20 8d 11 bc
       0.05648127 0.08091003 -0.10303141 -0.0088837445
000160 ee f5 6b 3d 09 46 04 be 83 74 86 bd ac 14 1b be
       0.057607584 -0.12917341 -0.065651916 -0.15144604
000170 cc d4 79 3e e0 9d a2 3e 0e 7e 31 3e 5a a4 4d 3d
       0.24397582 0.31761074 0.17333242 0.050205566
000180 13 bb 86 3e 5e 89 73 3e 36 fc 20 be 9a da 4e be
       0.263146 0.2378287 -0.15721211 -0.20200577
000190 5d 32 a2 3e ac 77 66 3e a6 5f 36 3d e6 74 3e bb
       0.3167905 0.22506589 0.04452481 -0.0029061376
0001a0 07 39 b1 bd 3e 89 60 be 9d d2 9d 3e 24 1a 1b 3e
       -0.08653455 -0.21927354 0.30824748 0.1514669
0001b0 95 6d 93 3e dd 05 8a bd 9e cb 08 be 38 d1 08 be
       0.28794542 -0.067393996 -0.13358924 -0.1336106
0001c0 28 39 85 be fd d6 86 3d 9d 3f 3d be 0b 18 8f 3e
       -0.2602017 0.065839745 -0.18481298 0.2794803
0001d0 e6 e3 91 be df 83 f2 bd 7f 4c f1 bd d6 0c 48 be
       -0.28494185 -0.11841559 -0.117821686 -0.19536147
0001e0 1e 0a 0b be 89 c8 a4 3e b3 1f a6 3c 12 ed 45 be
       -0.13578078 0.32184246 0.020278787 -0.19328716
0001f0 0f 59 8f 3e 39 24 5d 3e 3e 04 97 3e 55 4a 82 3e
       0.27997634 0.21595849 0.29495424 0.25447336
000200 46 bf 08 3e 6f 47 99 3e 36 d6 43 be 14 a5 62 3d
       0.13354215 0.29937312 -0.19124684 0.055333212
000210 6d 5e 34 be 40 ab a7 3e e7 a5 a4 be ba aa 90 bd
       -0.17614146 0.3274784 -0.32157823 -0.070638135
000220 27 89 8c be ee 1c 1a 3e eb b3 44 be 6c 64 7a 3e
       -0.2744839 0.15050098 -0.19209258 0.2445237
000230 ce fa a1 3e d8 4c 02 bd 85 1a 25 3c 6a 6c 8c 3d
       0.3163666 -0.031811565 0.0100771235 0.06856616
000240 ee b2 80 3d a4 40 91 3d bf 31 a9 3e 0f f3 d3 bd
       0.06284128 0.07092407 0.33045766 -0.10349094
000250 e8 aa aa 3e 62 0c 98 3e 45 4d a7 be df 3b 6a be
       0.33333516 0.29696947 -0.3267614 -0.22874402
000260 c5 bb fc 3d 7a 0c fd 3d e6 f3 22 bc 0a 13 f3 bc
       0.12340502 0.12355895 -0.009945845 -0.029672164
000270 4c 31 a0 3e b7 6c 8e 3e dc ec 91 3e 56 6c 34 be
       0.3128761 0.27817318 0.28501022 -0.17619452
000280 7c 69 c2 3c 10 86 4c 3c 7f 83 fc 3d b6 98 e2 bc
       0.02373194 0.012483135 0.123297684 -0.027660709
000290 20 23 c6 bd 33 fb 3e 3e b2 0b 20 3e e0 11 72 be
       -0.09674668 0.18650512 0.15629461 -0.23639631
0002a0 0d 05 8d 3e 7c 34 59 3e 1e 79 94 be 3f 0b a5 be
       0.27542916 0.21211427 -0.28998655 -0.32235143
0002b0 2c a9 a7 3e 59 f2 7d 3e cb d2 cb 3d 47 0c 1c be
       0.32746255 0.2479948 0.09952315 -0.15239058
0002c0 58 03 0b be 9e 14 dd bd d6 e0 9a bd 69 8f 4c 3e
       -0.13575494 -0.10794948 -0.07562415 0.19976582
0002d0 30 79 ce bd 04 df d9 3d c0 59 e8 bd 72 15 88 be
       -0.100817084 0.1063824 -0.113452435 -0.2657886
0002e0 c9 39 83 be 0e 7b 74 be 90 37 91 be 11 6e 72 3e
       -0.25630024 -0.23875067 -0.28362703 0.236748
0002f0 90 ae 6c bd 37 a2 7d be 3a 4e 84 3e f6 37 a5 3d
       -0.057783663 -0.24768911 0.25840932 0.08067314
000300 62 b0 a8 be 5e f4 89 3d 41 51 9c 3e b9 c1 8e be
       -0.3294707 0.067360625 0.30530742 -0.27882174
000310 19 88 14 be 75 71 a7 be 47 69 87 be 7d 35 94 3e
       -0.14505042 -0.32703748 -0.26447508 0.28947058
000320 77 1e 99 be 94 45 10 3c 51 46 87 3d 94 da 2a 3e
       -0.29906055 0.008805651 0.06605209 0.16684943
000330 cc a4 f1 3d a2 59 21 be 27 74 b0 3d 6d 75 8e bc
       0.11799011 -0.15756848 0.08615904 -0.017389977
000340 86 5e 60 be 50 67 93 be 47 80 a5 be f1 67 63 3e
       -0.21911058 -0.2878976 -0.3232443 0.22207619
000350 05 0a 93 3d c2 65 23 be 79 22 97 be b4 ec 8f 3e
       0.071796454 -0.15956786 -0.29518488 0.28110278
000360 b6 e4 55 3d ff 85 2b 3e e9 64 03 3b 2f 72 7d be
       0.05222007 0.16750334 0.002004916 -0.24750589
000370 cc da 72 3e a9 38 91 be 57 8a 4a 3b af 02 88 3e
       0.23716277 -0.2836354 0.003090521 0.26564547
000380 4e 99 9e 3e 34 29 8c bc 46 82 84 be d3 f8 30 bd
       0.30976337 -0.01710949 -0.2588064 -0.043206047
000390 fe 72 e3 bc b8 5b 97 be ab 2b e4 bd 39 78 92 be
       -0.027764793 -0.29562163 -0.111411415 -0.28607348
0003a0 7c 17 c1 3d ec d3 0d bd 72 ca 3b be 64 ea 6c be
       0.094283074 -0.034625933 -0.18338946 -0.23136288
0003b0 cf 80 81 be e1 d0 f2 3d 11 ea 84 be 37 ab 9c be
       -0.25293586 0.11856247 -0.25959828 -0.30599377
0003c0 68 85 58 3e aa 9f 90 3d 32 60 96 3d 4f f1 86 3e
       0.2114464 0.070617035 0.073425665 0.2635598
0003d0 0c b8 62 bd b2 97 94 3e b2 d5 3e 3e 05 b5 95 3d
       -0.055351302 0.29021984 0.18636206 0.07309917
0003e0 bd 9f a0 be e7 0a 8e 3e fc e4 e2 bd 71 eb 8b bd
       -0.3137187 0.27742693 -0.110788316 -0.06832016
0003f0 05 45 df 3d 40 0a a7 be 00 1b 91 3e a7 3f 7d 3e
       0.10901836 -0.32625008 0.28340912 0.24731313

model.gcn1.bias f4 [32]
000000 00 00 00 00 00 00 00 00 00 00 00 00 00 00 00 00
       0.0 0.0 0.0 0.0
000010 00 00 00 00 00 00 00 00 00 00 00 00 00 00 00 00
       0.0 0.0 0.0 0.0
000020 00 00 00 00 00 00 00 00 00 00 00 00 00 00 00 00
       0.0 0.0 0.0 0.0
000030 00 00 00 00 00 00 00 00 00 00 00 00 00 00 00 00
       0.0 0.0 0.0 0.0
000040 00 00 00 00 00 00 00 00 00 00 00 00 00 00 00 00
       0.0 0.0 0.0 0.0
000050 00 00 00 00 00 00 00 00 00 00 00 00 00 00 00 00
       0.0 0.0 0.0 0.0
000060 00 00 00 00 00 00 00 00 00 00 00 00 00 00 00 00
       0.0 0.0 0.0 0.0
000070 00 00 00 00 00 00 00 00 00 00 00 00 00 00 00 00
       0.0 0.0 0.0 0.0

model.gcn2.weight f4 [32, 32]
000000 5d d7 88 3e fe ac 38 3d 20 8c ef 3c 1c 1c 8b be
       0.2672681 0.045086853 0.029241621 -0.27169883
000010 10 ca 9b 3e ac ba 49 be 6f ee c7 3d 99 93 3c 3e
       0.304276 -0.19700116 0.097622745 0.18415679
000020 e8 ad 94 be e6 65 53 3e 40 97 1c 3e 9c 4f 90 3d
       -0.2903893 0.2064434 0.15292072 0.07046434
000030 f2 13 92 3e 04 99 90 3d e8 2c 4d be 0b d4 bd 3d
       0.28530842 0.070604354 -0.20036662 0.092689596
000040 03 e1 90 3e ee 84 8b 3b f4 83 89 3e 1d 5e a9 bd
       0.2829667 0.00425779 0.26858485 -0.08269904
000050 4f 9f 04 3d 55 55 60 be 09 61 15 3e 6e c1 8a 3d
       0.03237849 -0.21907552 0.14587797 0.06775175
000060 97 3f 26 3e 4c a6 2a be f7 00 85 be f3 69 14 3e
       0.16235195 -0.16665 -0.259773 0.14493541
000070 1f f0 82 bc 22 77 0b 3e df 3e ed bc 99 8c f4 3d
       -0.01598364 0.13619664 -0.028960643 0.119408794
000080 c0 94 14 3e 8d 52 53 be fb 69 db 3d be 1e 99 be
       0.14509869 -0.2063696 0.107135735 -0.29906267
000090 b7 cc 87 be 31 9b 82 bd a6 7a 92 bd bb 12 86 3d
       -0.26523373 -0.06377257 -0.071522996 0.06546541
0000a0 8b 7c 79 be 4c a3 33 be 44 29 a8 3d e9 02 12 bd
       -0.24363916 -0.17542762 0.08210996 -0.035647307
0000b0 f3 d5 ad 3c 8f cc 69 bd 0a 25 27 3e 33 73 57 be
       0.021220183 -0.057079848 0.16322723 -0.21040039
0000c0 fe 3b 45 be 58 20 32 be 1c 73 af 3d e8 8f 55 3e
       -0.19261166 -0.1739515 0.08566877 0.20855677
0000d0 c9 2c 8a 3e 3a ce 00 3e 22 33 be bd d0 66 12 3e
       0.26987293 0.12578669 -0.092870966 0.14297032
0000e0 c3 e7 bc 3d ae a0 58 3d 6a c2 b5 3d 15 74 8f 3e
       0.092238925 0.05288761 0.08874972 0.2801825
0000f0 46 9f 2b bd 57 53 87 3e 88 27 02 be ae 8d aa 3d
       -0.04189994 0.2643077 -0.12710392 0.083278045
000100 4b 1d e2 bd 9e 8f 39 be 74 65 75 3c cd 81 1e 3e
       -0.110407434 -0.18121192 0.014977802 0.15479203
000110 53 17 3c be 87 7b 9c be d3 72 34 be 07 c4 5c be
       -0.18368272 -0.30562994 -0.17621927 -0.21559153
000120 3e 94 82 3e 96 64 b9 bd b9 cc 90 3d f4 ff 59 3c
       0.25503725 -0.09052388 0.07070298 0.013305653
000130 51 f3 4b be 40 69 70 3e c1 32 8b be 66 e1 0b 3c
       -0.19917037 0.2347765 -0.2718716 0.008537626
000140 52 ba b5 bd 91 f4 f6 3c 8f a9 eb 3c 3a 93 71 bd
       -0.088734284 0.030145915 0.028767375 -0.058978297
000150 95 d4 46 3e dd b0 7e 3d 08 64 1e 3e 79 22 84 be
       0.19417031 0.06218039 0.15467846 -0.2580755
000160 9a af 48 3d 1b 3d 61 3d 3b 3c 8e be b8 81 fb bd
       0.04899559 0.054989915 -0.27780327 -0.12280601
000170 dc fc 50 be aa 95 35 3e 79 18 be bc ac 12 1e 3e
       -0.20408958 0.17732874 -0.023205029 0.1543681
000180 c8 86 31 be 0f 79 c2 bd c7 2d 89 3e 6e f0 58 be
       -0.17336571 -0.09495746 0.26792738 -0.21185467
000190 3d 5c 90 3e f4 f4 8d 3e 1d a8 ee 3d 76 1d 16 3e
       0.28195372 0.27725947 0.11653159 0.14659676
0001a0 06 88 82 3e 24 45 3e be 1b ef 80 bd f6 5b ef bd
       0.25494403 -0.18581063 -0.06295606 -0.11687462
0001b0 d6 ec 12 3e 5d e0 8c 3e 1f 12 f4 bd fa 28 53 be
       0.14348158 0.27514926 -0.11917519 -0.206211
0001c0 f6 e4 30 3e a4 ec 82 3e 86 e0 4d 3e 25 77 2d bd
       0.17274842 0.25571167 0.2010518 -0.042349953
0001d0 b2 44 6b be 41 27 65 bd 1b ad ec 3d d6 04 4d 3d
       -0.22975424 -0.05594564 0.11556455 0.05005344
0001e0 39 d2 8c be 34 7d 86 3e cb 02 d7 3b 17 7b 33 3e
       -0.27504137 0.26267397 0.0065616122 0.17527424
0001f0 0b ce 90 3e fc 6a 86 3e af 84 46 3e f3 8b 7a be
       0.28282198 0.26253498 0.19386552 -0.24467449
000200 62 74 8c 3e 55 1c 79 3e 66 9a 86 3e de 0f 85 3d
       0.27432543 0.24327214 0.26289672 0.06497167
000210 6b 3c e1 3d b2 9d c3 bd 09 88 fb 3c b1 40 c5 3c
       0.10997852 -0.09551562 0.030704515 0.024078699
000220 f6 4c 89 3e e6 b6 86 3e 05 28 20 3e ef 16 90 be
       0.2681653 0.26311415 0.15640266 -0.28142497
000230 55 cb 05 be 21 e8 82 be 90 0c 26 3e 03 43 84 3e
       -0.13065846 -0.25567725 0.1621573 0.25832376
000240 26 a7 ef 3b f6 31 6c 3d d2 44 68 3e 0d ad 0b be
       0.007313627 0.057664834 0.22682503 -0.13640232
000250 8e 61 6b be 51 7b 97 be cd ce 80 3d d4 6d 06 be
       -0.22986433 -0.2958627 0.06289444 -0.13127834
000260 f8 60 9c 3d 09 d6 31 3e d5 f1 65 3e 69 d4 1c be
       0.07635683 0.17366804 0.22455533 -0.15315403
000270 5a 97 5e 3e 9b b9 be 3d e8 84 34 be 10 09 96 be
       0.21737424 0.09312745 -0.17628825 -0.2930379
000280 79 94 c7 bd 3b c6 8b 3e 8b 90 4e bd d7 f0 4e be
       -0.09745116 0.27299675 -0.050430816 -0.2020906
000290 0c 83 c4 3d a6 ec 52 be 9e 5e 54 3d 0c e8 95 be
       0.09595308 -0.20598087 0.051848046 -0.292786
0002a0 16 61 b9 3d a9 5d 03 3d f1 82 54 3e 0e 82 30 3e
       0.09051721 0.032071743 0.20753075 0.17237112
0002b0 b4 14 ec 3d 45 86 eb bc e0 f2 8c be 8b 5f 19 be
       0.11527386 -0.028750548 -0.2752905 -0.14977853
0002c0 2c 38 23 be e1 86 86 3e cc 41 54 bd 25 8c 87 bd
       -0.15939397 0.2627478 -0.05182056 -0.06618527
0002d0 ed 87 0e 3e 50 d5 08 bd 3e ef 6a 3e 3b 95 cc bd
       0.13919039 -0.033406556 0.22942826 -0.09989401
0002e0 bb 65 ad bc 7b 3a db 3d 3c c3 ad bd 47 5a 45 3e
       -0.021166673 0.10704514 -0.084845036 0.1927272
0002f0 5e c6 6f 3e 0e 0d 4a be f4 bc 9a be e4 5e c7 3d
       0.23415515 -0.19731542 -0.30222285 0.09734896
000300 bd f1 b5 bc 0a b4 9a 3c 14 03 a5 3d 8a 25 8b be
       -0.022209996 0.018884677 0.08057228 -0.27177078
000310 26 75 90 3e 63 b5 45 be 2a 1c 1e 3e 77 77 68 be
       0.28214377 -0.19307475 0.15440431 -0.22701822
000320 a2 f4 da bd 4b f6 09 3e 77 01 c5 bc c3 6b 9b be
       -0.10691191 0.1347286 -0.02404855 -0.30355653
000330 ef 6a a5 3d 63 be 51 3e c4 45 49 3e 64 3f 93 3e
       0.080770366 0.20482783 0.1965552 0.287593
000340 84 58 57 3e 26 16 28 bd e3 64 a5 3d 0d a4 63 3e
       0.2102986 -0.041036747 0.08075883 0.22230549
000350 f0 e8 50 bc 24 1c aa bd ba 1c 81 3d 73 2a 87 bd
       -0.012750849 -0.08306149 0.06304307 -0.065998934
000360 af 2d 8a 3e b0 5d 02 3b 62 07 bc 3c 86 55 81 3c
       0.2698798 0.0019892268 0.02295274 0.015787851
000370 d0 5f 23 3b 98 a0 92 be e6 ab 94 be 00 5d 0a bc
       0.0024928935 -0.28638148 -0.29037398 -0.0084450245
000380 60 8a 72 be af 33 ea 3d 49 f4 69 3d c9 35 14 be
       -0.23685598 0.11435639 0.057117734 -0.14473642
000390 7e be 0e be 06 99 d2 bd ef e2 18 3e de 86 19 be
       -0.13939855 -0.10283093 0.14930318 -0.14992854
0003a0 2b 31 d2 3b b2 9a 34 3d 7e 4f 90 3e 9a 00 3b be
       0.0064145527 0.04409284 0.28185648 -0.18261948
0003b0 6d b9 95 3d 17 e1 03 3e 8d 8c 82 3d c7 5a 9a be
       0.07310758 0.12878834 0.06374464 -0.30147383
0003c0 67 c4 01 be b3 71 5b be 47 1d c0 3d d5 ae 78 be
       -0.12672578 -0.21430092 0.09380584 -0.24285443
0003d0 22 d4 16 3e 74 32 11 be c0 04 69 3e 32 47 70 3e
       0.1472936 -0.14179403 0.22755718 0.23464659
0003e0 0e 7d 99 3e 19 56 9a 3e 10 10 e9 bb ab 84 1b be
       0.29978222 0.30143812 -0.0071125105 -0.15187328
0003f0 d5 7a 62 be 37 fe 9b 3e d7 b3 cf 3d 6f d4 3c 3e
       -0.22117169 0.30467388 0.101417236 0.18440412

model.gcn2.bias f4 [32]
000000 00 00 00 00 00 00 00 00 00 00 00 00 00 00 00 00
       0.0 0.0 0.0 0.0
000010 00 00 00 00 00 00 00 00 00 00 00 00 00 00 00 00
       0.0 0.0 0.0 0.0
000020 00 00 00 00 00 00 00 00 00 00 00 00 00 00 00 00
       0.0 0.0 0.0 0.0
000030 00 00 00 00 00 00 00 00 00 00 00 00 00 00 00 00
       0.0 0.0 0.0 0.0
000040 00 00 00 00 00 00 00 00 00 00 00 00 00 00 00 00
       0.0 0.0 0.0 0.0
000050 00 00 00 00 00 00 00 00 00 00 00 00 00 00 00 00
       0.0 0.0 0.0 0.0
000060 00 00 00 00 00 00 00 00 00 00 00 00 00 00 00 00
       0.0 0.0 0.0 0.0
000070 00 00 00 00 00 00 00 00 00 00 00 00 00 00 00 00
       0.0 0.0 0.0 0.0

model.gcn3.weight f4 [32, 32]
000000 57 2a 40 3e 3e d0 d5 bd 9c 3c 98 3c 94 6e a2 bd
       0.18766151 -0.1044011 0.018583588 -0.07931247
000010 62 43 01 3c 60 a5 3b 3e 8b 50 21 3e 26 31 d0 bc
       0.0078896005 0.18324804 0.15753381 -0.02541406
000020 85 d2 9f 3d bd 0a 4b be 28 1e 09 be 5b 12 65 be
       0.07803825 -0.19828315 -0.1339041 -0.22370283
000030 bd 21 0f be cd 5a a7 bd 15 56 6b 3d ec 50 ff 3d
       -0.13977714 -0.08171616 0.05745514 0.124666065
000040 8e 27 74 3d b9 48 c8 bb 4a 81 f4 bd a0 3e 91 3e
       0.059608035 -0.006112185 -0.119387224 0.28368092
000050 db bb 28 3e 38 70 94 bd 1e 73 2e 3e aa 9a 2d bd
       0.16477911 -0.072479665 0.17036101 -0.042383827
000060 79 da 8f bd bc e6 1c 3b fb 3a 8b 3e 54 96 27 3e
       -0.07024092 0.002394124 0.27193436 0.1636594
000070 c6 69 22 3e 43 2a 8a 3e 2c 0d 39 bd 52 f4 79 be
       0.15860662 0.26985368 -0.045178577 -0.24409607
000080 b5 2b 91 3e 64 d2 8c 3e b6 df 98 bd c3 c3 e2 bd
       0.28353658 0.27504265 -0.074645445 -0.11072495
000090 97 ed 3e be 34 96 2e be 10 ac 69 bd 73 fb 47 3e
       -0.18645321 -0.17049485 -0.057048857 0.19529514
0000a0 5c 99 58 be c8 aa 7e 3e 4a 58 63 be e4 ea 41 bd
       -0.21152252 0.24869835 -0.22201648 -0.04734315
0000b0 55 cb 34 3e c9 73 d4 3d f7 c5 e8 3c a5 72 99 3e
       0.1765569 0.10373647 0.02841471 0.2997028
0000c0 94 99 d4 3d e9 ca 03 be ca 97 d5 bd 1d 90 08 bd
       0.10380855 -0.12870373 -0.10429342 -0.033340562
0000d0 f7 84 31 be b4 57 2c 3e 5b f4 c0 bd 16 e4 3e bc
       -0.17335878 0.16830331 -0.09421607 -0.01165106
0000e0 58 1d 8b bd 35 32 8d 3e e5 b3 de 3d f8 71 2f 3e
       -0.06792706 0.27577367 0.10874156 0.1713332
0000f0 26 ae e9 bd 00 01 4e be f9 84 e2 bd d2 b8 92 bd
       -0.11410169 -0.20117569 -0.11060519 -0.07164158
000100 15 cf 93 3e 4c d8 3a 3d 3e 6e 1e be 10 7f 9f 3d
       0.2886893 0.045616433 -0.15471742 0.07787907
000110 2f 1d 9b be 58 07 ec 3d a7 c4 7a 3d f1 fd 22 3e
       -0.30295703 0.11524838 0.0612227 0.15917183
000120 02 63 e2 bd 54 fe 96 3e 0f 07 56 3e 5a 45 61 3e
       -0.110540405 0.29490912 0.2090113 0.21999112
000130 ae a4 40 3e 59 9a 43 bd 50 be 57 be 46 43 d6 bc
       0.1881282 -0.04775462 -0.21068692 -0.026155125
000140 ae 1e 61 3d 2d 09 9b be 9d ab 1c be a7 d6 86 3e
       0.0549609 -0.30280438 -0.1529984 0.26335642
000150 fb f9 f0 3d 39 ec 87 be 9d 48 45 bd df ab 6d 3d
       0.1176643 -0.2654741 -0.048164953 0.058025237
000160 a2 fe 11 3e 8c d4 80 3e 4f 2c 08 be 20 03 3a 3e
       0.14257291 0.2516216 -0.13298152 0.18165255
000170 26 3d 69 bd dd 58 cb bd 0a 68 7c be 72 66 a2 3d
       -0.05694308 -0.09929059 -0.24649063 0.07929696
000180 b5 36 85 3e 7f 36 86 3d 04 d2 86 be 2f 1d 42 3e
       0.260183 0.06553363 -0.26332104 0.18956445
000190 0b b7 90 bd 7f 47 45 be 74 3b 4f be 13 b2 52 bd
       -0.07066163 -0.19265555 -0.20237523 -0.051439356
0001a0 25 f7 86 3d 75 11 8f be 69 dd f4 3d 5d f1 91 be
       0.06590108 -0.27943006 0.11956293 -0.28504458
0001b0 72 2f a4 3d 34 ce 95 be 30 d7 ec bd 7e b7 87 3e
       0.08016862 -0.29258883 -0.11564481 0.2650718
0001c0 e0 cb 97 bd 53 63 fc 3d 51 94 9a 3e 3f a3 81 3e
       -0.07411933 0.12323632 0.3019128 0.2531986
0001d0 ca ec 4c be e3 55 12 bd 9a e1 78 3d b4 49 41 3e
       -0.20012203 -0.03572644 0.060762025 0.18875772
0001e0 23 2e 83 3e 48 e4 2b 3e 03 c9 73 be 5d 30 54 be
       0.25621137 0.16786301 -0.23807149 -0.20721574
0001f0 30 5f 93 3e 88 f9 c1 3d c3 48 fa bd 65 3b a1 bd
       0.2878356 0.094714224 -0.122209094 -0.07872657
000200 fd c7 92 3e 38 5a a6 bc 1d a5 ce 3d b7 8d dc 3d
       0.28668204 -0.020306692 0.100900866 0.107692175
000210 0f ab a1 bd cf c0 22 be 71 8e 71 bd 03 16 81 3e
       -0.07893955 -0.15893863 -0.058973733 0.25212106
000220 67 a7 01 be 97 41 43 3e b2 4c 0a 3d 01 df 4c be
       -0.12661515 0.1906799 0.03376455 -0.20006944
000230 01 2b 30 be 13 54 8f 3e 3f 38 7e be 8b 3e 9c 3e
       -0.17203905 0.2799383 -0.24826144 0.30516466
000240 ea d5 4f 3e 2f f3 b2 bd 54 67 c1 3d 19 49 21 be
       0.20296445 -0.0873779 0.094435364 -0.15750541
000250 09 ea 79 3d 26 1d 97 3e b3 f8 44 bd 1f 3a 96 bd
       0.06101421 0.29514426 -0.04808874 -0.073353045
000260 1d da b4 bb 59 67 c5 3c 76 43 e5 3c 04 d6 de 3d
       -0.005519165 0.024097132 0.02798627 0.10880664
000270 a9 9d 4e 3e a9 ad 7b 3e a0 a4 1b 3e 7f 5c 8e be
       0.2017733 0.24577965 0.15199518 -0.27804944
000280 71 ce 6a bd e3 a8 a4 bc b9 9a 05 be 32 67 5d 3e
       -0.057325784 -0.020100063 -0.13047303 0.21621397
000290 0b 8e 00 be af 92 73 be 22 10 87 3e cb 64 af bd
       -0.12554185 -0.23786424 0.26379496 -0.085641466
0002a0 4f 05 89 bb 50 15 b4 bd 6e fb 7f 3e 12 36 42 be
       -0.004181541 -0.087931275 0.24998257 -0.18965939
0002b0 34 9c 47 3e 4b d0 97 bc 63 5d 5e 3e 33 66 48 3e
       0.1949318 -0.018531939 0.21715312 0.19570236
0002c0 6d 88 96 be 8a 4b 3e 3e be c4 0b 3e 79 d0 25 3e
       -0.2940096 0.18583503 0.1364927 0.16192807
0002d0 1c 2f 1b be ed b1 1c 3e 28 00 86 3e 62 89 93 be
       -0.1515469 0.15302248 0.26171994 -0.28815752
0002e0 4a b8 4d 3e 45 88 3c 3e 88 e8 83 be 2b 95 ee bd
       0.20089832 0.18411358 -0.25763345 -0.11649545
0002f0 0a 65 40 3e 4b b0 0b bd 5c 62 ea bd 75 05 65 bd
       0.18788543 -0.034103673 -0.11444542 -0.055913407
000300 0d 78 b9 bd be 2a f5 3c 8c 41 ca 3d 44 37 24 3e
       -0.09056101 0.029927608 0.09875783 0.16036707
000310 23 bd 8f be ab 86 63 3e 98 64 5f be aa af 5d 3e
       -0.28073987 0.2221934 -0.21815717 0.21649042
000320 cd bb 68 be 17 27 07 3e fa 77 74 be 33 43 16 3e
       -0.2272789 0.13198505 -0.23873892 0.14674072
000330 36 fa 5e 3e c2 b2 03 3e 7c 92 fb bd 05 c8 b1 3d
       0.21775135 0.1286116 -0.12283799 0.08680729
000340 a0 37 35 3e b4 02 eb bd 82 b7 8d 3d 47 96 21 be
       0.17697 -0.11475125 0.06919767 -0.15779983
000350 2e e4 84 3d 97 05 4a 3e 47 19 2a be a5 8b 92 3e
       0.06488834 0.19728695 -0.16611205 0.28622165
000360 88 85 cf 3d 0c ca 66 3e 8a 32 80 be e4 f5 d2 3d
       0.10132891 0.22538012 -0.25038558 0.10300806
000370 2d f7 38 be 6b fc 22 3d 28 60 4c 3e ad 72 90 be
       -0.1806304 0.039791506 0.19958556 -0.2821249
000380 d0 53 9b 3e a8 cd 04 3e 28 a0 01 3e f9 6f 4e bd
       0.3033738 0.12969077 0.12658751 -0.050399754
000390 cb 71 3a be 32 9c 88 3e 53 65 37 3e 25 9d 87 be
       -0.18207471 0.26681668 0.17909746 -0.2648708
0003a0 c2 fd 26 3d 64 ff cd 3d 6c 6e 7a bd f8 9d 6d be
       0.040769346 0.100584775 -0.061140463 -0.23204792
0003b0 f4 5f cc bc 02 46 96 3e 2d 50 47 3d 2b 0d 99 be
       -0.024948098 0.29350287 0.048660446 -0.2989286
0003c0 0d 29 cc bd a7 d3 76 bb 4d 2e 8f be 4e 82 b7 3d
       -0.09968767 -0.0037662776 -0.27965012 0.089604005
0003d0 78 b9 57 bd 11 8d 76 be c4 22 51 3d 5b 18 67 be
       -0.05266711 -0.2407725 0.051058546 -0.22567885
0003e0 ff a6 87 3e ec 6e 36 3e e3 4f ae bc 4e d9 26 be
       0.26494595 0.17815751 -0.021278327 -0.16293833
0003f0 dc da 47 be 52 0f 17 3d f4 b6 84 be b7 f3 f9 bd
       -0.19517082 0.036879845 -0.25920832 -0.12204688

model.gcn3.bias f4 [32]
000000 00 00 00 00 00 00 00 00 00 00 00 00 00 00 00 00
       0.0 0.0 0.0 0.0
000010 00 00 00 00 00 00 00 00 00 00 00 00 00 00 00 00
       0.0 0.0 0.0 0.0
000020 00 00 00 00 00 00 00 00 00 00 00 00 00 00 00 00
       0.0 0.0 0.0 0.0
000030 00 00 00 00 00 00 00 00 00 00 00 00 00 00 00 00
       0.0 0.0 0.0 0.0
000040 00 00 00 00 00 00 00 00 00 00 00 00 00 00 00 00
       0.0 0.0 0.0 0.0
000050 00 00 00 00 00 00 00 00 00 00 00 00 00 00 00 00
       0.0 0.0 0.0 0.0
000060 00 00 00 00 00 00 00 00 00 00 00 00 00 00 00 00
       0.0 0.0 0.0 0.0
000070 00 00 00 00 00 00 00 00 00 00 00 00 00 00 00 00
       0.0 0.0 0.0 0.0

model.fc1.weight f4 [6, 32]
000000 81 cb f4 bd 71 b2 38 bd 3e 35 9a bc 25 19 df bc
       -0.11952878 -0.04509205 -0.018824216 -0.02723367
000010 15 7d ce 3d 5c 83 65 bc dc 65 aa 3d 5a 80 bf 3d
       0.10082451 -0.014008369 0.083202094 0.09350653
000020 53 61 33 bd 1a c9 00 be 0e 58 e8 3b 7b 94 4c bc
       -0.043793987 -0.12576714 0.007090575 -0.012486572
000030 16 1a b9 bd 66 1a e9 3d ac 69 c5 3d 7b f2 ea bd
       -0.090381786 0.11381988 0.09639296 -0.11472031
000040 f3 ca d5 3c 4f b5 a6 3d 25 b9 b4 3d 28 b6 1c be
       0.02609775 0.081400506 0.08824376 -0.15303862
000050 3d 55 89 bd 65 13 0a be 2d ea ed 3d 12 66 bf 3d
       -0.06705711 -0.13483961 0.11616931 0.0934564
000060 d3 26 a4 bc 9c b0 2f 3d 37 94 59 3d fc 9a 3a 3d
       -0.020038044 0.042893037 0.053119864 0.04555796
000070 17 fe 15 be 31 23 28 be 89 02 23 be 68 b2 20 be
       -0.14647709 -0.16419674 -0.15918936 -0.15693057
000080 1e 39 07 bd 92 35 55 3b 19 3a eb 3d d0 66 cb bb
       -0.033013456 0.003253315 0.114856906 -0.0062073246
000090 80 75 33 be 49 95 98 bc 77 90 08 bd f0 c3 0a 3d
       -0.17525291 -0.018625872 -0.033340897 0.033878267
0000a0 9a 84 c2 3d c6 62 1b be 62 11 19 3d 69 61 11 3e
       0.09497948 -0.15174398 0.037370093 0.14197315
0000b0 47 de ed 3d ba fb 1d 3e b1 2f e2 3c ba 10 30 3e
       0.11614662 0.15428057 0.027610632 0.1719388
0000c0 73 66 ec bd 49 61 84 3d 74 cb 0a bd 0d d2 2d 3e
       -0.11542978 0.06463868 -0.033885434 0.1697466
0000d0 dc df 58 bd 57 92 ae 3d e0 89 b3 3d a9 c3 02 be
       -0.052947864 0.08524006 0.08766532 -0.12769951
0000e0 d1 b2 28 3e 39 e1 16 3e 60 ff 1d 3e d8 4b e2 ba
       0.16474463 0.14734353 0.15429449 -0.0017265035
0000f0 68 14 f4 3d 54 20 e1 bd 7d 16 10 3e 7e 0a 24 3e
       0.11917955 -0.10992494 0.14071079 0.16019627
000100 5f 84 06 be a0 97 2a be 08 54 fd bc 09 e0 0e 3e
       -0.13136433 -0.16659403 -0.030923858 0.1395265
000110 b8 f8 ba 3d 5f 94 34 be 1f 08 f6 3d 66 1d 6a bd
       0.091294706 -0.17634724 0.12013268 -0.057156943
000120 4f bd 80 3d ec 7f 0f 3e 13 0f 1f bd 5a c8 cf 3d
       0.06286108 0.14013642 -0.038832735 0.10145636
000130 6f be 01 3e 74 2f 23 3e 60 ad 19 be 8c 23 c5 3d
       0.12670301 0.1593607 -0.15007544 0.09625921
000140 0a b0 1f 3e c7 91 bf 3d 25 b2 c2 bd f1 73 29 3b
       0.15594497 0.09353977 -0.095066346 0.002585646
000150 e3 bf 18 3c 12 fa be bd c5 a4 b2 3d ef 00 51 3d
       0.009323093 -0.09325041 0.087228335 0.05102628
000160 9f 0c 7c bd 29 68 00 3e 1c 96 cb 3d 92 d4 ec bc
       -0.061535474 0.12539734 0.099407405 -0.028909955
000170 1c 7c 11 bc bf 9f 5e bd ad 8c ef 3d b9 bb 87 bd
       -0.008879688 -0.054351564 0.11696754 -0.06627602
000180 e0 83 f8 3d 41 24 dc bd 0b cc 5f 3d 98 09 7c bd
       0.12134528 -0.107491024 0.05463795 -0.061532587
000190 f1 31 bd bd 8f be 08 bd 0b 6e e3 bd ce d8 d9 3a
       -0.09238041 -0.033384856 -0.111049734 0.0016620399
0001a0 e4 b7 ec 3d ea b7 0e 3e 22 69 90 3b f1 86 0b be
       0.11558512 0.13937345 0.004407064 -0.13625695
0001b0 e3 f7 4a bd b8 47 fc bd 40 b9 11 3d 37 0d 3d ba
       -0.04955281 -0.12318367 0.03557706 -0.0007211747
0001c0 1e 74 ba bd 0b 6b c5 3a 21 9c d6 bd f6 a3 10 3e
       -0.09104179 0.0015061809 -0.10478998 0.14125046
0001d0 65 31 04 3e 0d a8 f6 3d e5 58 be 3d 24 bb 7c 3d
       0.12909468 0.12043772 0.09294299 0.06170191
0001e0 02 87 10 bd 45 f0 08 3e f9 4c 2a be 04 2b 08 3d
       -0.035285003 0.13372906 -0.16630925 0.033244148
0001f0 a1 2c 8e 3d 41 e6 14 3e 2c e8 89 bd c7 cf ea bd
       0.06942106 0.1454096 -0.067337364 -0.11465412
000200 6f 73 ec 3c b2 e8 a6 3c 8e 9e 14 3e 9b 83 cf bc
       0.028863637 0.02037463 0.14513609 -0.025331309
000210 76 1b 26 be 8f 9c b7 bd df 17 49 bd 34 07 07 bd
       -0.16221413 -0.08965408 -0.04909503 -0.032965854
000220 58 f0 ed bc 90 b9 25 3e 01 13 b3 3d 81 0c 08 3e
       -0.029045269 0.16184068 0.08743859 0.1328602
000230 2f 7b e5 3d 1a 26 0e 3e 24 30 a6 bd 5f 82 83 3c
       0.11205136 0.13881722 -0.08114651 0.016053377
000240 51 db bb bd 0e 9d 0e 3e ce f8 01 be ef 91 8a 3d
       -0.09172691 0.13927099 -0.12692568 0.06766116
000250 2a a0 0b be e2 64 ca bd ec ce ef bd 19 7b 81 bd
       -0.13635316 -0.09882523 -0.11709389 -0.06322307
000260 17 06 19 be 5a 5d a6 bd ab df bd bc 43 20 df bb
       -0.1494373 -0.08123274 -0.023177942 -0.006809266
000270 e4 31 03 bc d0 e9 c1 3c 9b bb f2 bd 5b c8 2c be
       -0.0080075 0.02367106 -0.11852189 -0.16873305
000280 93 e9 b1 3d c1 8f e1 bd 35 fa 2c bb 60 77 a3 bd
       0.08687129 -0.11013747 -0.0026394252 -0.07981753
000290 4f 76 41 bd 00 3c 03 be 99 3b c1 3b e9 87 1a 3e
       -0.04723197 -0.12815857 0.005896997 0.15090908
0002a0 a8 4d 28 3e 59 99 4f 3c 44 ef 6c bb 3c 50 9e 3d
       0.16435874 0.012670838 -0.0036153356 0.07730147
0002b0 59 c8 1a be 7a 79 7b bc 6f 69 05 bd be 6e fe bc
       -0.15115489 -0.0153487865 -0.032571252 -0.031058665
0002c0 ad 7a 9d 3c 0b 8e 6f bd b5 4d 11 bb 91 bf c0 3d
       0.019223535 -0.058485072 -0.002217156 0.094115384
0002d0 2b db 31 3e 8c c3 9a 3c 5b bb 1d bd 58 2d 8b 3d
       0.17368762 0.018892072 -0.038508754 0.06795758
0002e0 b1 c2 30 be 9a 80 00 3e 1a b5 26 be 31 07 22 bd
       -0.17261769 0.12549058 -0.16280022 -0.03955764
0002f0 ca 71 2a bd b8 79 0a 3e be 8b 8d 3d 8c ef bf 3d
       -0.041612424 0.13522995 0.06911419 0.09371862

model.fc1.bias f4 [6]
000000 e0 b9 31 3e 42 ac a2 bd a3 62 10 be eb f6 88 bd
       0.17356062 -0.07943012 -0.14100127 -0.06687721
000010 74 46 ee 3d cd 6a 0a bc
       0.116345316 -0.008448315
