models/model.pth (torch, 45200 bytes, 24 tensors)

model.gcn1.weight f4 [21, 32]
00000000: 1a35 8e3d 5960 3a3c 0535 b73e 378e 053e
00000010: 6371 81be 10c5 c9bd cd30 c73e a203 84bb
00000020: 9e05 7e3e 2072 13bf f373 66bb e680 e6bd
00000030: 6648 a6be f2f8 91be b122 a03d ba10 abbe
00000040: b906 a0be 016a 563e 2742 7ebe e46b cbbe
00000050: d52d cbbe d16e 5bbe 0904 ce3e 8ddc 163e
00000060: efe7 e03d 6274 5abd d05d 9bbe 462f 99bc
00000070: a8e0 98be 9b29 293e a343 b3bb c406 cdbe
00000080: d750 febb ec59 143e bbb8 a0be bb26 b33e
00000090: 1964 7b3e d08e c53d b5d3 763c 1126 923e
000000a0: 2c99 3e3e 205c 8abd b9b0 7ebd 6991 bb3e
000000b0: 6997 e5bc bce7 f4bd 0139 653e 0efd 603d
000000c0: b339 64be 43b8 843e 1663 1abe 5ab5 823e
000000d0: 050f aa3d 9eb9 9dbe f26b 813e 5686 01be
000000e0: 50a6 953e 50ea dbbe 63cc 8cbe 64da cdbd
000000f0: 396c ab3e 4a97 e4bd 9876 683d 0441 923e
00000100: f253 9ebe cff8 5d3d 9611 4a3e dec9 b13d
00000110: 9378 f53b 1098 f73d 74a2 a63e 580f 523e
00000120: 2eed 40be e5b6 80be 8862 253e 99da 72be
00000130: ab90 61bd 8907 933e c175 edbd 8528 bd3e
00000140: d9d7 a1be 0244 97be 3a32 d0bd 530e 553c
00000150: 0ed5 af3d 756b 093e 2776 1f3e 8436 d33c
00000160: 61f2 d23d 0420 39bd 253a 6bbe 4e6b 933e
00000170: d8e5 acbe b8f8 5e3e 3ec1 4fbe f31e 74be
00000180: 93b4 8e3e f2b0 1fbf ff10 f93d 21c1 3b3e
00000190: 2865 5dbd 585a 6cbe 8dc5 aa3e 2a0d 203d
000001a0: d367 49bd 97d0 a6be 8e33 103f a329 e8be
000001b0: 5222 c1bd 0e75 35be 54e6 6fbe 26cb 253e
000001c0: a386 ba3a 8c51 ec3e f393 03bf bf9e 2e3e
000001d0: 0964 bfbe 5018 26be a64a 923d 2f10 a53d
000001e0: e5b3 9dbe 2b4d 343f ce22 f1bd 75fb c7be
000001f0: 4eab ff3e 7542 993d e0c1 4ebe c111 87bf
00000200: d992 5bbd 23ae dd3c 8b99 1bbe aaf7 6cbe
00000210: c220 afbd 7a99 7d3d 249f a7bd ec1b 8bbe
00000220: e051 d83d 6dc3 083e 7873 8e3e 063b aa3e
00000230: ebcb a33a b505 7dbd be1d f9bc 34ad 403d
00000240: 5d7a 483e ec10 85be 2bd9 afbe 8c09 1f3e
00000250: 883d 53bd ea43 69be 4f02 6cbe 6e20 463e
00000260: 855c 8fbd 11c1 26be 824a a8bd e534 fbbd
00000270: 9f83 973e 0804 993c bc13 d8bc d6c0 00bd
00000280: a9ac 103e fe43 91be 2c58 d83c d166 a2be
00000290: c5d8 6d3d c466 3a3e a4b0 81be 8d62 3ebe
000002a0: ee98 613e a346 993d c083 9fbe 3b1c 76bc
000002b0: ba44 a2be 1b34 1cbe 16e3 133c 5779 e8bd
000002c0: 6feb 8bbe 05f2 743e 6447 04be ed10 cebd
000002d0: 9418 e93d 7bb8 9abe 1f44 a8be 11b4 ab3d
000002e0: 2126 fbbd b6cd d93c f2fc 753e ee44 9a3e
000002f0: d6ee 893e 3ac2 35bd 49d2 eb3d 1866 c6bd
00000300: 936f 693e 88df e7bd 960c a83e 3d21 833e
00000310: 843e 0d3e 0cb8 b9bd 154f 063e 44a8 b83d
00000320: 463f 74be 6d57 a7be e4f8 8fbe 79c4 d33d
00000330: a348 843d c616 50be 115d 8bbe c8ef 863d
00000340: 8036 a53d 2fc7 4e3e 5636 c93c bf3f 033e
00000350: 605a 67be 5d57 60bd db62 86be ddf4 31be
00000360: 81b9 ffbe 7973 5bbe d9ae b9bd f6fa 633e
00000370: f49f 123e cf1d a83e 21e2 003c f3da 28be
00000380: 3ab5 85be c1ef 09bd 0068 05be cbe3 8e3e
00000390: 6828 86bc 3065 a2be ca88 a93d 0b6e 6d3e
000003a0: fe22 92bd 2122 7d3e cf6d 5bbd d70f c03d
000003b0: d33f 8b3d 56e0 2e3e da68 873e 1b92 a6bc
000003c0: bc4d c2be 68e1 0e3d 1c9c 85bd 7d72 9bbd
000003d0: 1a16 b2be 0fe3 46bd 7284 473e 5c82 57be
000003e0: 1399 a03e 7aa7 713d 59c8 89be 83c0 9a3e
000003f0: 45ef 3dbd 5d1e 1ebe 1cdd 913c d6c2 483d
0.06943722 0.01137551 0.35782638 0.13042532 -0.2528182 -0.0985204 0.3890442 -0.0040287534
0.2480683 -0.57596016 -0.0035164326 -0.11255054 -0.3247711 -0.28510243 0.07819117 -0.334112
-0.3125513 0.20938875 -0.24829923 -0.39730752 -0.39683405 -0.21428992 0.40237454 0.14732571
0.10981738 -0.053333648 -0.3034501 -0.0186993 -0.298589 0.16519777 -0.0054707094 -0.40044224
-0.0077611017 0.14487427 -0.31390938 0.34990487 0.24549903 0.0964638 0.015065123 0.28544667
0.18613118 -0.06755853 -0.062180255 0.36634377 -0.0280263 -0.11958262 0.22385027 0.05492883
-0.22287636 0.2592183 -0.15076861 0.25528985 0.08303646 -0.30805677 0.25277668 -0.12648901
0.2922845 -0.42952204 -0.27499685 -0.1005142 0.33481005 -0.111616686 0.056753725 0.28565228
-0.3092342 0.05419236 0.19733271 0.08681081 0.00749118 0.120895505 0.32545817 0.20513666
-0.18840477 -0.25139537 0.16150868 -0.23716201 -0.055069607 0.28716686 -0.115947254 0.36944976
-0.3160999 -0.29544073 -0.1016583 0.013003903 0.08585559 0.13419898 0.15572415 0.025782831
0.10300136 -0.045196548 -0.22971399 0.28792804 -0.33769107 0.21774566 -0.2028856 -0.23839931
0.27872142 -0.6237937 0.12161445 0.18335392 -0.05405155 -0.23081338 0.33353844 0.039075054
-0.04917128 -0.32581016 0.56328666 -0.45344266 -0.09430374 -0.17720434 -0.23427707 0.16190776
0.0014230799 0.46155965 -0.5139763 0.17052744 -0.37381008 -0.16220212 0.07143144 0.080597274
-0.3080131 0.7043025 -0.117742166 -0.39059034 0.49935383 0.07483379 -0.20191145 -1.0552293
-0.05360684 0.027060574 -0.1519529 -0.23141351 -0.0855117 0.061913945 -0.081846505 -0.2716974
0.105624914 0.13355799 0.2782247 0.33248156 0.0012496685 -0.06177302 -0.03040969 0.04704018
0.19577928 -0.25989473 -0.34345374 0.15530986 -0.051572353 -0.22779813 -0.23047756 0.19348308
-0.070000686 -0.16284586 -0.08217336 -0.12265948 0.29592606 0.01867868 -0.026376598 -0.031433903
0.14128365 -0.28372186 0.026409231 -0.31719068 0.058068056 0.18203264 -0.2533008 -0.18592282
0.22030994 0.07484176 -0.31155205 -0.015021379 -0.3169306 -0.15254252 0.0090263095 -0.11351269
-0.2732806 0.23920448 -0.12917858 -0.10061822 0.11381641 -0.30218872 -0.32864472 0.08383954
-0.12263132 0.026587348 0.24022272 0.30130714 0.2694003 -0.044374682 0.11514718 -0.096874416
0.22796468 -0.11321932 0.32822102 0.25611296 0.13793379 -0.09068307 0.13116105 0.09016469
-0.23852262 -0.32683888 -0.28119576 0.103402086 0.06459167 -0.20321187 -0.27219442 0.065887034
0.08067036 0.2019317 0.024562042 0.12817286 -0.22593069 -0.054770816 -0.26247296 -0.17378564
-0.49946216 -0.21430768 -0.09066553 0.22263703 0.1431883 0.32835242 0.007866413 -0.16489772
-0.26114827 -0.033675913 -0.13027954 0.27908167 -0.01637669 -0.31717825 0.082780436 0.2318651
-0.071355805 0.2472005 -0.05357152 0.09378021 0.06799283 0.17077765 0.26447183 -0.02033334
-0.37949932 0.034882933 -0.06523916 -0.07590196 -0.34782487 -0.048556384 0.19484118 -0.21045822
0.31366786 0.05899761 -0.26910666 0.30225 -0.046370763 -0.1544127 0.017805628 0.049013935

model.gcn1.bias f4 [32]
00000000: fe8e 053e f263 4f3f 9c3d f6bd c97a ff3c
00000010: f81e 9dbd 1f96 08bc c27d 7f3e 2dda 293e
00000020: 4a88 5bbe dcd5 c63d 8c99 71b9 9734 b43d
00000030: 22ae 86bd 3231 603d bdd0 243e c1dc dcbb
00000040: 4396 753d e135 b23c 8630 91bd 81ef 963e
00000050: 76a3 2e3e 762f 443c a28b 46be 705c 71bd
00000060: 9c9a eabd 5433 7f3e b7b8 363e 873f d4bc
00000070: a4db 453d e593 ad3d 0a62 983d d501 073e
0.13042828 0.8101188 -0.1202347 0.031186478 -0.076719224 -0.008336573 0.24950317 0.16587134
-0.21438709 0.09708759 -0.00023040752 0.08799093 -0.06576182 0.054734416 0.16095252 -0.006740183
0.059957754 0.021754207 -0.07089333 0.29479602 0.17054543 0.011974206 -0.19389203 -0.058926046
-0.11455271 0.24921924 0.178439 -0.025909198 0.04830517 0.08475474 0.074405745 0.13184293

model.gcn2.weight f4 [32, 32]
00000000: c703 913e 603f ca3e 9e49 c1bd 55e7 183e
00000010: a942 193d c6ae 6c3e 76c1 873e aa0b d53e
00000020: 7092 64bd ac96 0a3d d2c6 eb3c 90bc 9d3d
00000030: 9e88 bb3e dee5 26bc 1f0e 5e3e 243a bc3e
00000040: 24e9 05be 15c4 f73d b1e8 823e 6189 5b3e
00000050: 06f8 a43b d26d 033e a397 523e fc1e 9fbe
00000060: 0360 e23d 4865 d23c 0daf 133f 0877 0fbf
00000070: 990f b1be 75bb 7fbe 0413 ab3e 6d9b c43e
00000080: 17c9 4dbe 9a79 803d 3809 c9be 65e0 86be
00000090: b02d 173e 8ce2 2a3e a7a9 c8bd ccf4 d23d
000000a0: 9eb1 1f3e d224 043f 580f 3ebe f991 9dbe
000000b0: 45db 8d3e 07ff 73bd 99a8 2ebe 9349 ba3e
000000c0: d1ea 84be aa0f a7be 7320 2c3e bfba 603c
000000d0: e369 b33d 497d 64bc 9176 95be ef6d f1bd
000000e0: d5d2 363d aa64 9e3e fd98 b43d b4b4 b53d
000000f0: 39ae 903e eaf0 033d 6009 3b3d 214f 80bd
00000100: 75e5 283e 58c1 a53d 3747 0dbe 0cad 1d3e
00000110: a3c5 00bd 9d4d 9e3e fddc 873d 786a 563e
00000120: f070 a7be f83b 90be 7632 653e 3101 ef3d
00000130: 4dd8 623e 9d92 b03c 64f3 3ebe 266b 883e
00000140: 8669 8fbe 2ad8 403e ff1a a2bc 4a6c ad3e
00000150: 80a9 24bd 50dc 3b3d fe83 7fbe 769f d33c
00000160: 69b1 813c 7ae1 e33d b03a 513e e254 ed3d
00000170: 0386 063e 03f5 06be 95c8 a13e bae0 0dbc
00000180: 767c 8b3e f13f 853e f13b d43c 037a c7be
00000190: cc3d 71be 10e0 193b 8e2e aebe 8d6d 50be
000001a0: ac2d 08be c40c cc3e 6d29 80be b7a6 96bd
000001b0: a7c2 bc3d 7227 c13d aeb2 e6bd de85 b63d
000001c0: 458c 873e cbb7 273d 7d39 333e 2f49 fcbd
000001d0: 4826 533e bc5e 33be 3661 9e3e 9fab 4a3c
000001e0: 4033 3b3e 7a11 b0bd bac3 313e fceb 8abe
000001f0: a4d4 21be 1153 0b3e d24d 48be 42eb 4ebe
00000200: f341 b1be 7a92 9cbe 79af 003e 3e18 8b3e
00000210: 18f2 47bd 49a4 babd d114 4b3d 5d52 403e
00000220: 45fe f23d d556 97bd bf78 f8bd 6068 eb3d
00000230: 4d5a 9dbe 8f0f bbbe a1c8 75bd 826d fa3c
00000240: 4943 37bd 3c8e 87be fad5 c63d 2111 963e
00000250: bd62 9ebd 0e25 48be 2281 67be f537 db3d
00000260: 32e6 6c3e 99bd 97bb 7314 ed3d 1ca8 cf3e
00000270: c7ea 093e 76f9 73be bb31 b33d 0852 fdbb
00000280: 27de 083e 7755 893e 0639 89be 8e9d 8fbe
00000290: afc6 063e a5bd 423b 0914 903d 0e40 373e
000002a0: f9a5 cc3d 7848 66bd 7101 5e3e edf9 e9bd
000002b0: a327 d3be 61a2 56be 15bc bf3d f458 483e
000002c0: 40fc 2abe 76ff 903e 8fc8 3d3e a5ec 89bc
000002d0: 96d9 ba3d 1735 0b3e a07a 803e 0139 203e
000002e0: 1077 8a3e be40 fe3d 0ee7 803e 520f 393e
000002f0: bb2e babb eb22 993e 431f 98be 25fc 1d3d
00000300: 5bcd 5a3e 749e 13be fcfb 843e 3c78 25be
00000310: b736 093f 2098 213e e7fd 123e 9962 d93e
00000320: 52ee 05be bf66 0cbe ca73 ccbe 8e8b 673c
00000330: 22ae 863e 3447 713d 7ef2 903e 892d 533e
00000340: f5e3 cf3a 51d5 7dbe 3417 093e 5eb7 e23c
00000350: 7d30 e4bd c275 f9bd 3199 7a3e 36ae 1e3e
00000360: b957 e2bd eaa1 093f f512 d8be 8368 c13e
00000370: 3d7f eb3e b942 abbe 2866 26be ddb1 6abd
00000380: 452f 06be 2a04 1abe cf4a 1cbe d7bf d3bd
00000390: 3022 04bf c541 4f3d e700 ed3e 89f3 0ebe
000003a0: 1a01 ab3e 8166 c03b 7720 ec3d 91d0 833e
000003b0: c80d 533e 2fc4 013d 5a8c 493d 7cfe acbe
000003c0: 274c 073f 8373 1c3f c848 583e bf76 343e
000003d0: 05fb cdbd 272b 77be 2ad3 d83e b4f4 663d
000003e0: b1af c7bd 8bfc 8f3d fc09 c93e c1cb 263a
000003f0: 720d 75be c576 643d 8151 0abf f760 a5be
0.28323194 0.39501476 -0.094378695 0.14931996 0.037417088 0.23113546 0.26514786 0.4161046
-0.055803716 0.0338351 0.028781328 0.07701981 0.36627668 -0.010186641 0.21685074 0.36763108
-0.13077217 0.120979466 0.25568154 0.21439125 0.0050344495 0.12834862 0.20565657 -0.31078327
0.11053469 0.02568306 0.5768898 -0.56041 -0.34582213 -0.24973853 0.33412945 0.3839983
-0.20096241 0.06273194 -0.39264846 -0.26343074 0.14763522 0.16687983 -0.097979836 0.103005975
0.155951 0.51618683 -0.1856054 -0.3077543 0.27706352 -0.059569385 -0.17056502 0.36384258
-0.259604 -0.32629138 0.16809253 0.013716399 0.08760431 -0.013945886 -0.2919202 -0.11788546
0.04463466 0.30936176 0.08818243 0.08872357 0.2825792 0.032212175 0.045663238 -0.06265093
0.16493781 0.08093518 -0.13796698 0.15398043 -0.03143848 0.3091859 0.06633947 0.20939052
-0.32703352 -0.28170753 0.2238253 0.11670149 0.22152825 0.021554286 -0.18647534 0.26644248
-0.28010195 0.1883246 -0.019788263 0.3387168 -0.04020071 0.045864403 -0.24952695 0.025832873
0.015831666 0.111269906 0.20432544 0.11588456 0.13137059 -0.13179402 0.31598344 -0.008659536
0.27243394 0.26025346 0.025907489 -0.38960275 -0.2355873 0.00234795 -0.34019893 -0.2035429
-0.13298672 0.3985349 -0.25031605 -0.07356017 0.092168145 0.09431352 -0.11264549 0.08912252
0.26474205 0.040946763 0.17502399 -0.12318646 0.20620072 -0.17516607 0.3093354 0.012370019
0.18281269 -0.085970834 0.1735982 -0.27133167 -0.15803772 0.13605906 -0.19560936 -0.20206931
-0.34620628 -0.30580503 0.12566938 0.27166933 -0.048814863 -0.09113366 0.0495804 0.18781419
0.11864904 -0.07389609 -0.121324055 0.11494517 -0.30732957 -0.36535308 -0.060005788 0.030569796
-0.044741903 -0.26475704 0.097087815 0.29309943 -0.077336766 -0.19545385 -0.22607854 0.10704032
0.23134688 -0.004630756 0.11576166 0.40557945 0.13468467 -0.2382563 0.0874972 -0.007730726
0.13365994 0.26823017 -0.26801318 -0.28049892 0.1316173 0.0029715088 0.070350714 0.17895529
0.09992594 -0.056221455 0.21680237 -0.11424623 -0.41241178 -0.2096038 0.09362046 0.19565183
-0.16697788 0.283199 0.18533538 -0.016836474 0.091235325 0.13594471 0.25093555 0.15646745
0.27043962 0.12414692 0.2517628 0.1807225 -0.0056818402 0.29909453 -0.2971135 0.038570542
0.213674 -0.14415914 0.259735 -0.16159147 0.53599113 0.15780687 0.14354669 0.42458037
-0.13079193 -0.1371107 -0.3993209 0.0141323935 0.26304728 0.058905795 0.28310007 0.20622839
0.0015860783 -0.24788405 0.13387758 0.027675327 -0.11142061 -0.12180664 0.244725 0.15496144
-0.11051888 0.53762686 -0.42201963 0.3777505 0.45995513 -0.33449343 -0.16249907 -0.05729853
-0.1310397 -0.15040651 -0.15262912 -0.10339325 -0.51614666 0.050599832 0.4628975 -0.13960089
0.33399278 0.0058715944 0.1152963 0.2574506 0.20610726 0.031681236 0.049206115 -0.33787906
0.52850574 0.61113757 0.21121514 0.17623423 -0.10057644 -0.24137555 0.42348605 0.05638571
-0.09750307 0.070305906 0.3926543 0.0006362759 -0.2393091 0.05577733 -0.54030615 -0.3230054

model.gcn2.bias f4 [32]
00000000: 12d3 733e 2d2e 293e 0b99 c5be da49 853c
00000010: cda6 e83d 43be babd 1d31 b8bd 316b 103e
00000020: f152 2c3e de89 4b3e 2802 4ebe 7187 fdbd
00000030: e361 983e 238f dabd 13c3 aabd 9a4a e8bc
00000040: 4cfc 083e ea36 8bbd 6738 2d3d 37c4 96bd
00000050: 06eb 3fbd 091a e33c c171 423d 9f7c 25be
00000060: 9c60 6fbd 2cdc adbc a942 283e af81 00be
00000070: 4238 bcbd 25c3 3ebd 0146 04bd a52f 8c3c
0.23810986 0.16521521 -0.38593325 0.016270567 0.1135994 -0.09118321 -0.089937426 0.1410339
0.16828515 0.19876811 -0.2011801 -0.12379349 0.29762182 -0.106718324 -0.08337989 -0.028355885
0.13377494 -0.067975834 0.042290118 -0.07361644 -0.046854995 0.027722375 0.047471765 -0.1616082
-0.058441743 -0.02122315 0.16431679 -0.1254947 -0.09190418 -0.046572823 -0.032293323 0.017112562

model.gcn3.weight f4 [32, 32]
00000000: a3cc d4be 6039 70be dc03 973d 0beb 82be
00000010: d773 bebd 413d 013f 0310 603d a610 51be
00000020: 00a7 91be 9d7e 5d3d 5246 fbba 9d97 233e
00000030: ec5a c6bc 9b9d b6be 4f2c 943e 09fb 693d
00000040: 9f5e 013f 843c 9c3d 9bae cb3e dd31 75bd
00000050: 9104 06bd 8438 8fbd 6b5c 153e 3fb8 183f
00000060: 7201 8f3e 6a96 6ebe 2348 dc3d 1ea9 e33e
00000070: efc1 033e 155a ae3e ef7d 84be 19ce 17be
00000080: 4f72 35bf 50c8 13bf d158 943e f102 f7be
00000090: c180 473f b101 3b3f 6fb2 dabe b4eb d03e
000000a0: 7b79 f13e ee29 65bf e65f 0c3f 4018 71bf
000000b0: e195 fb3e 812e 6fbf 8fb4 303f 9d89 113e
000000c0: c067 4e3d 5153 dd3e 3517 e8bd 7bbc 8b3e
000000d0: bf65 a4bd 4dc4 b03e c42e 943f dcf5 1b3f
000000e0: ed91 253d d058 6dbc 401b 503e d54f 11bf
000000f0: 8ed9 8a3e 9cdd 5bbf 6fca e6be 1569 d3be
00000100: 703b 9d3e ad64 f7bb 019e c13e 9b98 fbbd
00000110: cd77 30be 89f7 ac3d 450c 0a3f 554b ccbe
00000120: acd1 5c3e 28c8 d03e 1164 d0be bd51 153f
00000130: 6ba0 3cbe 874e d33c 6b6f 0fbf 09f3 82be
00000140: 05fa a63e 5084 17bd e768 b6be 6521 10be
00000150: 4ea9 133e d0a2 103d 8458 e6be 3a96 603d
00000160: be90 db3d 671d 06bd 99f4 e9be 6123 1b3e
00000170: 4b72 77be d36e 023f 6215 953e e849 8f3e
00000180: 2cc5 64be 56e9 94be 9503 3b3e e51d aa3e
00000190: bb7d 823e 3c8a 23be 5137 9abd e12a 5f3e
000001a0: a140 ff3d 8102 6dbe 86a8 7fbe 896d a7be
000001b0: 2e21 743a 038c 753e 26fe a43d 2430 9c3e
000001c0: 05f5 3d3e 86e1 8a3e 4b13 023e 6852 26bd
000001d0: 089a 97be d18d 9cbe 5262 7fbe 479c 7cbe
000001e0: ba0b 97be 732b 803e acad cbbd 6706 75be
000001f0: db33 bbbc f1e2 303e f77a 923d c486 a2bd
00000200: 170c 92be 4e97 2fbe ef9f 89be 31a1 9b3e
00000210: 1253 1cbe 31a4 7fbe ee0e 5bbe 328e c0bd
00000220: 0ac8 1cbd 3b7f 1c3e 75b1 65be 106e 5dbe
00000230: 2419 14bd a36e b0be 080e 943e d8fb 903e
00000240: ed70 af3c 7418 98be dc9c 74bd e9df 3f3e
00000250: 2fa6 1d3e 9fa8 b0be 9ef5 51be b4d3 09be
00000260: 205a 23bd 2a3a 843e 6627 b53d cf6f f4bd
00000270: 8864 7bbe 78f7 2b3e b18d 28be 7f12 5abe
00000280: e5a3 9dbd 02b7 463e 8296 5abe d458 173e
00000290: b9a1 903e edf2 fcbc d45e 00be 866d 903e
000002a0: 31bf 2d3e 288c 2dbe 0481 2b3e 7365 803e
000002b0: 34d7 f03d a16d afbd a5ee f43d 89ab 493e
000002c0: 6cb2 0a3d e824 2d3e 2dc7 30bc 990f 783e
000002d0: c289 3dbc 487d 9c3e 818b 803e 0d20 9ebe
000002e0: 55ce 213e 8bce 61be de81 5f3e 0afa ffbe
000002f0: 046e 26bd 992d 23be d4ec c73e 8fb5 293e
00000300: b7c6 5d3e c933 ad3d fac9 673e b2d8 11be
00000310: 5a1c 01be 801c ba3d b911 5bbd 3dbb b93d
00000320: 75dc 543e 449d f3bc 6124 87be e68d 61be
00000330: 49c4 ab3d 76e1 99bd edc2 e23d 55b0 95be
00000340: f8ee 95bd 0050 90be 26ba 05be 37a5 0b3e
00000350: d37d 2c3d 4771 143d 0162 9f3e a6db a2bd
00000360: 40ac 9d3e 1cc7 7bbe 8595 7d3e d491 713e
00000370: 87d8 7a3d cc3a 4ebe d834 6dbe 38e5 3d3e
00000380: d074 30be a8dd 12be add7 b8bd e6ef 3c3e
00000390: b4e4 27be cd47 b1bc a697 483e 3d77 af3e
000003a0: 4c66 023f 57e1 b1be edcb ba3e 87ae a13e
000003b0: ec71 263f 16ca 35be 3ba0 283d 76a7 943e
000003c0: 614b fcbd 4892 b73e 3625 adbe 93fc 283f
000003d0: ff99 143f a5c8 913e 448e ad3e 62c1 d73e
000003e0: 56ab a0be ec69 303e 763a ebbd 4d4b 91be
000003f0: cee1 b93d 0758 a0bc f9fb ed3e 11fc c9be
-0.41562375 -0.23459387 0.07373783 -0.2556995 -0.092994384 0.5048409 0.05470277 -0.20416507
-0.28447723 0.054075826 -0.0019170737 0.15975805 -0.024213277 -0.35667118 0.28940055 0.05712417
0.50535005 0.0762873 0.3978165 -0.059862006 -0.0327192 -0.069932014 0.14586036 0.5965614
0.2793079 -0.23299566 0.107559465 0.44464964 0.12866949 0.34053102 -0.2587733 -0.14824714
-0.70877546 -0.5772753 0.28974012 -0.48244432 0.7793084 0.73049456 -0.4271426 0.40804827
0.47162995 -0.89517105 0.5483383 -0.9417763 0.49137786 -0.93430334 0.6902551 0.14212652
0.050391912 0.43227628 -0.113325514 0.27292237 -0.08027219 0.34524766 1.1576772 0.60922027
0.04042237 -0.014486507 0.20322895 -0.5676244 0.27119106 -0.85885024 -0.4507632 -0.4129111
0.3070941 -0.0075498433 0.3781586 -0.122849666 -0.172332 0.08445651 0.5392497 -0.39901224
0.21564358 0.40777707 -0.40701345 0.5832785 -0.1842057 0.02579428 -0.56029385 -0.25576046
0.32612625 -0.036991417 -0.3562691 -0.14075239 0.14420053 0.03531152 -0.44989407 0.054830767
0.10720967 -0.032742884 -0.45694426 0.15150215 -0.24164693 0.50950354 0.29117876 0.27986073
-0.2234084 -0.2908427 0.18263085 0.33225933 0.2548655 -0.15970701 -0.07530082 0.21793701
0.12463499 -0.23145486 -0.2496663 -0.32700756 0.00093128055 0.23979191 0.080562875 0.30505478
0.18550499 0.27125186 0.12702672 -0.040605932 -0.29609704 -0.30576947 -0.2493985 -0.2466899
-0.29501134 0.2503315 -0.09945235 -0.23928224 -0.022851875 0.17274071 0.0715236 -0.07935861
-0.2852485 -0.17147562 -0.26879832 0.30396417 -0.15266064 -0.24964978 -0.21392414 -0.094021216
-0.03827671 0.1528291 -0.22430976 -0.21624017 -0.03615679 -0.3445941 0.28916955 0.28317142
0.021416152 -0.29706156 -0.059719905 0.18737759 0.15395425 -0.34503648 -0.20503852 -0.13459665
-0.03988087 0.25825626 0.08845405 -0.11935388 -0.24550068 0.1679362 -0.16460301 -0.21296118
-0.07697276 0.1940575 -0.21346477 0.14779979 0.28248385 -0.030877555 -0.12536174 0.2820856
0.16967465 -0.16947997 0.16748434 0.250774 0.11759797 -0.08565832 0.1195958 0.19694342
0.033861563 0.1690861 -0.010789675 0.242247 -0.011568489 0.30564332 0.25106433 -0.30883828
0.15801366 -0.22051446 0.21826884 -0.49995452 -0.040632263 -0.15935363 0.39047873 0.16573165
0.21657835 0.08457143 0.22635642 -0.14242819 -0.12608472 0.09087467 -0.0534837 0.09068916
0.20787223 -0.029738076 -0.26394942 -0.22026786 0.08387048 -0.075137064 0.110723354 -0.29236093
-0.0732097 -0.28186035 -0.13059291 0.13637243 0.042112183 0.036240842 0.3112946 -0.07952051
0.3079548 -0.24587673 0.24764068 0.23590785 0.061241653 -0.20139617 -0.2316469 0.18544471
-0.1723206 -0.14342368 -0.09025512 0.18450889 -0.16395837 -0.021640683 0.195891 0.3427066
0.5093734 -0.34742233 0.36483708 0.31578466 0.6501758 -0.17752871 0.041168433 0.29034013
-0.12319065 0.3585379 -0.33817452 0.660104 0.5804748 0.28473392 0.33897603 0.42139727
-0.3138072 0.17227906 -0.1148576 -0.28377762 0.09076272 -0.019573225 0.46481302 -0.39450124

model.gcn3.bias f4 [32]
00000000: 73ed c6bc 9ab4 52bd 8744 14be bef9 a23d
00000010: e734 9b3c 79d6 36bd e9da 873b 4ebb 42bd
00000020: 9558 3bbe 58e2 ac3d 5f48 9c3c 6d30 4abc
00000030: 4343 25bd e956 ebbc 753e 73bd 1eee 303d
00000040: 069a 4bbd dcfb fcbd 557d 083e a643 34bd
00000050: 2626 babd 4a8e 06be 77ec 01be 6db5 f13b
00000060: 4e06 173d 3ff6 853b 873b 1bbc ca68 b63d
00000070: 5a7f 953d 6c54 963d ec8d 06be 94f0 dc3d
-0.024283146 -0.051441766 -0.14479266 0.07957791 0.018946124 -0.04463813 0.004145969 -0.04754191
-0.1829551 0.08441609 0.019077478 -0.012340647 -0.04034735 -0.028727965 -0.059385736 0.043195836
-0.049707435 -0.12352726 0.1332906 -0.044009827 -0.090893075 -0.13140216 -0.1268786 0.007376364
0.036871247 0.0040881927 -0.009474642 0.08906706 0.07299681 0.07340321 -0.13140076 0.10788074

model.fc1.weight f4 [6, 32]
00000000: 6c09 983c 6718 343e 1bf0 34bd b157 253e
00000010: 2e33 c3bc 65e6 88be c026 30be 288b 2c3e
00000020: e3d4 7bbc 5ea9 323d 653d c13d 3c78 08bd
00000030: b473 81be 0fc8 a23c 0f4b b5bc 34a6 33be
00000040: 6075 18bd be3f 023e b725 2abd f9a0 853d
00000050: 83ad 8d3c d9cd 0a3d 7887 153e 1857 b6be
00000060: 8a96 c63d e42f 2ebe b236 0d3c e50a 3dbd
00000070: d29d d23d 93d3 0abe d94e d0bd 1a43 1c3d
00000080: ae8e a03e cc39 4a3e 19f5 903d a3b1 bbbd
00000090: dc80 17be f38d 0abe b341 31bc a2bb e53d
000000a0: 3354 3d3e c72a 3ebe 7136 b6bd 5c17 813d
000000b0: 14cc 6abc 53ce c03d d885 fb3c 0da8 06bd
000000c0: 841c 21bd 1851 2d3e c71a eebd 0bf9 7e3d
000000d0: 59ff da3d 8bf4 6b3e 6916 ba3d b876 42be
000000e0: 08f0 a4bd da4b 233d 6e37 873d 506f afbe
000000f0: cea6 1fbe f2e1 c2bd 76a4 2c3e 74a7 b4bd
00000100: 1b12 283e e537 2f3d af50 32be 1db4 803e
00000110: 34f4 6a3d 25be cabe d9a5 96bb dd45 743c
00000120: d672 68be ba75 a33e 35c7 f6bd 0c8c 073d
00000130: aac9 76be 5133 f53d c33c d4bd 1ec5 df3b
00000140: 06fd 3fbe da2e 3e3d adb0 b43c 6586 bf3c
00000150: 7d30 18bd aa63 47bd cd25 ebbd b21b 9bbe
00000160: 36f4 00be 7e52 063e 544f 36bd d7db 9a3d
00000170: 39a5 b23d 688b 303e 2549 4dbc 4911 af3d
00000180: 1a05 063e d6f1 6dbc f2a6 a8bd ba27 01be
00000190: 35e8 163f efeb d33d 11b2 70bd d5ba 0fbe
000001a0: b032 5fbe efe8 39be 6822 2f3c 2a83 72be
000001b0: c7be 15be a263 1ebe e0ba 0f3e fbd2 be3d
000001c0: 1f15 bb3d 8fe3 033d 7a5c c53d e6ad 35be
000001d0: 86e0 54be 960d dabd 72e9 933d 51f1 813d
000001e0: 762a 843d aacf 203e 5660 253e b119 1bbd
000001f0: 7439 16be d8fb ae3c d485 93bd 5c42 febd
00000200: 49c9 13be 44f0 8f3d 218d 633d f237 57be
00000210: 1fad e7be ce30 4c3e d6e3 d93d 9f90 18be
00000220: fab5 67be 8527 a63e 130b 4bbd 3b10 6e3e
00000230: d174 47be 01fa 183d 9c2a 77bd 9d1c 62be
00000240: 0ccf 623e 9fb2 0f3d 0b67 1d3c 902e 0ebe
00000250: 3f06 1c3d 92bb 1cbd c658 8d3d 7aed 0e3f
00000260: 202d ab3d e4be 4bbe c8d1 69bd 0dd0 e33e
00000270: 62f2 023d bbc2 1c3e a050 55bd ff75 21bb
00000280: ede8 23bf 322d 21be 05a7 a1bd 867b 14bb
00000290: 6f2d 3cbe 0b37 093c dd30 1fbd 602a 2b3e
000002a0: 70d4 3fbd b2f3 08be c80f ac3d 62e4 2abc
000002b0: df84 4d3e a269 71be 3519 723d 84e9 a33d
000002c0: ae39 bfbd 4fc9 fc3d 78c9 35bd 6210 d53d
000002d0: 612d bd3d 2016 b33d d881 273e 2633 d23e
000002e0: 6f9a a2bd b5f6 b3bb 8ddc d1bd 856b 28be
000002f0: a6c9 063e 5d38 3cbd cdca 2abc 46cc 68be
0.01855918 0.17587434 -0.044174295 0.16146733 -0.023828115 -0.26738277 -0.17202282 0.16849959
-0.01537058 0.043618552 0.09435538 -0.03331779 -0.25283587 0.019870786 -0.022130517 -0.1754387
-0.037221313 0.12719628 -0.041539874 0.06524844 0.01729465 0.033887718 0.14602458 -0.35613322
0.09696682 -0.17010456 0.008618997 -0.046152968 0.10284008 -0.13557272 -0.10171289 0.03814993
0.31358856 0.1974861 0.07077999 -0.09164741 -0.1479525 -0.13530712 -0.010818887 0.11217429
0.1848915 -0.18571006 -0.088971026 0.063032836 -0.014330883 0.09414353 0.03070347 -0.03287511
-0.039333835 0.16925466 -0.11626201 0.062249225 0.10693235 0.23042504 0.09086306 -0.189906
-0.08053595 0.03986726 0.06602369 -0.34264612 -0.15590975 -0.09515752 0.16859612 -0.08821002
0.16413157 0.042777915 -0.17413591 0.25137416 0.057361796 -0.39598194 -0.0045974073 0.014909235
-0.22700056 0.31925756 -0.120497145 0.033092543 -0.24100366 0.119726785 -0.10363152 0.006828918
-0.18748865 0.0464314 0.022056902 0.023379514 -0.037155617 -0.04867903 -0.11481819 -0.30294567
-0.12593159 0.13117406 -0.044509247 0.075614624 0.0872292 0.1724068 -0.012529646 0.08548219
0.13087884 -0.01452299 -0.08234967 -0.1261281 0.5894807 0.10347735 -0.058763567 -0.14036115
-0.2179668 -0.18155263 0.010689355 -0.23682848 -0.14623557 -0.15467694 0.14036131 0.09317585
0.09134888 0.03219944 0.09636779 -0.17742118 -0.20788774 -0.106471226 0.072222605 0.063448556
0.06453411 0.15704218 0.1615003 -0.037866298 -0.14670354 0.021360323 -0.0720326 -0.12415001
-0.14432253 0.07028249 0.055554513 -0.21017435 -0.45249268 0.19940493 0.106391594 -0.14898919
-0.22628012 0.32452026 -0.049571108 0.23248379 -0.19478156 0.037347797 -0.06034337 -0.22081228
0.22149295 0.035082456 0.009607087 -0.1388495 0.038091894 -0.03826482 0.06901698 0.5583111
0.08358216 -0.19897038 -0.05708483 0.44494668 0.031969436 0.15308659 -0.052078843 -0.0024636982
-0.6402729 -0.15739897 -0.078931846 -0.0022656634 -0.18376707 0.00837494 -0.03886496 0.16715384
-0.046833456 -0.13374212 0.084014475 -0.010430427 0.20070218 -0.23575452 0.05910607 0.08003524
-0.093371734 0.12343084 -0.04438159 0.104035154 0.09237171 0.087444544 0.16358125 0.41054648
-0.07939612 -0.0054920563 -0.10247145 -0.16447265 0.1316286 -0.04595219 -0.010424328 -0.22734174

model.fc1.bias f4 [6]
00000000: ed72 ee3d 7a32 98bd d219 a2bc d020 123e
00000010: 5a4c 38bd 3b16 eebc
0.11643014 -0.07431503 -0.019787703 0.1427033 -0.04499469 -0.029063335

exp_avg f4 [21, 32]
00000000: 333f 1cbe 3570 aeba acdd dfba 8ad2 a33b
00000010: 2de3 6dbd 4bbf 60bc 806f 233a 008e c6bc
00000020: bd0a f03c d008 f638 3554 a6b9 6e1d d9bb
00000030: 2920 1fba b1a1 793a 5d0a af3c f519 4dbe
00000040: 6d3d c5b6 1053 01bd 05cb 363a 7b8c c2bb
00000050: 529b 79bc ffba 3d3a c328 5a3b 75d0 6f3c
00000060: e335 063d 046c 7c3c a4e9 08be 7610 853d
00000070: 32cf e3bb bb45 9bbd 74ea 0c3d 65c9 fd3a
00000080: 42c6 80be 491d c5ba 837a a53c 243d d93a
00000090: 32ce 9bbd b046 33bd d161 3bb7 e3dc 50bd
000000a0: b064 743d a100 e938 a032 b3b9 2bb6 98bc
000000b0: 751d 80ba fe7d d83a cd3b 183d b8ab bebe
000000c0: f286 0e38 bcd8 53bd 9343 b63a 9935 b4bb
000000d0: 2176 22bd f10e ab3a c133 483b a160 e43c
000000e0: 95ac 843d 5dde 23b9 48b0 5dbe 2a28 de3d
000000f0: c095 4ebc d5f1 12be 6d0e 733d cf7b b93b
00000100: 0cf4 febe d041 df38 9249 163d bf18 3db9
00000110: 439a 4fbe ec45 7fbd 9ea4 973b 3831 c0bd
00000120: fb99 043e c571 0939 fefc 82ba b3cf 27bc
00000130: 2c34 11bb 1024 5f3b 6899 ab3d fc7e 3abf
00000140: 7c4d 2b38 0223 f7bd 04c1 223b 9ae4 8dbb
00000150: 6e23 90bd 6501 283b 2c39 d0ba 5476 483d
00000160: 4c9e 2a3e c8d4 5a3d 5085 f8be 2100 703e
00000170: b314 15bd c324 8fbe 30d2 0c3e e83e 31ba
00000180: 6a24 74bc f7fa 0839 ee54 343a 17c8 2239
00000190: 200c 09bc 758d 74ba e5d7 e339 3c7d e6bb
000001a0: e36e cf3b 9708 6837 0d1e 6eb8 3eb6 3eb9
000001b0: 303f 94b8 70ee e938 7700 903b a34a 46bd
000001c0: b80f 0bb8 99ac 95bb d0af 1539 95a6 cdba
000001d0: 30a6 73bb 74c0 1139 6a82 8ab7 f154 0d3b
000001e0: 2d12 703c 9270 8e3a 42e4 09bc a6e9 133c
000001f0: 6aca 0dbb f3b0 72bc 24ed 2b3b 6a65 2936
00000200: b771 babc 14ac cb36 338e fa3a 0e44 a4b6
00000210: 71fa 18bc 929e 3abb 56e5 6639 4b16 92bb
00000220: c9d8 c43b 9ab6 c036 c384 43b8 d76c 09ba
00000230: 2002 d1b8 99ad 2439 99d4 8f3b 766a 0abd
00000240: 6d19 2336 2843 b8bb d648 ef38 9021 3ab9
00000250: 9fdb 56bb 139a f638 1779 95b8 f029 0b3b
00000260: 652c 023c 3ac1 1d3b 36a1 b7bc 4bf6 313c
00000270: 7d68 f8ba bf20 52bc 98a1 d03b 8057 1ab8
00000280: 228c a0bf db3b 84b9 da30 a93d 773c c5ba
00000290: f62e edbe 44ac 00be 80b1 153c 7e3c 22be
000002a0: 7290 9b3e feda b539 a958 22bb c967 b8bc
000002b0: 1f97 afbb 89a6 043c 2576 5c3e 18d2 d4bf
000002c0: 25d6 b039 5297 a3be 82c5 b93b 4d2f 2abb
000002d0: 0acc 1dbe 1da0 bd3b 8e70 8bbb beb1 f63d
000002e0: b65b bb3e 9c0a 063e 20f0 96bf b9c5 0e3f
000002f0: a75e c4bd 1455 23bf 005b b33e 2f4d 75ba
00000300: 86d9 65bd 8083 b0b8 31d2 bebb 23d7 a3b8
00000310: c202 79bc 3444 1abc da69 b639 2793 91bb
00000320: 31b9 1d3c 4950 8138 7c11 88b8 030f 673a
00000330: 613a 6cb9 b92c 9c39 17eb 043b 3daf 7cbd
00000340: ca72 29b7 f5e6 ecbb 20ca 5e39 4285 6bb8
00000350: f74e 1dbb 7426 6639 750f 05b9 018d b33b
00000360: 28c5 053c a88e 9f3b b767 20bd d79d b83c
00000370: 76b0 253b d7f1 d2bc feab 463c 7d77 0639
00000380: 187d 58bd d364 9e38 666c 573c 50db 81b8
00000390: f2e8 bebc 8612 f5ba 8da1 bbb8 e17c 04bc
000003a0: 1777 953c 3aa1 f2b7 707d 1db9 67d2 e3ba
000003b0: 3294 90b9 846a c839 a344 8b3c e122 a8bd
000003c0: e8ad 7b38 a6fa b5bc c209 aa39 63fa 98ba
000003d0: d1be 3bbc ca9b 9339 9192 8cb9 f96a cd3b
000003e0: a44e c83c 7107 c03b 3ad4 77bd 7450 d03c
000003f0: 78c7 ccbb 1fce 02bd a3ec 823c 39e0 5938
-0.15258484 -0.0013308587 -0.0017079613 0.0049994634 -0.05807798 -0.013717483 0.00062345713 -0.024237633
0.029301995 0.000117318355 -0.00031724726 -0.0066258227 -0.0006070161 0.000952269 0.021367246 -0.20029433
-5.8782084e-06 -0.031573355 0.00069730013 -0.0059371567 -0.015234785 0.00072376424 0.0033288456 0.014637102
0.032766234 0.015406612 -0.13370377 0.0649728 -0.00695219 -0.075816594 0.03440328 0.0019362388
-0.2515126 -0.0015038635 0.02020002 0.0016574007 -0.07607688 -0.043768585 -1.1168843e-05 -0.050991904
0.059666336 0.00011110423 -0.0003417926 -0.018641552 -0.0009774404 0.0016517041 0.037166405 -0.37240386
3.3981116e-05 -0.051720366 0.0013905637 -0.0054995534 -0.039663438 0.0013050718 0.0030548426 0.027878108
0.0647823 -0.00015627728 -0.21649277 0.108475044 -0.012608945 -0.14350064 0.05933993 0.005660511
-0.49795568 0.00010645727 0.036691256 -0.00018033663 -0.2027369 -0.062322542 0.004627778 -0.09384388
0.12949364 0.0001310772 -0.000999361 -0.01024239 -0.002215634 0.0034048595 0.08378869 -0.7285001
4.084174e-05 -0.12067224 0.0024834285 -0.00433023 -0.07038008 0.0025635597 -0.0015886179 0.04894097
0.16661948 0.05342558 -0.4853921 0.23437549 -0.036396693 -0.27957734 0.13752055 -0.0006761388
-0.01490126 0.00013063462 0.00068791106 0.00015524063 -0.008364707 -0.000932894 0.00043457668 -0.007033972
0.0063303574 1.3830278e-05 -5.677161e-05 -0.00018187703 -7.0689595e-05 0.00011154718 0.0043945867 -0.048411023
-3.315482e-05 -0.0045676944 0.00014275243 -0.0015689904 -0.0037177913 0.00013899972 -1.651161e-05 0.0021565522
0.014652771 0.0010867289 -0.008416237 0.009027874 -0.002163554 -0.014812696 0.0026233876 2.5241993e-06
-0.022759302 6.069904e-06 0.0019115865 -4.8955035e-06 -0.009337054 -0.0028475863 0.00022019944 -0.004458224
0.006007288 5.7433035e-06 -4.6615267e-05 -0.00052423537 -9.9662924e-05 0.00015704929 0.0043893573 -0.033792935
2.4303692e-06 -0.00562324 0.00011409975 -0.00017750845 -0.0032784713 0.00011758893 -7.1274284e-05 0.0021234713
0.007945155 0.002407147 -0.022415739 0.0108619435 -0.0018952038 -0.01282519 0.0063669197 -3.6797952e-05
-1.2542765 -0.00025221598 0.08261271 -0.0015047927 -0.4632489 -0.12565714 0.009136558 -0.15843388
0.3038364 0.00034686172 -0.0024772084 -0.022510426 -0.005358591 0.008096346 0.21529444 -1.6626616
0.00033728886 -0.31951386 0.0056692967 -0.0025968135 -0.15409866 0.0057869093 -0.004255361 0.120456204
0.36593407 0.13089985 -1.179203 0.5577045 -0.09588366 -0.63801694 0.35030365 -0.00093575096
-0.05611565 -8.416828e-05 -0.0058233966 -7.812518e-05 -0.015198411 -0.009415675 0.0003479261 -0.0044425908
0.009626673 6.1661536e-05 -6.488242e-05 0.00088141876 -0.00022528462 0.0002978796 0.0020281726 -0.061690558
-1.0099911e-05 -0.0072296807 0.00021246867 -5.6152472e-05 -0.0024003366 0.00021948834 -0.00012689627 0.0054794555
0.0081646815 0.004869301 -0.03916141 0.022536201 0.002528218 -0.025750084 0.012125967 0.00012823749
-0.052853674 7.552807e-05 0.013148403 -6.1920495e-05 -0.023304436 -0.0018697537 -8.946946e-05 -0.008086414
0.018245263 -2.8923725e-05 -0.00015019416 -0.001738143 -0.00027576234 0.00038226333 0.017000502 -0.082097776
6.0005026e-05 -0.022214245 0.00032432197 -0.0011671301 -0.011459068 0.00028154097 -0.0002681208 0.0062688556
0.024451561 0.005860262 -0.06050513 0.025428988 -0.0062493645 -0.031934854 0.015981978 5.1945655e-05

exp_avg_sq f4 [21, 32]
00000000: 2cc3 b43e 6b92 1b3b 87f3 c53e e626 a73b
00000010: 1477 293e f928 943d 55f8 063b 777e 923d
00000020: 1c48 6b3d a883 2537 fe63 bb36 8f68 433b
00000030: 1b14 b736 95c8 2f37 5c98 003e 40ed ab3e
00000040: 1b57 4f36 4a56 8e3d dafd 5836 5db1 523c
00000050: 050c 173e c8ee 9e36 2075 cd3b 31a7 db3b
00000060: d65b 573e 815e 143c 8e35 173e 36bf 4a3d
00000070: 0be0 bc3d b927 f03d 92d0 103d 8b73 433b
00000080: 0f2b 6c3f 011d ae3b ef7e 953f c2bc 803c
00000090: f034 fd3e 3238 663e 8d34 e23b 0ff6 a53e
000000a0: 8a66 333e 6e7e f337 ca52 8b37 a371 953c
000000b0: 903b 8537 ad04 c837 f609 e43e 038f a53f
000000c0: fd6a 0737 eb02 563e d129 2737 3b90 483d
000000d0: 680a f13e 2eee 5237 ea29 933c f9c8 c03c
000000e0: c682 503f ca80 e038 153e b13e cc3d fa3d
000000f0: d334 8b3e def5 c63e 3f53 ce3d 508d 0a3c
00000100: 3748 7e40 9cc0 7938 3132 8f40 d674 e239
00000110: eef0 eb3f 43c1 473f 7497 9939 fcfb 5f3f
00000120: 9cd6 163f a611 e338 c6ac 6d38 e7f2 8a3c
00000130: fcd2 8338 11ac 0239 035a bf3f 4f04 9240
00000140: 8569 0738 57f3 433f 6677 2438 6ec7 193c
00000150: 02ae dd3f 6169 6c38 4f2c 6838 163f b13d
00000160: 6a32 1b40 0e04 df3d 53b4 de3f 3504 183f
00000170: 2a22 8b3f 2197 af3f 1658 b53e f9c1 a439
00000180: 6626 873b 2040 2a34 76e8 f63b 3764 8e36
00000190: dcc5 693b bd08 9e3a c394 f436 98bf ae3b
000001a0: 2f52 8f3a b0fe 3e34 4bfd b333 4df9 1538
000001b0: 32ef 9d33 906f 4d34 c2da 1a3b 1729 783c
000001c0: 640e 7a33 3047 8d3a 1cf4 9233 3127 2439
000001d0: b529 573b e9e0 0334 04fa 5234 05ed 7939
000001e0: 8d72 8b3b fadf da39 227b df3a cdf5 813a
000001f0: f3f3 c73a 903b 173b 7229 263a 8eaa e235
00000200: 0c4f 083c 51aa 0534 05d5 193c d79f 7235
00000210: c978 7e3b fd7b d63a 825a 2a35 1c5a f43a
00000220: 9758 a23a 482e 7434 ebc8 fe33 96ff 1338
00000230: 3976 0d34 e288 8c34 2603 4c3b eb48 1f3c
00000240: 5f87 9133 ee39 d23a 0d34 b133 279c a737
00000250: d279 6e3b 4cbd ff33 bae3 f633 4ded 4039
00000260: 2fc3 a63b 3779 7239 797e 6e3b 539d a33a
00000270: de35 153b 7e3d 3d3b 4124 433a b276 3035
00000280: e863 c241 bd24 b839 1210 d341 ecec 173b
00000290: 8e26 2a41 6306 9840 22b8 8d3a 6f88 8c40
000002a0: 8d10 5740 5b34 263a 484c b539 331b fd3d
000002b0: 9e77 c139 1729 3a3a abe3 0641 b647 b341
000002c0: c2aa 4a39 096f 9240 122c 6839 b19a 4d3d
000002d0: 3650 2041 cf9a a239 0f00 ad39 2099 e63e
000002e0: ded4 4c41 ac0f 1a3f 4845 2841 bfb9 5840
000002f0: 0a72 ce40 fb6a fa40 9ee9 0140 87d9 f93a
00000300: c97b 3f3d fef6 1f35 3de4 3f3d e6cb 8136
00000310: 46c2 9a3c a23e 133c 5137 ee35 af3c da3b
00000320: e3b0 bd3b 7453 9d35 50e0 2c35 94f1 9f39
00000330: e6ac 1f35 9278 a435 ed93 293c 9ea8 0a3d
00000340: 9e03 c134 dd25 073c b6bf bd34 0554 1b39
00000350: 6d98 903c f774 0c35 3d43 2e35 de8a 323a
00000360: 469d 773c 735d 743a 91ce 983c 1d69 c43b
00000370: c91c 353c c693 593c bdf7 683b 8319 7536
00000380: 06ca 4f3d f0e8 6d35 b8b4 7c3d 3d7f 0737
00000390: b811 c93c c840 303c 972f 8f36 c838 4f3c
000003a0: 133e fb3b db1a be35 7bbe 5a35 dcb7 3239
000003b0: 10ae 6b35 4a43 ce35 5a10 c03c 45f1 433d
000003c0: 02c0 ef34 33c3 2b3c 548b 0935 1194 2d39
000003d0: a9b7 be3c 3ff8 3035 b45e 4a35 7388 7a3a
000003e0: 3b69 063d eb72 d43a c052 b53c 5560 ee3b
000003f0: b9b0 793c 14db 8d3c de91 943b 1842 9c36
0.35305154 0.0023738395 0.3866236 0.0051010726 0.16549331 0.072343774 0.0020594795 0.071530275
0.057441816 9.86542e-06 5.584675e-06 0.002981696 5.4561656e-06 1.04775145e-05 0.1255812 0.33579445
3.0896106e-06 0.06950052 3.233427e-06 0.0128596695 0.14750679 4.7365647e-06 0.006270066 0.0067032804
0.21031126 0.009055735 0.14766523 0.04949876 0.0922242 0.117263265 0.03535516 0.0029823508
0.922532 0.005313516 1.1679362 0.015715007 0.4945445 0.22482374 0.006903237 0.3241429
0.17519584 2.902673e-05 1.6608643e-05 0.018242663 1.5882571e-05 2.3844035e-05 0.4453885 1.2934269
8.071537e-06 0.2089955 9.963712e-06 0.048965674 0.47078252 1.2572431e-05 0.017964322 0.023533331
0.81449544 0.00010705141 0.34617677 0.12218818 0.2718874 0.38859457 0.10074472 0.008456543
3.9731576 5.9545608e-05 4.474877 0.0004319313 1.8432901 0.7802927 0.00029295275 0.8749387
0.5892122 0.00010827491 5.666611e-05 0.016961528 6.285866e-05 0.00012461866 1.4949344 4.563026
3.228478e-05 0.7654318 3.9211845e-05 0.009385927 1.7318728 5.6364926e-05 5.5354376e-05 0.08654611
2.424952 0.10889445 1.739878 0.5938142 1.0869801 1.3717996 0.35418767 0.00031425038
0.0041244505 1.5855812e-07 0.0075350357 4.2435963e-06 0.0035670912 0.0012057048 7.289085e-06 0.0053328983
0.0010934527 1.7787784e-07 8.381411e-08 3.5756548e-05 7.3543916e-08 1.9132699e-07 0.0023628925 0.015146515
5.822075e-08 0.0010778662 6.843058e-08 0.00015654859 0.0032831256 1.2282148e-07 1.9648729e-07 0.00023834787
0.004255599 0.00041747076 0.0017050246 0.0009915173 0.0015255198 0.0023076274 0.00063385733 1.688795e-06
0.0083196275 1.2448551e-07 0.009389167 9.038462e-07 0.0038829318 0.0016363856 6.346164e-07 0.0018642577
0.0012386021 2.2741108e-07 1.18643435e-07 3.5285564e-05 1.3174657e-07 2.6176627e-07 0.0031129806 0.009721975
6.7767125e-08 0.0016038993 8.251673e-08 1.9980665e-05 0.0036388529 1.1908796e-07 1.1496691e-07 0.00018398948
0.0050891857 0.00023124075 0.0036391302 0.0012482799 0.0022767703 0.0028875764 0.0007444062 6.5737834e-07
24.298782 0.00035122587 26.382847 0.0023181988 10.634413 4.7507796 0.0010812322 4.3916545
3.3603852 0.0006340199 0.00034579844 0.123587035 0.0003690095 0.000710146 8.430583 22.410015
0.00019327833 4.576054 0.00022141662 0.050196353 10.019583 0.0003101439 0.00032997175 0.450387
12.80197 0.60180163 10.516914 3.386337 6.451421 7.825559 2.0298839 0.0019062021
0.04674891 5.9591537e-07 0.046848524 3.8682365e-06 0.018891465 0.008987101 1.7748481e-06 0.006660066
0.005788909 1.17217e-06 6.440141e-07 0.00030506833 5.9483716e-07 1.2254043e-06 0.01035021 0.033852212
3.5951683e-07 0.008248773 3.534348e-07 0.00014813252 0.017650807 5.232427e-07 6.4917896e-07 0.0006810854
0.0151131805 0.00093217863 0.018653186 0.005993976 0.011054226 0.013279861 0.0035548054 3.6522695e-06
0.050729774 8.862835e-07 0.061695784 8.076252e-06 0.024544582 0.010757633 4.2672723e-06 0.012647815
0.007667312 1.4163919e-06 8.1488514e-07 0.00017043896 8.7797616e-07 1.536778e-06 0.023445297 0.047837514
4.4656923e-07 0.010483551 5.1239226e-07 0.00016553725 0.023280935 6.5926355e-07 7.5388675e-07 0.00095570757
0.0328152 0.0016208565 0.022134185 0.0072746673 0.015239888 0.017316379 0.0045339903 4.6568566e-06

exp_avg f4 [32]
00000000: 4606 b1bc 39a3 76ba 957b 78ba 6c4d 6f39
00000010: 39e8 d1bb 6203 99ba 0d96 103a 0711 95bb
00000020: 66c6 843b b735 7237 58e1 14b8 bff9 e939
00000030: 65cf b0b8 415f 0039 d560 adb8 c0b9 97bc
00000040: d7c8 2db7 fa0d 96bb d9a8 a738 d7c9 0cbb
00000050: ad8a f8ba d6f7 bd38 65bc 343a d9cf 4e3b
00000060: 0919 923b 4657 d23a a5fb 95bc d231 0c3c
00000070: d70d fdba 00e6 18bc 541f a73b 6f40 c239
-0.021609437 -0.00094084773 -0.00094788644 0.00022821658 -0.006405857 -0.0011673982 0.00055155234 -0.004549149
0.0040519712 1.44368305e-05 -3.5495817e-05 0.00044627298 -8.430964e-05 0.00012242516 -8.267319e-05 -0.01852119
-1.0358365e-05 -0.004579303 7.994631e-05 -0.002148261 -0.0018962227 9.058385e-05 0.0006894528 0.0031556992
0.004458551 0.0016047738 -0.01830847 0.0085568 -0.0019306493 -0.00933218 0.00510017 0.0003705057

exp_avg_sq f4 [32]
00000000: 75ed a23b a2e1 a737 9021 b63b 0857 7138
00000010: b4d8 293b 52f4 823a 1b7c 0e38 ac51 c43a
00000020: 80b2 4b3a e97c 1034 e186 9d33 f2e7 8b38
00000030: cbb1 b033 82c1 2a34 cc3c ff3a 42ae c03b
00000040: c646 4133 315a 743a a057 5033 3007 2e39
00000050: aab1 0a3b 0307 a233 64be 7a38 1fe5 e938
00000060: deaf 543b 191f 5b39 2006 fd3a ae86 3b3a
00000070: 2900 ae3a 7188 ea3a a9f5 063a f33d cf37
0.0049721547 2.001302e-05 0.0055582 5.753993e-05 0.0025916519 0.0009991026 3.397102e-05 0.0014977953
0.0007770434 1.3456487e-07 7.3354165e-08 6.67124e-05 8.227979e-08 1.5902882e-07 0.0019473075 0.005880148
4.5000682e-08 0.0009321301 4.850847e-08 0.0001659661 0.0021163025 7.544988e-08 5.978196e-05 0.00011152983
0.0032453458 0.00020897052 0.0019304194 0.0007153553 0.0013275194 0.0017893446 0.00051483006 2.470517e-05

exp_avg f4 [32, 32]
00000000: eb2a b2b9 629d 1fbb 4681 da37 d53c 67bb
00000010: 2362 a639 501f e4ba 35d0 04bb 7ac4 7eb9
00000020: 14f8 6bbb 1e76 ccb9 0850 c83b 22e3 4fbb
00000030: fd84 2cba e3fc 2b38 d44a 85b8 3826 02bb
00000040: 6122 133a 9b38 83bb 7c7f b9bb db3d 6c3b
00000050: b8e5 65ba ec3a 07bc adf2 fa39 1f27 ab38
00000060: 1f28 07bc 2028 183b 3358 e1bc fbce 5d3b
00000070: b694 243c ce98 a23c 4152 b5bb 94d5 18bc
00000080: 2cb4 0139 7653 473a a535 fb39 31e5 093a
00000090: 2152 b039 2f29 07b9 b67c 82b9 6267 18ba
000000a0: 4902 2e3a efac 22ba 31d5 b2ba 7c67 b7b9
000000b0: 6fdd 13bb 9a2c d238 cb3b 1039 2cef 79b9
000000c0: e41f 773a 00e8 123a 07bd 383a c932 c9bb
000000d0: e743 153b 712d 9a3a ee8d 0a3a dbfc efb7
000000e0: c3e6 a83a bbf3 48ba d362 2c3b dd4d a03a
000000f0: 4355 a5ba 7c22 30bb 0bf6 fdb9 d91d f53a
00000100: 85e8 893c 1998 cabb 657d 21ba 39fa babc
00000110: 1406 40bc 9abb 3e39 52c3 97bb f144 dd3a
00000120: 4d66 0bbd bbcc 28ba a0dd 5c3d 2d7f a03b
00000130: 09c4 34b9 5308 b038 1f1c 7db8 d0ae 9bbb
00000140: 3f27 a8bc 7380 f8ba 3872 24bd cf55 f53b
00000150: a4f9 48bc ebc4 2cbd d002 d7ba aa26 1e3a
00000160: 0c4b 59bd b710 703c 26d5 edbd 813b 6339
00000170: 6a21 603d fd00 d63d 5285 23bc 324e 4ebd
00000180: 6b5b e0b8 b525 053a 5d96 f9b6 f489 1d3a
00000190: 56e1 6639 86bc 483a f1fc 92b9 ab9f f0b9
000001a0: 5f62 493a d286 39b9 1a20 ccba be4e bfba
000001b0: f6c8 1fbb 0337 9638 cd94 0137 4561 65b9
000001c0: 49af 9239 12ca 133a ee70 983a a4b5 b7bb
000001d0: 4311 543b 6b39 6f3a ff54 9239 0a47 04b8
000001e0: ab86 3d3a fb97 20ba 4751 7c3b aa48 2b3b
000001f0: 9457 b9ba c38a 45bb 5b5d 94ba 38d9 eb3a
00000200: 687f 363c 9dea 1d3b fffb 04b9 df74 7ebc
00000210: 03fb 3dbc b206 223c 7a52 96bb abaf f83a
00000220: c9c3 1cbd 190d 50ba 6c8e 6f3d bdd0 373c
00000230: 45e5 6bba af40 1739 d2f4 99b7 2ee9 75ba
00000240: ddfc d8bc acf9 34bc b834 3ebd cbca c93c
00000250: ce37 24bc eb96 19bd 3e2c e5bb 883e 233a
00000260: f301 52bd 244b 713c 191f 04be 8ac1 b53b
00000270: 0c11 5d3d 5e83 d03d bb29 a4b8 af04 45bd
00000280: d530 033d 7f68 30bb 9ff9 9aba ae07 2dbd
00000290: a45a d5bc d9c1 803c 5258 2ebc c10e 6b3b
000002a0: 9612 adbd 2d19 cdba 80e6 053e 5d37 aa3c
000002b0: c802 39b9 dc3f 0e39 f660 7ab9 8be1 b4bb
000002c0: 9a56 61bd c40b 95bc 213b cfbd 49db 703d
000002d0: 482e cabc 3826 bdbd 4c87 45bc 39b5 bc3a
000002e0: 2d62 f3bd 1655 0f3d 31a8 94be 4319 0c3c
000002f0: 2f3a 013e 764d 753e c3da 26bc 2758 ebbd
00000300: a3bc 6a39 d2ea 023a 06b4 04b9 9c59 9fb7
00000310: 25cd 8839 7df6 8fb8 2473 dcb9 8c12 fbb9
00000320: f747 083a e047 d5b8 f504 8eba 8bf1 cdba
00000330: 878e d5ba 955e e0b7 9ad3 32b8 d74d eeb9
00000340: d3d9 ec39 9de7 353a 002d 573a 7247 ddbb
00000350: 87c8 e13a 7965 9739 8929 073a 01d2 a4b7
00000360: 2157 9f39 7b69 6bb9 458f c43a 85cd 1cb8
00000370: a818 04ba 034e 8eba 59ab 87ba 4925 6a3a
00000380: d08a 0739 a37d 663a 3709 6138 5074 9739
00000390: 0840 d5b9 cb42 cfba ecdc 4bbb 6e75 91b9
000003a0: 7f98 69bb f16f 95b9 5133 993b b9d7 6c3b
000003b0: 48b7 efba 48c6 7f38 9d4e 5738 2ea4 38b9
000003c0: 9425 f9ba 517f 71bb d0d5 d0bb 982d 42bc
000003d0: c4b6 893b 97c1 3f3a 2e94 1b39 71bd 0b37
000003e0: 0940 f2bb 4160 9bb9 59f7 9cbc 55ff 1b3c
000003f0: 491e 7d3b a83f e63b f26b de3a c9ab 83b9
-0.00033982782 -0.0024355282 2.6047823e-05 -0.0035284061 0.00031735105 -0.0017404351 -0.0020265703 -0.00024296521
-0.003600602 -0.00038997916 0.006113056 -0.0031721075 -0.0006581096 4.1005096e-05 -6.355872e-05 -0.0019859206
0.0005612728 -0.0040045506 -0.0056609493 0.003604761 -0.00087698875 -0.008253794 0.00047864523 8.161202e-05
-0.008249312 0.0023217276 -0.027507877 0.0033845294 0.010045221 0.019848254 -0.005533487 -0.009328265
0.00012369518 0.0007603684 0.0004791442 0.00052602874 0.00033630527 -0.00012889945 -0.0002488845 -0.0005813745
0.0006637914 -0.00062055787 -0.0013643858 -0.00034981582 -0.0022562405 0.00010021888 0.00013755185 -0.00023835589
0.00094270543 0.00056040287 0.000704721 -0.0061400873 0.0022776069 0.001176281 0.00052854314 -2.8608765e-05
0.0012886155 -0.0007665713 0.002630402 0.0012230236 -0.0012613911 -0.0026876023 -0.00048439237 0.0018700912
0.016834507 -0.0061826822 -0.0006160348 -0.022824394 -0.011720199 0.00018189699 -0.0046314383 0.0016881508
-0.03403311 -0.00064391986 0.053922296 0.004897973 -0.00017239166 8.3938845e-05 -6.034609e-05 -0.004751064
-0.020526526 -0.0018959179 -0.04014799 0.007487036 -0.01226655 -0.042179983 -0.0016404036 0.0006032983
-0.053050086 0.014652423 -0.116129205 0.00021670574 0.054719366 0.10449407 -0.0099805165 -0.05036754
-0.0001069818 0.0005079166 -7.438283e-06 0.00060096313 0.00022018453 0.0007657487 -0.00028035746 -0.0004589533
0.00076822 -0.000176932 -0.0015573532 -0.001459561 -0.0024381257 7.162804e-05 7.723645e-06 -0.00021875378
0.00027977888 0.0005637716 0.0011630335 -0.00560637 0.0032358922 0.00091256824 0.00027910617 -3.1537413e-05
0.0007229845 -0.00061261625 0.0038500594 0.002613584 -0.001414048 -0.0030142523 -0.0011319326 0.0017993813
0.011138774 0.002409614 -0.00012682377 -0.015530794 -0.01159549 0.009889292 -0.0045874687 0.0018973252
-0.038272653 -0.0007936522 0.058485433 0.011219201 -0.00089987024 0.00014424579 -1.8353025e-05 -0.0009380755
-0.026487762 -0.011045855 -0.046436995 0.024632832 -0.0100230705 -0.037497442 -0.0069937995 0.00062272744
-0.05127139 0.014727388 -0.12902488 0.0055467533 0.053971335 0.10181306 -7.827902e-05 -0.04810017
0.03202899 -0.0026917753 -0.001182366 -0.042243652 -0.026044197 0.015717434 -0.010641174 0.0035866948
-0.084508106 -0.0015647762 0.1307621 0.020778352 -0.00017644011 0.00013565965 -0.00023877979 -0.005520051
-0.05501423 -0.018194087 -0.101187 0.058802877 -0.024680272 -0.09235805 -0.012056183 0.001439727
-0.1188396 0.034993254 -0.2903457 0.008550945 0.12619852 0.2395533 -0.010183993 -0.11491423
0.00022386252 0.00049940974 -0.00012655565 -1.8996005e-05 0.00026092786 -6.8646834e-05 -0.00042047456 -0.0004788827
0.0005198712 -0.00010170019 -0.0010835218 -0.0015712244 -0.0016293087 -2.6746924e-05 -4.2635576e-05 -0.00045452893
0.0004517572 0.0006939115 0.00082083046 -0.0067529017 0.00172259 0.00028876567 0.00051560305 -1.9648114e-05
0.0003039176 -0.00022450641 0.0014996311 -3.7384703e-05 -0.00050390745 -0.001085699 -0.0010350748 0.00089319475
0.00012926315 0.0008792525 5.3652762e-05 0.00028887624 -0.00040674233 -0.0015812753 -0.0031107021 -0.00027744047
-0.0035643873 -0.00028502897 0.004675307 0.0036139323 -0.0018288875 6.09814e-05 5.133321e-05 -0.00017608769
-0.0019008392 -0.0036849568 -0.0063731447 -0.011851691 0.0042026956 0.0007314919 0.00014837153 8.329153e-06
-0.0073928875 -0.0002963562 -0.019160913 0.009521325 0.0038622788 0.0070266314 0.0016969426 -0.00025114257
